HAC-Baseline/preTrained/LunarLanderContinuous-v2/3level/HAC_LunarLanderContinuous-v2_surprise_sync_level_2_crtic.pth (torch, 25239 bytes, 5 tensors)

critic.0.weight f4 [64, 24]
0	0x3e88221f	0.26588532
1	0xbea8be46	-0.32957667
2	0xbc9723a2	-0.018449608
3	0xbdee4578	-0.11634344
4	0xbdc0b11e	-0.094087824
5	0xbe8dc0ab	-0.27686056
6	0xbe40c93f	-0.1882677
7	0xbd822f43	-0.06356671
8	0x3d8fb71b	0.070173465
9	0x3ceaee8b	0.0286782
10	0xbd911cc8	-0.07085568
11	0x3e126de7	0.14299737
12	0xbba7dfe5	-0.005123126
13	0x3ca4e6c4	0.020129569
14	0x3dd35fdf	0.1032102
15	0xbe6fff23	-0.2343717
16	0x3c8b68c0	0.017017722
17	0xbd61eae4	-0.05515565
18	0xbe280be2	-0.16410783
19	0x3e2b71b0	0.16742587
20	0xbe61870c	-0.22024173
21	0x3e236119	0.15955009
22	0xbda6b2da	-0.08139582
23	0x3d970022	0.07373072
24	0x3d9937a7	0.07481318
25	0xbf1ab82a	-0.6043726
26	0x3e7ebd8f	0.24876998
27	0x3e1b92e8	0.15192759
28	0xbe28b7f0	-0.16476417
29	0xbe070959	-0.1318716
30	0x3e3ef7c4	0.18649203
31	0xbe4989df	-0.196815
32	0xbe404b2b	-0.18778674
33	0xbe9cc8e5	-0.3062202
34	0xbe44b1f9	-0.19208516
35	0x3ea6e865	0.32599178
36	0xbcb0c326	-0.021577429
37	0x3c5715b6	0.013127735
38	0xbe36239c	-0.17787021
39	0xbe102e4d	-0.14080162
40	0xbd4cca04	-0.049997345
41	0xbd249bcb	-0.04018764
42	0xbd3cb19e	-0.046067826
43	0xbe57a74e	-0.21059915
44	0x3e15839e	0.14600989
45	0xbe24a8a7	-0.16079961
46	0x3e1190bf	0.14215373
47	0xbddc9e3b	-0.107723676
48	0xbe4c50f5	-0.19952758
49	0xbe9ee8f0	-0.31037092
50	0x3cf3a0f0	0.029739827
51	0xbd64f61f	-0.055898782
52	0x3ea79747	0.32732603
53	0x3cb36d3a	0.02190267
54	0xbdf2b1ba	-0.11850305
55	0x3d559422	0.052143224
56	0x3d360bb9	0.044444773
57	0x3d284eab	0.04109065
58	0xbdc24343	-0.094854854
59	0x3bb61b8e	0.005557484
60	0x3b8a4870	0.004220061
61	0xbd05b8bb	-0.032646876
62	0xbe02e699	-0.12783279
63	0x3d830728	0.06397849
64	0x3c71c337	0.0147560155
65	0x3e108cd1	0.14116217
66	0xbd7416ae	-0.05959194
67	0xbdcfcdfe	-0.10146712
68	0x3cc6f7ce	0.024288084
69	0x3e24cb59	0.16093196
70	0x3ded2673	0.11579599
71	0x3e411a74	0.18857747
72	0x3d50a2f2	0.050936647
73	0xbe2f8808	-0.17141736
74	0xbe1888b9	-0.14895906
75	0xbd3c024f	-0.04590064
76	0xbd9b813e	-0.0759301
77	0x3c4446f6	0.011979809
78	0x3d93d4a8	0.07218295
79	0x3c86993b	0.016430488
80	0x3db00a4c	0.08595714
81	0xbe92ef20	-0.28698063
82	0x3cd68936	0.026188474
83	0x3df89a63	0.12138822
84	0x3b9b4dca	0.004739498
85	0x3c7fde23	0.015616926
86	0xbe059ee0	-0.13048887
87	0xbe97f338	-0.2967775
88	0xbdbf121b	-0.09329625
89	0x3d2e495e	0.042550437
90	0xbe93cf8a	-0.28869277
91	0xbd4ae2cb	-0.049532693
92	0x3d6d50c4	0.057938352
93	0x3d57696d	0.052590776
94	0x3d2ac113	0.041688036
95	0x3f13e1fe	0.5776671
96	0xbd007c1f	-0.03136837
97	0xbea1cd37	-0.3160188
98	0xbe502656	-0.20327124
99	0xbe90f5e6	-0.28312606
100	0x3e1439b3	0.14475136
101	0x3dc36ae8	0.09541875
102	0x3c3dd115	0.011585494
103	0x3d22d3ea	0.03975288
104	0x3e4375d8	0.19087923
105	0x3cf8ebf3	0.030385947
106	0xbcdc8fb5	-0.026923994
107	0x3e374f82	0.17901424
108	0x3c919ce9	0.017775016
109	0xbc0d3961	-0.008619637
110	0x3db49c5c	0.08818886
111	0xbd951825	-0.07279996
112	0x3e5e1aed	0.21689959
113	0xbd96d43e	-0.07364701
114	0x3e63b7be	0.22238061
115	0xbe1a68c5	-0.15079029
116	0xbdd00bd7	-0.10158508
117	0xbdd139a9	-0.10216076
118	0xbdb609a7	-0.0888856
119	0xbe0565d5	-0.13027127
120	0x3e154d54	0.1458028
121	0xbdf62f7b	-0.12020775
122	0x3d19530b	0.03743271
123	0x3cf5b2a8	0.029992417
124	0x3d84fee5	0.0649393
125	0xbbe1cf66	-0.006891179
126	0xbd2bf7a9	-0.041984234
127	0xbe47ef2d	-0.19524832
128	0xbbf68195	-0.0075227716
129	0xbe04642c	-0.12928838
130	0xbce210dd	-0.027595932
131	0x3dea6ecc	0.11446914
132	0xbc1388a8	-0.009004749
133	0xb9c3a2b9	-0.00037314536
134	0xbe6f7687	-0.23385058
135	0xbe06b601	-0.13155366
136	0xbe0c2622	-0.13686422
137	0x3de0c3f5	0.10974876
138	0x3dda94a9	0.10672886
139	0xbe6751e2	-0.2258983
140	0xbda215f5	-0.07914344
141	0xbda5a872	-0.08088769
142	0x3e3d2cf7	0.18474184
143	0xbdbcb420	-0.092140436
144	0xbe26f278	-0.16303432
145	0xbd45489d	-0.048164953
146	0xbc0479cb	-0.008085678
147	0x3cab9453	0.02094475
148	0xbd32672c	-0.043555424
149	0xbcc49d82	-0.024000887
150	0xbe4b9a60	-0.19883108
151	0x3e23b3ea	0.159866
152	0xbc252014	-0.010078449
153	0xbe0f4dc5	-0.1399451
154	0xbcb18ce0	-0.02167362
155	0x3e1a237c	0.15052599
156	0xbb1f5006	-0.0024309172
157	0xbb9ef761	-0.004851267
158	0xbe4cbd06	-0.19993982
159	0xbdfab610	-0.12241757
160	0xbec04957	-0.37555954
161	0x3ea49cd9	0.32150915
162	0xbdeea61f	-0.11652779
163	0xbede750b	-0.43448672
164	0xbe057cbe	-0.13035867
165	0xbec127e8	-0.3772576
166	0x3ea11299	0.314595
167	0xbdc4bb4f	-0.09606039
168	0x3e76587c	0.24057192
169	0x3ef2e837	0.4744279
170	0x3a218620	0.0006161649
171	0xbe2ca5bb	-0.16860096
172	0xbdbcfe9d	-0.09228251
173	0xbe7e397e	-0.24826619
174	0xbe235d2e	-0.15953514
175	0xbddeb5a9	-0.10874493
176	0xbd89157b	-0.0669355
177	0x3baf79c9	0.005355094
178	0xbdb3da19	-0.08781833
179	0x3e5aa1a4	0.21350724
180	0xbc47287f	-0.012155651
181	0xbccc5cc5	-0.02494658
182	0x3dd87221	0.10568643
183	0xbcc1e529	-0.023668842
184	0xbf26ef60	-0.6520901
185	0x3fb38947	1.4026269
186	0xbf0a1a2c	-0.53946185
187	0xbf33bd8f	-0.7021112
188	0x3fd5ec0a	1.6712658
189	0xbef7da12	-0.48408562
190	0x3efa1182	0.48841482
191	0x3f2093ec	0.6272571
192	0x3dbf9b49	0.0935579
193	0xbe99c5a2	-0.30033594
194	0xbd995ebd	-0.07488773
195	0xbeb77839	-0.3583391
196	0x3d05c31f	0.032656785
197	0xbe6bf8c1	-0.23044111
198	0x3d1ef76a	0.03881017
199	0x3d863dec	0.065547794
200	0xbbb8869a	-0.00563128
201	0x3c900e5d	0.017584974
202	0x3d3013f5	0.042987783
203	0x3bb960e1	0.005657301
204	0xbaea0bfe	-0.0017856357
205	0x3cd3b84d	0.025844717
206	0x3d4ff4f8	0.05077073
207	0xbe0da25d	-0.13831468
208	0xbe394914	-0.18094283
209	0x3bc9d4c5	0.0061593973
210	0x3e8d15c9	0.27555683
211	0xbeaf9806	-0.34295672
212	0x3efabd4a	0.4897254
213	0xbe879a85	-0.26485077
214	0x3e4f7a6c	0.20261544
215	0x3e796336	0.24354252
216	0xbdd0ba0c	-0.101917356
217	0xbd4b3a6e	-0.04961627
218	0x3c53154a	0.012883494
219	0xbc8afb96	-0.016965669
220	0x3e3e445f	0.18580769
221	0x3d9b8f62	0.075957075
222	0xbd14243a	-0.03616736
223	0x3dba10eb	0.09085258
224	0xbd13a8b3	-0.036049556
225	0xbdc4e76e	-0.09614454
226	0xbb72081b	-0.00369311
227	0x3e133c29	0.14378418
228	0xbc731df3	-0.014838683
229	0xbb0bf56c	-0.0021356
230	0xbe365020	-0.17804003
231	0xbdd3d569	-0.10343439
232	0xbe7383ea	-0.2378079
233	0x3da34477	0.07972043
234	0xbe89a5dd	-0.26884356
235	0xbe37fba8	-0.17967093
236	0xbec4e89a	-0.3845871
237	0xbbc7e2be	-0.006100028
238	0xbe014f21	-0.12627842
239	0x3e0b3d2d	0.13597555
240	0xbdc4fad3	-0.096181534
241	0xbe8d0353	-0.275416
242	0xbcd8fce6	-0.026487779
243	0x3e1c9747	0.15292083
244	0x3e22cd42	0.15898612
245	0x3d224b13	0.039622378
246	0x3d0a14de	0.033711307
247	0x3e40a210	0.18811822
248	0x3c5f2279	0.013619059
249	0xbe3c8e0c	-0.18413562
250	0xbbce09cb	-0.0062877885
251	0xbd4e8605	-0.05042078
252	0xbb8a638b	-0.004223292
253	0xbc70d606	-0.014699465
254	0xbe1fe2d3	-0.1561387
255	0x3d63567c	0.0555024

critic.0.bias f4 [64]
0	0xbe4635aa	-0.19356409
1	0xbe971b46	-0.29512995
2	0xbe3d6ac3	-0.18497758
3	0xbe192354	-0.14954883
4	0xbb9f186c	-0.0048552062
5	0x3d990cbc	0.07473132
6	0xbddcf7af	-0.107894294
7	0x3f0698e2	0.5257703
8	0xbeb14103	-0.34619913
9	0xbdf24dc3	-0.11831238
10	0xbb042dc2	-0.0020168875
11	0xbe2f407f	-0.17114447
12	0xbe3b2234	-0.18274766
13	0xbe227cab	-0.1586787
14	0x3ec967d1	0.39337018
15	0xbe898a33	-0.2686325
16	0xbe93055e	-0.28715032
17	0xbd84c340	-0.064825535
18	0xbe9d4339	-0.3071535
19	0x3c27c5af	0.010240003
20	0xbed2753e	-0.41105074
21	0xbe562a78	-0.20914638
22	0xbe0d1700	-0.13778305
23	0x3e8aec56	0.27133435
24	0xbe6d163c	-0.23153013
25	0xbe97ee21	-0.29673865
26	0xbeba68e0	-0.36408138
27	0xbe87cf5d	-0.26525393
28	0xbea7aaab	-0.32747397
29	0xbe31879f	-0.17336892
30	0xbec6aec4	-0.3880521
31	0xbeb37a7d	-0.3505439
32	0xbe578d19	-0.21049918
33	0xbea8e4c1	-0.32987025
34	0xbe6176e4	-0.2201801
35	0x3e8b5bb6	0.27218407
36	0x3ea94c02	0.33065802
37	0xbcdeff9f	-0.027221499
38	0xbe64d691	-0.22347476
39	0xbe33e2b7	-0.17566954
40	0xbe8c36d8	-0.27385592
41	0xbe1e86ca	-0.15481105
42	0xbd5de6a3	-0.05417503
43	0xbe109e9f	-0.14123009
44	0xbe194525	-0.14967783
45	0xbe955f19	-0.29174116
46	0xbf0594bf	-0.52180094
47	0xbee8c678	-0.4546392
48	0xbe797c2b	-0.24363773
49	0xbde4eef5	-0.1117839
50	0xbe7d6904	-0.24747092
51	0xbe9447b8	-0.28960967
52	0xbe85a646	-0.2610342
53	0xbe2b463f	-0.16726016
54	0xbe2d6fdc	-0.16937202
55	0x3ed76d10	0.42075396
56	0xbe385346	-0.18000516
57	0xbe5d21a4	-0.21594864
58	0xbf0661ec	-0.52493167
59	0xbe53f987	-0.20700656
60	0xbe322126	-0.17395458
61	0xbea5a5af	-0.3235297
62	0xbd6e89bb	-0.05823682
63	0xbd39b9cc	-0.045343205

critic.2.weight f4 [64, 64]
0	0xbd8f6642	-0.07001926
1	0x3dd9b8cc	0.1063095
2	0xbea0a3fa	-0.31375104
3	0x3dc4664e	0.095898256
4	0x3d7927a1	0.06082881
5	0xbe5aec3f	-0.21379183
6	0xbd42cbfd	-0.04755782
7	0x3f09e5b8	0.5386615
8	0xbea57750	-0.3231759
9	0xbe54abdd	-0.20768686
10	0xbeb69318	-0.356591
11	0x3ec870b9	0.391485
12	0x3e86b2c4	0.26308262
13	0xbdb76eed	-0.08956704
14	0x3e765f2c	0.24059743
15	0xbdcfb316	-0.1014158
16	0x3e370542	0.178731
17	0x3d885779	0.06657309
18	0xbee088ac	-0.43854272
19	0xbe2f9b09	-0.17148985
20	0xbe357b69	-0.17722858
21	0xbd311a35	-0.043237884
22	0xbe2d326a	-0.16913763
23	0x3d34b2f2	0.044115968
24	0xbea741d1	-0.326674
25	0xbdde6a56	-0.10860126
26	0xbe902980	-0.28156662
27	0x3f0a54eb	0.54035825
28	0xbe3c373d	-0.18380447
29	0x3f5ab8d9	0.85438305
30	0xbe85deb9	-0.26146486
31	0xbe2999d8	-0.16562593
32	0x3e071897	0.13192974
33	0xbe063e31	-0.13109662
34	0xbd3906c5	-0.04517247
35	0x3e9cb08f	0.30603454
36	0x3e11e63c	0.14247984
37	0x3eefbd68	0.46824193
38	0x3e411a3f	0.18857668
39	0x3dd3c369	0.10340006
40	0x3e0bf46c	0.13667458
41	0x3e8fad06	0.28061694
42	0x3d571794	0.05251272
43	0x3e780581	0.2422085
44	0x3d90a41f	0.070625536
45	0xbe32856c	-0.17433709
46	0xbd8f9a93	-0.070119046
47	0xbd9a1cec	-0.07525048
48	0x3d903ae6	0.07042484
49	0xbea73216	-0.326554
50	0xbe0bfae7	-0.1366993
51	0xbd7bb62d	-0.061453033
52	0x3d936823	0.07197597
53	0x3dbd0ddb	0.09231158
54	0xbdacc3dc	-0.08435795
55	0x3d4ab91b	0.049492937
56	0xbc24d4e7	-0.0100605255
57	0xbdd93a00	-0.10606766
58	0xbe8414ec	-0.25797212
59	0x3c7ecd49	0.0155518735
60	0x3d4ab58f	0.049489554
61	0xbea0de49	-0.3141959
62	0x3e9acc19	0.3023384
63	0x3de4dc7d	0.11174867
64	0x3e55560f	0.2083361
65	0x3cd984df	0.026552616
66	0xbd230826	-0.039802693
67	0x3d0a52af	0.03377026
68	0x3de7d469	0.11319811
69	0xbe9d3755	-0.30706277
70	0xbe222049	-0.15832628
71	0xbe18eef8	-0.1493491
72	0xbd859604	-0.06522754
73	0xbe26990f	-0.16269325
74	0xbde2b975	-0.11070529
75	0x3efa219f	0.48853776
76	0x3e0e4c4c	0.13896292
77	0x3de64adf	0.11244749
78	0x3cc4a988	0.02400662
79	0xbe9d2ea0	-0.30699635
80	0xbf056090	-0.5210047
81	0x3d5a81e9	0.05334655
82	0x3e7b0873	0.24514942
83	0xbde9d1d5	-0.114169754
84	0x3f05203e	0.5200232
85	0x3d5c5874	0.053795293
86	0xbd59b0b6	-0.05314704
87	0xbe83e7a0	-0.25762653
88	0xbeb70874	-0.35748637
89	0xbe1bf3e8	-0.15229762
90	0xbcfa7024	-0.030571051
91	0x3e2f437e	0.1711559
92	0x3eb834ed	0.3597788
93	0x3e3b1207	0.18268596
94	0xbe138d14	-0.14409286
95	0xbe46bc5e	-0.19407794
96	0x3dcd9233	0.10037651
97	0x3cb5cc6d	0.022192204
98	0x3e95b869	0.29242256
99	0xbc94301c	-0.018089347
100	0xbde77c5c	-0.113030165
101	0x3d497145	0.049180288
102	0x3d1d6614	0.038427427
103	0x3ea4eb7e	0.32210916
104	0xbd1c2339	-0.03811953
105	0xbd38c8d1	-0.04511339
106	0xba22e585	-0.00062140106
107	0xbd807226	-0.06271772
108	0xbe9bff98	-0.3046844
109	0xbd69fd11	-0.05712611
110	0x3e63b4c3	0.22236924
111	0xbcaf34f6	-0.021387558
112	0xbd6a7d15	-0.057248194
113	0xbec4b17e	-0.38416666
114	0x3da89165	0.08230857
115	0xbe2f5d92	-0.17125538
116	0xbcf9181f	-0.03040701
117	0xbf0e6367	-0.55620426
118	0xbe9a9f2e	-0.3019957
119	0xbe423119	-0.18964042
120	0xbd95b531	-0.0730995
121	0x3caf79d1	0.021420391
122	0xbe86a985	-0.26301208
123	0xbd3602f9	-0.04443643
124	0x3ba57d8b	0.0050503663
125	0xbe69a794	-0.22817832
126	0x3e1d6f25	0.1537443
127	0xbe01bf57	-0.12670647
128	0x3c4f6528	0.012658395
129	0xbd375f73	-0.04476876
130	0xbd9c43f0	-0.076301455
131	0xbdfea3c9	-0.12433583
132	0xbd2485ec	-0.04016678
133	0x3d6690b7	0.056290355
134	0x3d82959a	0.063761905
135	0x3e67c91f	0.22635315
136	0x3d7631f5	0.060106236
137	0x3c3258d5	0.010885437
138	0xbd067708	-0.03282836
139	0x3e16f738	0.14742744
140	0x3d201894	0.03908594
141	0x3c89b2d9	0.016808914
142	0x3da4f417	0.08054369
143	0x3df1d04d	0.11807308
144	0xbbb48cb2	-0.0055099363
145	0xbccd340b	-0.02504923
146	0x3de02ec3	0.10946419
147	0x3c6add05	0.014334922
148	0x3d2a1344	0.04152228
149	0xbdb4f76e	-0.08836256
150	0x3d6ef0d6	0.058335148
151	0x3b8b2ffe	0.0042476645
152	0x3d362d71	0.04447693
153	0x3dca09ac	0.09865126
154	0xbdbc2252	-0.091862336
155	0x3bae0d7b	0.0053116656
156	0xbd2a1512	-0.041524
157	0x3d118f04	0.03553678
158	0xbe1700eb	-0.14746444
159	0xbe4b0212	-0.19825009
160	0x3e812ee4	0.25231087
161	0xbd9de725	-0.07710103
162	0x3ce4b159	0.027916597
163	0x3d9b5d7a	0.075861886
164	0x3d124a23	0.035715234
165	0xbba398f8	-0.0049926005
166	0x3ddf31de	0.10898183
167	0x3c4135f2	0.011792647
168	0x3df19870	0.11796653
169	0xbdb0a7f6	-0.08625786
170	0xbdc9bd5b	-0.0985057
171	0xbd396bfb	-0.045268994
172	0xbcc786e2	-0.02435631
173	0xbe452f5b	-0.19256346
174	0x3d83d5ac	0.06437239
175	0x3e3c7c10	0.18406701
176	0xbdff8a87	-0.12477594
177	0xbd9855d8	-0.074382484
178	0x3dfffc0e	0.124992475
179	0xbdaf5726	-0.08561544
180	0xbd327e2f	-0.04357737
181	0xbda16107	-0.078798346
182	0xbd05d2d8	-0.03267178
183	0x3dacf30a	0.084447935
184	0x3d4367a6	0.04770627
185	0x3e6e727c	0.2328586
186	0x3dde49af	0.10853898
187	0x3dee6a62	0.11641385
188	0x3e5c3ebc	0.21508306
189	0x3d9de524	0.07709721
190	0x3d74c3c8	0.059757024
191	0x3c14ae16	0.009074708
192	0xbe0737b0	-0.13204837
193	0x3dd17994	0.10228267
194	0x3d79804f	0.06091338
195	0xbd10864a	-0.035284318
196	0x3dd8020a	0.10547264
197	0xbd2811b2	-0.0410325
198	0x3ca88330	0.020570368
199	0xbd71b795	-0.059012968
200	0xbd812de6	-0.063075826
201	0xbdb28d14	-0.08718315
202	0xbd2ea8cd	-0.04264145
203	0xbd321ca9	-0.043484364
204	0x3cb052e2	0.021523897
205	0x3ca73d63	0.020415014
206	0xbe2ffacf	-0.1718552
207	0x3dbdbf09	0.09264953
208	0xbe1d2aa3	-0.15348296
209	0xbd81c8e6	-0.063371465
210	0x3d013368	0.031543165
211	0x3dae989d	0.085252024
212	0xbcc35739	-0.023845302
213	0xbd216c94	-0.03941019
214	0xbdf4d07b	-0.11953827
215	0x3d1e1520	0.038594365
216	0x3d0e9929	0.034814034
217	0xba161f17	-0.00057266786
218	0xbdf9bd3f	-0.12194299
219	0xbda57664	-0.08079222
220	0x3d96e3ad	0.073676445
221	0x3d081e2c	0.0332319
222	0xbdb68373	-0.08911791
223	0x3d214919	0.039376352
224	0xbdf63f06	-0.120237395
225	0xbb805ddd	-0.0039174394
226	0xbd9a22ef	-0.07526194
227	0xbe1219db	-0.14267676
228	0xbd5ff74e	-0.054679208
229	0xbe100076	-0.14062676
230	0xbdfd7104	-0.12375072
231	0xbe2c8a44	-0.16849619
232	0xbe141af3	-0.14463405
233	0x3c2316db	0.00995418
234	0x3ceaafe9	0.028648334
235	0x3d42925c	0.04750286
236	0xbe02271b	-0.1271023
237	0xbd98979e	-0.07450794
238	0xbe1ba08e	-0.15197966
239	0xbe0af0ce	-0.13568422
240	0xbd6b1dc5	-0.057401437
241	0xbce49818	-0.027904555
242	0x3d6fce9a	0.05854664
243	0xbbd34718	-0.006447684
244	0xbe185723	-0.1487699
245	0x3d9a2825	0.07527188
246	0x3daaf81b	0.083481036
247	0x3d65e3af	0.05612534
248	0xbe143e9a	-0.14477006
249	0xbdf1f724	-0.118147165
250	0xbd70d350	-0.058795273
251	0x3d4eebcd	0.050517846
252	0x3de268ac	0.11055121
253	0xbc9b371a	-0.018947173
254	0x3d39310a	0.045212783
255	0xbd33b7b8	-0.04387638

critic.2.bias f4 [64]
0	0x3ed9d28e	0.42543453
1	0x3d9fdb62	0.07805516
2	0x3ec00b98	0.37508845
3	0xbd0599e7	-0.032617476
4	0x3e2d34f6	0.16914734
5	0xbec07b05	-0.37593856
6	0xbe195a83	-0.14975934
7	0xbd829eb0	-0.063779235
8	0xbe6303f9	-0.22169484
9	0x3d50bc0e	0.050960593
10	0x3e9bd1a9	0.30433396
11	0x3e15b5b1	0.14620091
12	0xbcc500b9	-0.024048196
13	0xbdf91270	-0.1216172
14	0x3e91af4c	0.28454053
15	0xbde7d137	-0.113192014
16	0x3e92dcac	0.28683984
17	0x3db611e4	0.08890131
18	0xbd9eb2c7	-0.07748943
19	0x3d99e705	0.075147666
20	0xbdf164ea	-0.11786826
21	0xbdabaac6	-0.08382182
22	0xbe517bb9	-0.20457353
23	0x3e8d6865	0.2761871
24	0x3f00bd77	0.502891
25	0xbb6c08f9	-0.003601609
26	0xbdf4b653	-0.11948838
27	0x3ea65710	0.32488298
28	0x3dad5b50	0.08464682
29	0x3d3bd91b	0.045861345
30	0xbd83c69f	-0.06434368
31	0xbe9f4349	-0.31106022
32	0xbdcf12db	-0.10111018
33	0x3eaa41e9	0.3325341
34	0x3ea8f598	0.32999873
35	0xbc4a0ced	-0.012332183
36	0xbd7ecfd0	-0.062209904
37	0xbe058a1f	-0.1304097
38	0x3caa3d61	0.02078122
39	0x3cd492fc	0.025948994
40	0x3eb13a1d	0.3461465
41	0xbdc23376	-0.09482472
42	0xbdb601b4	-0.088870436
43	0xbd9b8308	-0.075933516
44	0x3d84da56	0.06486957
45	0x3e93c2dd	0.28859606
46	0xbe18ef52	-0.14935043
47	0xbd99205a	-0.07476874
48	0xbdecfa07	-0.115711264
49	0xbb2ff14b	-0.0026846703
50	0x3cca42b2	0.024690006
51	0xbdfde2c5	-0.123967685
52	0x3d651d44	0.055936113
53	0x3e3d4815	0.18484528
54	0x3e632c29	0.22184815
55	0x3e6cd7ac	0.23129147
56	0x3ea4935e	0.32143682
57	0xbccf165d	-0.025279218
58	0x3ead7011	0.33874562
59	0xbde6fcd2	-0.112786904
60	0x3e81db27	0.25362512
61	0x3ce53132	0.02797756
62	0xbe034656	-0.128198
63	0xbd43caae	-0.047800712

critic.4.weight f4 [1, 64]
0	0xbe9aa662	-0.30205065
1	0x3cf62e14	0.030051269
2	0xbde51ae5	-0.1118677
3	0x3c2b4d58	0.010455452
4	0xbc61e522	-0.01378754
5	0x3dd282cc	0.10278854
6	0x3dabb61f	0.08384346
7	0x3d4fcfc6	0.050735258
8	0xc02a4d4d	-2.660968
9	0xbb7d54ff	-0.0038655398
10	0xbdcbc6b2	-0.099500075
11	0xbad90dd4	-0.0016559907
12	0xbd13af24	-0.0360557
13	0x3abbad73	0.001431866
14	0xbcf8c080	-0.030365229
15	0x3d458944	0.04822661
16	0xbd7e5921	-0.06209672
17	0x3c5e4ea2	0.013568552
18	0x3c4d0722	0.012513908
19	0xbd028886	-0.03186848
20	0x3c4006d7	0.011720381
21	0xbc1121fb	-0.008858199
22	0xbb3a22c4	-0.002840207
23	0xbe0ddcbe	-0.13853738
24	0xbee6532b	-0.44985327
25	0xb8a71af2	-7.9681995e-05
26	0x3c221625	0.009892975
27	0xbe2dc9db	-0.16971533
28	0xbcdc21e6	-0.026871633
29	0xbbbf7fd5	-0.005844096
30	0xbd8c2d88	-0.06844622
31	0xbc2cb449	-0.01054103
32	0x3da461d4	0.08026472
33	0xbda0a51b	-0.07843991
34	0xbe3d46f2	-0.18484095
35	0xbb106de0	-0.0022038147
36	0x3cbb8a97	0.022893233
37	0xbbcafad4	-0.006194452
38	0x3bdefc8a	0.0068050073
39	0x3db63545	0.08896879
40	0xbe282fec	-0.1642453
41	0x3c823399	0.015893744
42	0xbca8d2fd	-0.02060842
43	0xbbd53423	-0.0065064593
44	0xbb3c3be9	-0.0028722233
45	0xbd74e74e	-0.0597909
46	0x3bfa08ad	0.0076304288
47	0xbcdb1d13	-0.026747262
48	0xbc866eda	-0.01641028
49	0xbc1c519f	-0.009540944
50	0x3c299b05	0.010351901
51	0x3c118dd6	0.008883914
52	0x396d7858	0.00022646913
53	0xbd8a03e2	-0.06739022
54	0xbd788809	-0.06067661
55	0xbdde0277	-0.10840314
56	0xbdecbe89	-0.11559779
57	0x3c620cc0	0.013796985
58	0xbe194ee7	-0.14971505
59	0x3d8eba33	0.069691084
60	0xbdeee2fe	-0.11664389
61	0xbad81263	-0.0016484972
62	0x3c1c58ab	0.0095426245
63	0xbca3b57f	-0.019984005
