HAC-Baseline/preTrained/LunarLanderContinuous-v2/3level/HAC_LunarLanderContinuous-v2_ou_async_level_2_crtic.pth (torch, 25239 bytes, 5 tensors)

critic.0.weight f4 [64, 24]
000000 7e ee 22 3e 46 11 0c be f4 42 0b be 43 61 dc bd
       0.1591129 -0.13678464 -0.1359976 -0.10760739
000010 a9 16 b6 3c 5c 61 2c be 3f c9 40 be 43 2f 82 bd
       0.022227602 -0.16834015 -0.1882677 -0.06356671
000020 03 96 05 3e d2 cc 2d 3e 76 de 23 be 60 5e 5d bc
       0.13045506 0.16972664 -0.16002831 -0.01351127
000030 a3 67 3b be 53 3a a6 3d 54 e8 8f b7 d6 ef a3 bd
       -0.18301253 0.08116593 -1.7155115e-05 -0.080047294
000040 4f 21 7b bd 6f b6 80 bd 27 5a 1b be ad ed 39 3e
       -0.061311062 -0.062847964 -0.15171109 0.18157072
000050 36 e3 3f be 3f f5 a8 3d 8f bd 01 be f7 f6 a0 3d
       -0.18739018 0.08249902 -0.12669967 0.07859605
000060 cb 43 6a bd 79 fa 4f be 14 9d ab 3d e0 70 50 be
       -0.05719356 -0.20310391 0.0837957 -0.20355558
000070 26 3f ec bc 6b 1f 02 3d c4 f7 3e 3e df 89 49 be
       -0.028838705 0.031768244 0.18649203 -0.196815
000080 94 f8 2d be b0 1d 35 be 3e db 11 3e e0 c5 e5 bd
       -0.16989356 -0.17687106 0.1424379 -0.11219382
000090 6d 68 19 be fe 10 46 3d 55 f6 b0 bd 35 10 23 bb
       -0.14981242 0.04835605 -0.08640734 -0.0024881486
0000a0 30 ba 75 bd 2e c4 11 bd f3 e5 9b bd 56 f9 3a be
       -0.059992015 -0.035587482 -0.07612219 -0.18259177
0000b0 ab ae 0b 3e 09 1c 0f be ce 44 da 3d 44 54 02 be
       0.1364085 -0.13975538 0.10657655 -0.12727457
0000c0 50 a5 6f bd e4 95 a5 bd 56 11 10 3e 2b 08 26 3e
       -0.058507264 -0.0808523 0.14069113 0.16214053
0000d0 f5 df 3d 3e 6c 53 d3 bd ba b1 f2 bd 22 94 55 3d
       0.18542464 -0.10318646 -0.11850305 0.052143224
0000e0 de 09 be bc 24 f8 19 3e ee 19 23 be c9 f6 0e be
       -0.023198064 0.15036064 -0.1592786 -0.13961329
0000f0 a5 12 d0 3c b4 eb c2 bd 83 b1 42 be a3 cf 2c 3e
       0.025399515 -0.09517613 -0.19013028 0.16876082
000100 e2 83 0e bd 3a ec 32 3e 44 fc dc bd 73 b3 04 be
       -0.034793742 0.17472926 -0.10790303 -0.1295908
000110 02 33 bb bc 9c 97 da 3d 73 15 9a 3d c1 08 4c 3e
       -0.02285147 0.106734484 0.07523622 0.19925214
000120 68 ed a7 3d 38 32 93 3c b8 e0 29 be d4 d0 b5 bc
       0.081995785 0.017968282 -0.1658963 -0.022194304
000130 bc f4 d4 bd a3 0e 26 3c a8 d4 93 3d 3b 99 86 3c
       -0.10398242 0.010135326 0.07218295 0.016430488
000140 8c 78 ad bd d1 d3 e6 bb 1e 85 20 be 77 02 3e be
       -0.08470258 -0.0070442935 -0.1567578 -0.18555628
000150 45 4f 6d 3e 8d 32 6e 3b ab 7e 21 3d 36 ea b1 bd
       0.2317477 0.0036346049 0.03942744 -0.0868725
000160 74 87 69 bd 70 c0 82 bd 26 77 55 be f0 b8 64 3d
       -0.057013944 -0.06384361 -0.20846233 0.055840433
000170 a6 80 ef 3d 1b 58 ab 3d 2c 79 13 3a 49 8b 3f be
       0.116944596 0.08366414 0.0005625661 -0.18705477
000180 92 ea b4 3d f5 89 fd bd 56 fd cd bd 10 59 1d be
       0.08833803 -0.12379829 -0.100580856 -0.15366006
000190 71 9d d1 3c 97 ad 17 bc 15 d1 3d 3c ea d3 22 3d
       0.02558777 -0.009257696 0.011585494 0.03975288
0001a0 fe b9 9a bc 36 b6 d1 3c e1 f9 49 be d2 dc 5b 3b
       -0.018887516 0.02559958 -0.19724227 0.0033548367
0001b0 de c1 54 3e a0 38 e7 bd f3 5b 29 3e 43 18 15 be
       0.2077708 -0.11290097 0.16538982 -0.14560036
0001c0 bc fe 22 3e c0 9e 9e bc 0a 3c 28 3e ac 4f 54 be
       0.15917486 -0.019362807 0.16429153 -0.20733517
0001d0 30 c5 26 be 5d e8 2e be 9e e8 27 be bd b3 00 be
       -0.16286159 -0.17080827 -0.1639733 -0.12568565
0001e0 e1 31 76 3d 98 94 9f 3c 1d e9 07 bd 57 81 13 bd
       0.060106162 0.019480035 -0.0331813 -0.03601202
0001f0 44 cb 19 3e 85 87 85 3d a9 f7 2b bd 2d ef 47 be
       0.15018946 0.06519989 -0.041984234 -0.19524832
000200 a2 41 80 3d bd 5c 4c 3e 6a 62 2f be 7d fe 1a be
       0.062625185 0.19957252 -0.17127386 -0.15136142
000210 35 ca 63 bc be 86 3a be 15 c2 7c bd d5 67 3e 3e
       -0.01390319 -0.18215463 -0.06170853 0.18594296
000220 ce 7c 92 bd ef 1d 7f bc 64 77 31 3e 7d cd ea bd
       -0.07152711 -0.015571102 0.173307 -0.11464975
000230 74 5d 2d bc c4 53 7f bc 4f c7 a6 3d 3e bb 3c be
       -0.010581363 -0.015583936 0.08143484 -0.18430802
000240 e6 56 9b bd 77 1a 2e 3e b5 81 a7 3d e0 cd 11 3e
       -0.07584934 0.17002283 0.081790365 0.14238691
000250 3d fe 04 be 56 d9 cf bd 60 9a 4b be ea b3 23 3e
       -0.12987609 -0.101488754 -0.19883108 0.159866
000260 d0 6d f2 bc 76 9f 15 3d a6 86 b0 3d 93 e6 ce bd
       -0.029593378 0.036529027 0.08619432 -0.10102572
000270 d9 94 cb 3d 97 10 ab 3d 84 59 e1 bd 64 ad 0e bd
       0.099405 0.08352774 -0.11003402 -0.034833327
000280 db c7 22 be 15 cd 08 3e 71 44 b0 3d 53 92 46 be
       -0.15896551 0.13359483 0.08606804 -0.19391756
000290 07 7f 76 bd 37 f9 44 be 51 1c 50 3e 04 54 4b be
       -0.060179736 -0.19235693 0.20323302 -0.19856268
0002a0 b5 3f 86 3d fb 4c 48 bd 65 83 8c bd cf 4d 3e be
       0.0655512 -0.04890154 -0.06860999 -0.18584369
0002b0 cf 55 db 3d de 13 a7 bd 2e 5d 23 be a9 b5 de bd
       0.10709726 -0.08158086 -0.15953514 -0.10874493
0002c0 67 12 f0 3d 3b d3 fb bd 8b de 4a be f2 81 18 3e
       0.1172226 -0.122961484 -0.19811456 0.1489332
0002d0 20 78 1e be 01 e2 07 be b1 23 9d 3d 9a 70 36 3d
       -0.15475512 -0.13269807 0.07672823 0.04454098
0002e0 dd fc 3c be c5 c4 82 bc 99 a5 1c 3e e4 98 cd bd
       -0.18455835 -0.015962968 0.15297545 -0.10038927
0002f0 bc 9b 10 3e 9e ca 2e 3d e9 3c 3a 3e 3a 4f 34 3e
       0.14121908 0.0426737 0.18187298 0.17608348
000300 45 5e e8 bb e7 d0 82 3d 82 18 f2 bd 08 de 44 be
       -0.007091316 0.06387501 -0.11821081 -0.19225323
000310 5b e9 03 3e 94 ce 37 be 6a f7 1e 3d ec 3d 86 3d
       0.12881987 -0.17949897 0.03881017 0.065547794
000320 00 18 71 3c c9 d5 2c 3e 79 46 80 3d e8 a9 50 be
       0.014715195 0.16878428 0.062634416 -0.20377314
000330 c5 64 c1 bd 89 18 4f be 80 8a ed bd 32 12 7e bd
       -0.094430484 -0.20224203 -0.115986824 -0.06202907
000340 13 4e b7 bd 50 db 42 3e 07 e6 03 3e ad 57 2e be
       -0.08950438 0.19028974 0.12880717 -0.17025633
000350 cc 69 8e bd 92 0d f3 3d 2c df 9b 3d fa 2d 00 3e
       -0.06953773 0.11867823 0.07610926 0.12517539
000360 2b 6b 83 bd 6f 82 13 3e 80 b6 71 3d 82 f7 20 3e
       -0.06416925 0.14405225 0.059011936 0.15719417
000370 fb fc 18 3e 30 c7 3b 3d 3a 24 14 bd eb 10 ba 3d
       0.14940254 0.045844257 -0.03616736 0.09085258
000380 64 6b bc bd c8 e3 de bd 54 55 15 3e cd 8a 81 3d
       -0.09200171 -0.108832896 0.14583331 0.06325302
000390 02 e2 fe bd 01 d5 42 3e 6e 10 6e 3c e5 ca 98 3d
       -0.12445451 0.19026567 0.014530284 0.07460574
0003a0 bf 90 cf bd 84 5c ef bd 50 47 6e bd ab 5a 33 bc
       -0.1013503 -0.11687568 -0.058173478 -0.01094691
0003b0 8e d1 38 be 62 53 92 3d c4 94 29 be 4f 6a 35 3e
       -0.18048689 0.0714481 -0.16560656 0.17716335
0003c0 66 a6 17 be 1c a8 2d be 06 e1 4c bd ee c0 2a 3e
       -0.1480957 -0.1695866 -0.050019287 0.1667516
0003d0 d3 d7 56 3e 00 21 87 3d de 14 0a 3d 10 a2 40 3e
       0.20980768 0.06598091 0.033711307 0.18811822
0003e0 85 af 43 bc 6f 1a 8e bd ea 16 ee bc d2 ae 4c be
       -0.011943703 -0.069386356 -0.02906366 -0.19988564
0003f0 e1 fa 80 3d cc e9 42 3d 41 6c 35 be b9 b0 33 3e
       0.06297851 0.047586247 -0.17717077 0.17547883

critic.0.bias f4 [64]
000000 19 9d 93 3b 1f e1 dc 3d 60 d8 31 3d 1b c5 1b 3d
       0.0045048115 0.10785126 0.043419242 0.03802977
000010 71 39 3f 3e 77 01 5b 3e 4b d9 db bc 71 25 f2 bc
       0.18674256 0.21387278 -0.026837012 -0.02955887
000020 5c c8 a0 3c a7 03 9a 3d 13 02 d5 3d 79 e1 0a be
       0.019626789 0.07520228 0.10400786 -0.13562573
000030 df 5c 42 bd dc 51 83 3d 4a c7 6b 3e 61 c3 e1 bb
       -0.04745185 0.06412098 0.23025241 -0.006889746
000040 d7 fb 4f be a3 75 01 3e 0f da 0d be bc 31 5d 3e
       -0.20310913 0.12642531 -0.13852714 0.21601003
000050 d9 bd e0 3d 4d 25 20 bd cb 40 1b 3d ff 1b da 3d
       0.109737106 -0.039098073 0.03790359 0.10649871
000060 f8 d1 97 3d 50 bd f2 3d ba 57 7b bd f7 b6 45 be
       0.07413095 0.11852515 -0.06136296 -0.19308077
000070 89 9d 36 bd d8 44 c3 bd ab 9e 61 be 83 e9 82 bd
       -0.04458383 -0.09534615 -0.22033183 -0.06392195
000080 da 1f b4 bd 78 fd 43 be d1 c3 5f bd 10 3c 16 3d
       -0.08795138 -0.1913966 -0.054630104 0.036678374
000090 62 57 29 3e 56 4a ee 3d 86 4a 83 bd ab 77 84 3d
       0.1653724 0.11635272 -0.064106986 0.06468137
0000a0 4c a5 64 3d 07 24 7d 3b f0 b7 15 3e 75 72 48 3d
       0.055821702 0.003862621 0.14620948 0.04893728
0000b0 ef ca 84 3d 8d 1e 11 be fe db c1 bd 30 5a 31 be
       0.06484019 -0.1417181 -0.09465788 -0.1731956
0000c0 ad 6c 86 bd f3 91 18 3e 7e fb 0c bc bf 80 29 be
       -0.06563697 0.14899425 -0.008604882 -0.16553019
0000d0 33 47 0e bc d1 56 85 bc 2c ff de 3d 7b d3 24 3e
       -0.008683967 -0.016276749 0.10888514 0.16096298
0000e0 0f 97 37 3e d0 97 4f bd fe 2b b1 bd d6 80 46 bd
       0.17928718 -0.05068189 -0.08650969 -0.04846271
0000f0 e2 31 5c bd f9 e5 1d be 9c 48 83 3d d1 f7 22 3e
       -0.05375851 -0.15419759 0.064103335 0.15914847

critic.2.weight f4 [64, 64]
000000 f0 09 92 bd a0 29 f8 3b 18 9c 8f 3d 6e bb ea 3d
       -0.07130802 0.0075733215 0.070121944 0.114615306
000010 f6 46 8b 3d 54 51 2e bd 00 41 8c bc 84 3a 42 bd
       0.06800644 -0.04255803 -0.017120838 -0.047419086
000020 b8 ea 35 bd c6 f8 a7 bd f0 58 7d 3c 16 93 91 3d
       -0.0444133 -0.08201747 0.015463099 0.071081325
000030 48 e6 8f 3c f8 01 be bc 22 54 fc 3d e8 e0 da bd
       0.017565861 -0.023194298 0.123207346 -0.10687429
000040 b8 38 f5 3d a4 03 2f bd 6c 5a 3b bd ea f4 fe bd
       0.11973709 -0.04272808 -0.04574053 -0.124490574
000050 8a a9 be bd ec 00 50 3d 48 ec d0 bd 56 62 d9 bd
       -0.09309681 0.05078213 -0.10201317 -0.10614459
000060 8c a9 41 3d 00 c0 25 3d 00 15 83 3a 6c 62 b5 3d
       0.047280833 0.04046631 0.0010000765 0.08856663
000070 b2 0e ac bd 40 d0 11 bb be 47 d4 bd 84 b0 6f 3d
       -0.084012404 -0.002224937 -0.10365246 0.058517948
000080 5e 7d b2 3d 00 ed 83 3c 0c 0b 36 3d ca bf fe 3d
       0.08715318 0.016104221 0.04444413 0.124389246
000090 8c ad 0f bd 18 f2 e3 bd cc d7 7a 3d 4c da 08 bd
       -0.035077617 -0.1113016 0.061240956 -0.03341131
0000a0 a6 ea df 3d 9c 32 11 bd 64 25 86 bd 40 37 e4 bb
       0.109334275 -0.035448655 -0.065501004 -0.006964594
0000b0 e8 1a 33 bd 3c de 58 bd 38 f6 c2 3d 50 63 b0 bc
       -0.04372683 -0.052946314 0.09519619 -0.02153173
0000c0 f8 12 ec bc 5a a4 b2 bd c8 0d 56 bd 40 bb f3 bd
       -0.028817639 -0.08722754 -0.052259237 -0.119009495
0000d0 68 82 c1 3d 00 67 20 bc 82 d5 bd bd a6 21 be 3d
       0.09448701 -0.009790182 -0.09269239 0.09283762
0000e0 20 b6 8f bc 20 fd 1e bd d0 ac 35 bd 00 95 6a ba
       -0.017542899 -0.038815618 -0.04435426 -0.00089485943
0000f0 52 16 ce bd ea 01 82 3d 48 7c 6f bd e0 fe e3 3b
       -0.10062851 0.06348021 -0.058468133 0.0069578737
000100 48 2e 91 3d 95 9e 94 3d be fc d4 3d d4 ad 40 3d
       0.070889056 0.072568096 0.10399769 0.047040775
000110 dd 1e bd 3d 0d e4 35 bd b2 b0 11 be f0 be 41 3d
       0.09234402 -0.04440694 -0.1422756 0.047301233
000120 68 9f 84 3c 6e 8e ab bd 12 b8 b0 bd 74 89 2f 3d
       0.016189292 -0.08376776 -0.086288586 0.042855695
000130 74 47 27 3d 67 36 c7 3d 60 b0 47 3d 90 e2 ea bd
       0.040839627 0.09727173 0.04875219 -0.114689946
000140 a0 fa d1 3b 20 de ce 3d 60 aa 17 3d 2e d7 00 3d
       0.0064080507 0.10100961 0.037027717 0.03145521
000150 34 02 3f 3d 6e 73 80 3d 96 d4 ed bc 19 b1 be bd
       0.04663296 0.062720165 -0.029032033 -0.093111224
000160 1e b2 5b bd 84 f5 cc 3d 1b 6f 8c bb 16 21 9a 3c
       -0.053636663 0.10007766 -0.0042857057 0.018814605
000170 6a f0 f4 3d 74 4a 06 bd fc 5b 36 3d b0 07 0f be
       0.11959918 -0.032785848 0.044521317 -0.13967776
000180 bc 4e ad 3d e2 7c ac bd c7 01 5e 3d 6c b4 1a 3d
       0.08462283 -0.08422257 0.054200914 0.03776972
000190 52 6b a6 bd 6c 4a dd 3d b2 88 c4 bc 7e 54 83 3d
       -0.081259385 0.108052105 -0.023990963 0.064126
0001a0 6b 28 99 3d 75 cb 30 bd 27 b0 7a bd b1 4c 84 ba
       0.07478412 -0.04316278 -0.06120315 -0.0010093657
0001b0 7c 4e b9 bd 79 24 a5 bd f0 e3 68 3c 80 ab 72 bd
       -0.09048173 -0.08063597 0.014214501 -0.059245586
0001c0 fb f4 8d 3b 88 b1 ea 3d 88 a5 b8 3d 18 ed 09 be
       0.0043321825 0.11459643 0.090159476 -0.1346935
0001d0 e4 9a 71 3d b4 02 99 bd 98 6d ec 3d 2a 94 bb bd
       0.058985606 -0.07471219 0.11544341 -0.091591194
0001e0 88 91 8a bd 62 2d 89 3d 40 d8 d8 bc 7a 27 e2 bd
       -0.06766039 0.06698109 -0.026470304 -0.11042686
0001f0 89 96 dd 3c 60 5f b1 bc 84 69 c9 bd 37 c0 0b be
       0.02704932 -0.021651924 -0.09834579 -0.13647543
000200 60 2d ee bc ec 09 27 bd d2 bb 97 bd 24 4f ba bd
       -0.02907437 -0.040780947 -0.07408871 -0.09097126
000210 a0 1d c2 3c bc e6 ee 3d a4 54 ec 3d ca 9e 84 3d
       0.023695767 0.11665103 0.115395814 0.06475599
000220 f4 8f 68 3d 60 39 fb 3b 98 1d 92 bc 62 c3 cf 3d
       0.05677791 0.0076667517 -0.017836377 0.10144688
000230 f6 0a a4 3d d4 85 2c bd 6e 9b 97 3d ee 96 bf 3d
       0.08009903 -0.042119816 0.07402693 0.093549594
000240 38 4c 1b 3d b8 8a 1b bd d8 9e 8b 3c 20 4b bc bb
       0.037914485 -0.03797409 0.017043516 -0.0057462603
000250 00 15 be 3b 40 2c 43 3c 10 4f 3e 3d 50 d0 4c 3c
       0.0058008432 0.0119124055 0.04646212 0.012500837
000260 00 d6 3a 3a 84 0c a1 3d 38 3e e6 bd 40 69 ce 3d
       0.00071272254 0.07863715 -0.11242336 0.100786686
000270 58 39 4e bd e4 c1 2b 3d b0 dd 2f bd 5a a9 cb bd
       -0.050347656 0.041932955 -0.042936027 -0.099444106
000280 80 75 e6 3d d0 08 a8 bc 24 7f 96 bd 80 0b 82 bc
       0.1125288 -0.020512015 -0.07348469 -0.015874624
000290 90 6c 00 bd 38 bc d0 3c fc 40 41 3d f4 a9 5b 3d
       -0.031353533 0.025480375 0.047181115 0.053628877
0002a0 b2 dd ae 3d ca e1 84 bd 3e b5 e2 bd 9c 88 35 bd
       0.08538379 -0.06488378 -0.110697255 -0.044319734
0002b0 a0 63 b7 bc 2a b2 db bd 40 5e 23 3c a0 ff ba bc
       -0.022386372 -0.107273415 0.009971201 -0.02282697
0002c0 b6 c8 fd bd a0 2d 5a bd b8 c3 64 3d 86 e6 d7 bd
       -0.12391798 -0.053266168 0.055850714 -0.10542016
0002d0 a8 f5 2e bd 50 45 43 3c d8 27 d2 bd 50 2b 56 3c
       -0.042714745 0.011918381 -0.10261506 0.01307185
0002e0 e0 d3 78 3c 3a c9 88 3d 94 97 9f 3d 86 77 94 3d
       0.015187234 0.06679006 0.07792583 0.0724936
0002f0 c0 cb 87 3d 40 12 bf bb 96 a0 cb 3d 80 14 3c 3c
       0.06630659 -0.005831033 0.09942739 0.011479497
000300 c2 b4 ce bd 94 79 d1 3d c3 d5 b1 3d c6 16 1f bc
       -0.100930706 0.10228267 0.0868335 -0.009710019
000310 07 8a d8 3d c3 9b 39 bc bb ed 99 3d a0 d8 1b bd
       0.105732016 -0.01132864 0.075160466 -0.038048387
000320 00 08 76 bc f0 8b ed bc 20 d3 c6 bb b0 a1 19 3c
       -0.015016556 -0.028997391 -0.0060676485 0.009376928
000330 54 86 95 3d 72 41 3e 3d ab 7b f2 bd fb 5b f3 3d
       0.07301012 0.046449132 -0.11839994 0.11882778
000340 b6 5a bf bd 3e 34 7c bd 68 33 01 3d c5 68 c5 3d
       -0.093434736 -0.06157326 0.031543165 0.09639124
000350 40 24 86 3b ea 50 1f bd 6f 82 cf bd 8d d5 ba 3d
       0.004093677 -0.038895525 -0.101323 0.09122763
000360 6a 24 ad 3d 00 1f 16 ba a4 23 65 bd 08 b8 22 bd
       0.08454211 -0.0005726665 -0.055942193 -0.039726287
000370 36 c7 d4 3d 2a 32 9c 3d 2d fc b5 bd 2e 58 22 3d
       0.10389559 0.076267555 -0.08885989 0.039634876
000380 ed b7 f5 bd 8c a5 5d 3d 74 ba 32 bd 8b 6d d8 bd
       -0.11997972 0.054112956 -0.043634847 -0.10567769
000390 5f 96 66 bb 54 eb b0 bd 6b cb bf bd c2 28 f0 bd
       -0.0035184843 -0.08638635 -0.09364971 -0.11726524
0003a0 7c 37 f9 bd 68 2d 49 3d 3a f3 61 3d aa 21 99 3d
       -0.12168786 0.04911557 0.0551636 0.07477124
0003b0 4a e3 01 be 85 10 98 bd 78 68 fb bd a0 24 f2 bd
       -0.1268436 -0.07425026 -0.12275785 -0.11823392
0003c0 8e 0f 6a bd c8 b1 03 3d 1f 62 ba 3d f6 1c a0 3c
       -0.05714374 0.032151967 0.09100746 0.01954506
0003d0 1c 2c ff bd 8a e5 d8 3d f6 62 e5 3d 1c 39 eb 3d
       -0.12459585 0.10590656 0.11200516 0.11485502
0003e0 3a 4a eb bd 12 8b 8c bd 80 a2 60 bd 2e 48 df 3d
       -0.11488767 -0.06862463 -0.054842472 0.10902439
0003f0 34 e4 e5 3d 00 bb 21 3c 94 f8 d2 3d 5e 47 81 3c
       0.11225167 0.009871244 0.10301319 0.0157811

critic.2.bias f4 [64]
000000 58 74 b4 bd 22 43 a9 3d 34 20 c0 3d fe e4 ce 3c
       -0.08811253 0.08264758 0.09381142 0.025255676
000010 a4 a3 b1 3d d6 78 eb bd a0 33 d8 bd 84 b2 3c bc
       0.0867379 -0.11497657 -0.10556722 -0.011517171
000020 e0 f3 94 bb 58 44 36 3d 8f 4d 99 3d b3 1a 03 3d
       -0.0045456737 0.04449877 0.07485496 0.032007884
000030 60 0f 64 3d 80 e3 18 bd 6e ed d3 3d 41 33 e2 bd
       0.055678725 -0.037326336 0.103480205 -0.11044932
000040 ed 45 f2 3d 88 c3 b5 3d 19 a8 dc bc cc 77 bd 3d
       0.118297435 0.08875185 -0.026935624 0.09251365
000050 30 4c 55 bd 00 71 62 bb 8c ac 50 bd 11 ab fe 3c
       -0.05207461 -0.0034552217 -0.050945804 0.03108743
000060 48 2c 37 bd ae 73 a6 3d cf cd 9c bd 86 b3 94 3d
       -0.044719964 0.08127533 -0.076564424 0.07260804
000070 c1 08 dd 3d 13 ad af 3d 2f fa 89 3d ea 40 97 bd
       0.10792685 0.08577933 0.06737172 -0.07385428
000080 25 a2 1a bd 2c 12 f9 3d 7c 26 8f 3d d1 73 38 3d
       -0.03775229 0.12161669 0.06989762 0.045032326
000090 cb 99 a4 3c c1 e2 a1 bd 98 30 6f 3d 65 8b 9d 3d
       0.020092865 -0.07904578 0.058395952 0.07692603
0000a0 81 d6 be 3d 12 d6 77 bd 30 8a df bc f0 55 36 bd
       0.09318257 -0.060506888 -0.027287573 -0.04451555
0000b0 d8 5d 88 3d 7a d6 b9 3d 74 14 e3 bd c0 91 b7 3b
       0.06658524 0.09074111 -0.110878855 0.0056020916
0000c0 06 77 ca bc 44 fb a8 3d a0 e0 96 bc 5e 32 c6 bd
       -0.024714958 0.0825105 -0.018417656 -0.096775755
0000d0 6c d8 90 3d 3c 94 bd bc 98 1a c9 3c cf 96 1d bb
       0.07072529 -0.023141973 0.024548814 -0.0024046188
0000e0 9f 9f ab 3d bc 2d 87 3c 54 b0 24 3d bd d2 e3 bd
       0.08380055 0.0165013 0.040207222 -0.111241795
0000f0 dd be 86 3c 3f f9 c2 3d d9 2c d1 bd 70 c2 95 bc
       0.016448433 0.09520196 -0.10213632 -0.018281192

critic.4.weight f4 [1, 64]
000000 c0 82 08 bc a5 14 30 bb 04 98 4e bd 0a 89 20 3d
       -0.0083319545 -0.0026867774 -0.050437942 0.03919319
000010 e2 8e a2 bd 10 f8 6a 3c f9 b5 ce 3d d3 05 d4 3d
       -0.07937409 0.014341369 0.10093302 0.103526734
000020 18 77 16 bd 0a 9a 8e bd 30 8a eb bd ed 69 90 bd
       -0.03673467 -0.06962974 -0.115009665 -0.07051454
000030 80 49 cf 3b 6c 92 c7 3c bd 1f bf bd 2a 56 45 3d
       0.0063259006 0.024361812 -0.093322255 0.048177876
000040 e9 07 5d bd 80 0c 5b 3c 95 dc c7 3d 00 b0 01 bd
       -0.05396262 0.013369679 0.097588696 -0.031661987
000050 ae f7 40 bd b4 a8 0b bd 51 32 a1 3d a9 71 13 be
       -0.047111206 -0.034096435 0.07870925 -0.14398827
000060 1c 6d 76 bd e9 b5 37 3c 02 b1 52 3d d8 a4 27 be
       -0.06016265 0.011212804 0.05143834 -0.16371477
000070 d3 5d 7c bd c0 4c 4d 3b 8e 8b a7 3d 44 14 6c 3d
       -0.061612915 0.0031326264 0.08180915 0.057636514
000080 75 2b c3 3d a7 2d 83 bd a5 72 2d be 62 53 01 bc
       0.09529773 -0.06405192 -0.16938265 -0.007893415
000090 ab 6a 86 3d db 31 4f bd 80 07 aa 3c 86 c0 d2 3d
       0.06563314 -0.050584655 0.02075553 0.10290627
0000a0 0e ec 25 be 44 9a 74 3c 88 1c 1b 3d 98 fd c4 3c
       -0.16203329 0.014929358 0.037869006 0.024046704
0000b0 11 53 a4 bd 52 e0 b6 bd d0 70 5b 3d 80 a7 ff 3c
       -0.08023656 -0.089295045 0.053574383 0.0312078
0000c0 0b fb f1 3c 40 a8 7b bb aa 5f a7 bd 9b 97 15 3d
       0.029538652 -0.0038399845 -0.08172543 0.036521535
0000d0 92 05 8a bd 9e ec ef bd 90 da c5 bd 20 f5 12 be
       -0.06739344 -0.11715053 -0.09660828 -0.1435132
0000e0 07 d7 12 be ee e9 65 bd e4 3e fb bd 8f b4 8e 3d
       -0.14339839 -0.056131296 -0.12267855 0.069680326
0000f0 98 3a 07 be c8 fc d8 3c d1 e1 e4 3c ec 9b 4a bd
       -0.13205945 0.026487723 0.027939709 -0.049465105
