HAC-Baseline/preTrained/LunarLanderContinuous-v2/3level/HAC_LunarLanderContinuous-v2_surprise_sync_level_0_crtic.pth (torch, 23703 bytes, 5 tensors)

critic.0.weight f4 [64, 18]
-0.37746 -0.3019029 -0.5710634 0.008664608 0.14657564 0.501906 -0.28229508 0.55798805
0.052663345 -0.025888018 0.22872049 0.04906618 0.16287465 0.92599857 -0.068349004 0.06628389
0.531186 -0.23978199 -0.6116059 0.09764009 0.5863323 -0.43223733 -0.035717014 -0.61003286
0.16214614 0.34318724 0.009926169 0.01218479 0.12449076 0.21021979 -0.23662682 0.4387744
0.10465702 0.008725234 0.36061186 -0.06871198 0.5132687 0.13092865 0.7213158 0.72749484
-0.38092837 -0.87033945 -0.36312664 0.52513015 -0.029223876 0.021036457 -0.8608452 -0.023460208
-0.070827365 -0.38339594 0.34125566 -0.3236587 -0.3275626 0.046681702 -0.733554 -0.07045393
-0.21486507 -0.113774866 0.40334117 0.41592082 -0.9094383 -0.7572308 -0.010489679 -0.012732218
0.80879796 0.11147916 -0.0020461632 0.2178168 -0.31560796 0.003190856 -0.15053019 0.14514644
-0.34433252 0.5282972 -0.030308653 0.4497059 -0.1327078 -0.56954545 -0.43467516 -0.44493774
-0.021683585 0.05033298 0.3487752 -0.5575222 0.1976419 -0.11392367 0.18045054 0.040968705
-0.17867017 -0.705405 -0.121050194 -0.6286955 -0.24388717 -0.47334373 0.20985897 0.5870323
0.5045309 -0.24281241 -0.020785775 -0.017338647 0.039099626 0.5508443 0.2149251 -0.052146718
-0.10916699 -0.047997832 0.17897917 0.10027396 -0.619051 -0.813638 0.106258094 0.48137727
0.0051304577 -0.43462273 -0.45886007 0.144968 -0.04169492 -0.027650863 -0.12069513 0.5900841
-0.13033015 -0.2300024 0.06672504 0.08288865 0.05126567 0.11270859 -0.17788075 -0.94428074
0.17609818 -0.50448245 -0.18310757 -0.28411928 0.11480009 0.5899099 -0.012241339 0.024525773
0.06829374 0.9200601 -0.07978438 0.011565016 0.1414866 -0.04055266 0.039552707 0.056557342
-0.9712492 -0.13478193 -0.40987065 0.12791856 0.52776814 0.43870535 0.16500087 -0.33400977
0.0062848316 -0.020565622 1.1498404 0.09772849 0.13468991 -0.06138335 -0.55348265 0.045358334
0.04677596 -0.05544101 -0.7226973 -0.07159429 0.16438882 0.18495664 0.14143057 0.71526986
-0.5728243 -0.8424665 0.011657131 0.008580787 0.62015206 0.070871085 -0.04846989 -0.25798568
-0.16028817 0.01925232 -0.10024142 -0.501388 -0.8950973 0.06588888 -0.78860486 0.24901398
0.11624677 -0.0030788798 -0.6300242 0.5746033 0.006168775 0.027086847 0.6223674 -0.3823452
0.20368879 0.25942394 -0.074145176 -0.1735211 -0.41588652 0.2447995 0.22190066 -0.3740043
0.41864574 -0.28993666 -0.49107447 -0.99513614 0.5755804 0.64466804 -0.01569999 0.005637142
-0.37012833 0.3175286 -0.10614878 0.05151387 0.26462922 -0.07902895 0.0863772 -0.19075787
-0.23909324 -0.6010161 0.2457782 0.88509285 0.08379379 -0.10275291 0.4305543 -0.19179519
-0.2066095 0.00657316 -0.23674399 0.35117605 0.025810549 -0.083196074 -0.11825332 0.24143478
-0.5049717 0.3063869 -1.0758485 0.12199598 0.10048828 -0.31888482 -0.019101573 -0.10949869
-0.26134494 -1.0205765 0.0039593857 -0.010338258 1.1392906 -0.13456152 -0.046264414 0.3053214
0.034749504 0.052106053 0.28350163 0.33635667 -0.1528996 -0.4077661 -0.12722015 1.186025
00000000: 7042 c1be 0493 9abe 3631 12bf 00f6 0d3c
00000010: ed17 163e e97c 003f fb88 90be 4ed8 0e3f
00000020: 85b5 573d 1c13 d4bc b435 6a3e 9ef9 483d
00000030: 9dc8 263e 3e0e 6d3f 90fa 8bbd d9bf 873d
00000040: cefb 073f 6989 75be 3492 1cbf 87f7 c73d
00000050: e019 163f 364e ddbe 014c 12bd 1d2b 1cbf
00000060: a309 263e 3db6 af3e 5fa1 223c b7a2 473c
00000070: 03f5 fe3d db43 573e 4d4e 72be 0aa7 e03e
00000080: 6b56 d63d 49f4 0e3c 1ea2 b83e deb8 8cbd
00000090: 9465 033f 2912 063e 27a8 383f 1a3d 3a3f
000000a0: 0b09 c3be 91ce 5ebf bceb b9be ee6e 063f
000000b0: e966 efbc a654 ac3c 5a60 5cbf 9f2f c0bc
000000c0: f00d 91bd 794c c4be 10b9 ae3e 98b6 a5be
000000d0: 49b6 a7be 5035 3f3d 32ca 3bbf 264a 90bd
000000e0: 9705 5cbe cc02 e9bd bc82 ce3e 93f3 d43e
000000f0: f3d0 68bf e1d9 41bf e7dc 2bbc cb9a 50bc
00000100: 620d 4f3f 304f e43d ec18 06bb 5e0b 5f3e
00000110: 5e97 a1be ae1d 513b 9624 1abe 45a1 143e
00000120: 5a4c b0be 7c3e 073f da49 f8bc da3f e63e
00000130: 8ee4 07be bbcd 11bf be8d debe e1ce e3be
00000140: c6a1 b1bc f429 4e3d aa92 b23e c6b9 0ebf
00000150: a362 4a3e d050 e9bd 07c8 383e cdce 273d
00000160: 50f5 36be 6c95 34bf 2ae9 f7bd 30f2 20bf
00000170: 8fbd 79be 1c5a f2be 45e5 563e c047 163f
00000180: f028 013f d1a3 78be ee46 aabc c709 8ebc
00000190: ee26 203d 2204 0d3f 5315 5c3e cc97 55bd
000001a0: f192 dfbd 6099 44bd 5146 373e 6f5c cd3d
000001b0: 207a 1ebf 944a 50bf d89d d93d 1577 f63e
000001c0: 661d a83b df86 debe b5ef eabe 7e72 143e
000001d0: 4bc8 2abd 1084 e2bc 022f f7bd c00f 173f
000001e0: 4475 05be c085 6bbe 23a7 883d 86c1 a93d
000001f0: f4fb 513d c3d3 e63d 5f26 36be 62bc 71bf
00000200: 1553 343e c325 01bf 8d80 3bbe 1578 91be
00000210: 4f1c eb3d 5604 173f e68f 48bc 46ea c83c
00000220: 97dd 8b3d 0f89 6b3f fe65 a3bd 317b 3d3c
00000230: dde1 103e 8c1a 26bd 0502 223d aca8 673d
00000240: caa3 78bf 4604 0abe 91da d1be 15fd 023e
00000250: d01b 073f fd9d e03e fdf5 283e 5403 abbe
00000260: fdf0 cd3b 3c79 a8bc f82d 933f e025 c83d
00000270: 27ec 093e 1c6d 7bbd 0ab1 0dbf a9c9 393d
00000280: 2698 3f3d 1d16 63bd b102 39bf 07a0 92bd
00000290: 8b55 283e 4665 3d3e 2dd3 103e ed1b 373f
000002a0: 9da4 12bf e2ab 57bf 8dfd 3e3c 6e96 0c3c
000002b0: 49c2 1e3f dc24 913d 5d88 46bd b316 84be
000002c0: 9522 24be 0bb7 9d3c 604b cdbd f75a 00bf
000002d0: 1925 65bf c0f0 863d 02e2 49bf 85fd 7e3e
000002e0: c912 ee3d 08c7 49bb 4449 21bf 3419 133f
000002f0: 6f23 ca3b 3ce5 dd3c 7853 1f3f c0c2 c3be
00000300: cb93 503e 37d3 843e 6dd9 97bd 84af 31be
00000310: 14ef d4be b8ac 7a3e ed39 633e 7e7d bfbe
00000320: bc58 d63e 9472 94be 1d6e fbbe 3ec1 7ebf
00000330: 3d59 133f f708 253f 449d 80bc c6b7 b83b
00000340: 7681 bdbe 1c93 a23e 8864 d9bd 3500 533d
00000350: 7b7d 873e eed9 a1bd 88e6 b03d 0856 43be
00000360: dcd4 74be 31dc 19bf 48ad 7b3e 7295 623f
00000370: 149c ab3d 1e70 d2bd 9d71 dc3e f565 44be
00000380: 7191 53be aa63 d73b 046d 72be 59cd b33e
00000390: a570 d33c b462 aabd cc2e f2bd ae3a 773e
000003a0: d345 01bf bede 9c3e 67b5 89bf 07d9 f93d
000003b0: cdcc cd3d df44 a3be e77a 9cbc d940 e0bd
000003c0: 01cf 85be 40a2 82bf bcbd 813b cc61 29bc
000003d0: 46d4 913f 7fca 09be c17f 3dbd 1653 9c3e
000003e0: 7f55 0e3d 286d 553d 2027 913e f136 ac3e
000003f0: b691 1cbe b8c6 d0be 0046 02be abcf 973f

critic.0.bias f4 [64]
-0.213896 -0.8052697 0.3079723 0.02354214 0.18515317 0.14359035 -1.0504661 0.10788976
0.039841495 -0.5558443 -0.5658648 0.29280198 -1.428751 0.032639053 -1.1029274 -0.46162856
-0.7987318 -0.045806367 -1.4433507 -1.7665852 -0.18704599 0.0052627116 -0.61734575 -0.6142867
0.3299612 -0.66783226 0.17641318 -1.0323057 -0.578785 -0.529423 0.07381838 -0.38663977
-0.08047577 -0.2239203 -0.33417404 0.13999917 -0.023682823 0.12153409 0.16886027 -0.07664957
-0.12621719 -0.36087215 0.020516813 -0.45028764 0.002955911 0.13097733 -0.122491665 -1.1532737
-0.59011465 -1.0305732 -0.30688643 0.16188958 0.012232646 0.027374897 -0.94051075 -0.039156575
0.28634143 0.04653441 -0.07294534 -0.32186258 0.4970803 -0.21271186 0.05097286 -1.1770478
00000000: 8e07 5bbe 2826 4ebf 8cae 9d3e 72db c03c
00000010: cb98 3d3e 5909 133e ac75 86bf 4ef5 dc3d
00000020: d630 233d d04b 0ebf 84dc 10bf 24ea 953e
00000030: 50e1 b6bf 87b0 053d ba2c 8dbf 945a ecbe
00000040: b079 4cbf 759f 3bbd b7bf b8bf 771f e2bf
00000050: fc88 3fbe d372 ac3b 5f0a 1ebf e541 1dbf
00000060: adf0 a83e 0ef7 2abf a8a5 343e 9822 84bf
00000070: 412b 14bf 4488 07bf 172e 973d a6f5 c5be
00000080: 7bd0 a4bd 5d4b 65be dc18 abbe f15b 0f3e
00000090: 7b02 c2bc dde6 f83d b5e9 2c3e 73fa 9cbd
000000a0: 143f 01be 3cc4 b8be e012 a83c 1a8c e6be
000000b0: f5b7 413b ec1e 063e e9dc fabd 799e 93bf
000000c0: c111 17bf d3e9 83bf 3820 9dbe 62c6 253e
000000d0: 706b 483c 5241 e03c 50c5 70bf a562 20bd
000000e0: 589b 923e de9a 3e3d 5e64 95bd 2ccb a4be
000000f0: 4f81 fe3e 23d1 59be ebc8 503d 81a9 96bf

critic.2.weight f4 [64, 64]
-0.4613608 -0.35245708 -0.62324196 0.29903927 -0.30105934 -0.42847705 0.45085964 0.0992069
-0.48409283 -0.2102323 0.5968877 -0.26307437 0.00064558076 0.04357193 0.6331773 -0.034398966
0.29644415 0.39075747 0.3829666 -0.14904134 -0.2135404 0.6136097 0.08363891 0.11879996
-0.15182067 -0.3790587 -0.57755375 -0.089838296 -0.25836185 0.06665277 -0.09590496 0.9304493
-0.6153167 -0.4411858 0.23737554 0.052117296 -1.0941578 -0.12708838 -0.3590648 0.9160652
-0.53923917 -0.050172575 -0.33230495 -0.3688235 0.23133714 1.1200767 0.02723303 0.39084405
0.17105979 0.3739812 -0.7916422 -0.028375847 -0.27224717 0.014654713 0.40490627 -0.008031264
0.21892503 0.3450751 -0.3776036 0.22005899 -0.2756066 -0.066333 -0.28174648 0.32798636
0.20211248 0.09738678 -0.08747301 0.5598963 -0.53091294 -0.41848576 0.078276545 -0.1291558
0.47628015 0.038749415 0.59167963 -0.8572889 0.33145872 -0.5101262 0.36982203 -0.17609306
0.1276977 0.30475813 0.46206143 0.72169656 -0.1940676 0.37772653 0.29613435 0.08654392
-0.93220776 -0.08013658 0.24377054 0.006515975 -0.4827384 -0.5931431 -0.7267656 0.07983509
-0.96577173 0.45587972 -0.023807002 -0.19764161 -0.030158179 0.655458 0.527073 -0.07283291
-0.6589953 0.10813644 0.028664483 -0.21139732 -0.04406638 -0.3269408 -0.08047653 0.21492699
-0.005601625 0.085822515 0.17455545 0.6218616 0.58442146 -0.31419787 0.44080895 0.24777971
-0.7043462 -0.47482154 0.02512199 -0.033529863 -0.10967122 -0.64570934 -1.13019 0.005103799
0.2998808 -0.64111596 -0.056132805 -0.11320663 0.005392003 0.27215546 -0.0973648 0.5934017
-0.034318022 0.31066495 -0.5049861 0.2678194 -0.023681404 -0.3063197 0.29039678 -0.082839295
-0.27292427 -0.109108865 -0.45096254 -0.23722893 -0.22398053 -0.2504441 0.07791001 -0.21497396
0.25112006 0.10913126 -0.092965335 -0.57368195 -0.61640567 -0.7343668 -0.5472418 0.49427292
-0.38564005 0.09482004 0.069583595 0.32692397 -1.0639437 0.33130065 -0.029437961 -0.44067428
-0.23859312 -0.4291917 0.2965598 0.09906578 0.5556537 -0.092055015 -0.92538476 -0.12713192
0.28632298 -0.07671488 -0.515619 0.4360391 0.37168968 -0.4071362 -0.2956315 -0.018252145
-0.4644715 -0.08877276 -0.004586911 -0.3570179 0.15177931 0.06309403 0.25689518 0.023265528
-0.112075426 -0.019565996 -0.013876196 -0.061503746 -0.18699536 -0.09656963 -0.11972383 -0.34664536
-0.07298147 -0.014573227 0.019096412 -0.16391808 0.002942574 0.05827594 -0.1431611 0.041710876
-0.074687526 0.04736763 0.07355115 -0.096948 -0.0054591903 0.08786009 -0.005920424 -0.065323815
-0.09289984 0.0337249 -0.012603877 0.10399415 -0.04768451 -0.094608635 0.09095546 -0.1007391
-0.17107777 0.08054234 -0.17557484 -0.05165696 -0.12481585 -0.13409315 -0.021928776 -0.07482355
-0.089365065 -0.08661022 -0.070581436 0.085610144 0.04333875 0.02255116 -0.20009644 -0.04502305
-0.03839416 0.047566332 -0.07669157 -0.2271824 -0.08253249 -0.061352815 0.08164243 -0.010365144
0.010884986 0.051695347 -0.10027223 -0.15514123 0.11686084 0.033625845 -0.107491575 0.09813982
00000000: 7c37 ecbe 4175 b4be c98c 1fbf ad1b 993e
00000010: 7324 9abe 5861 dbbe 13d7 e63e fd2c cb3d
00000020: 04db f7be 2347 57be a2cd 183f afb1 86be
00000030: 313c 293a 7b78 323d e817 223f eee5 0cbd
00000040: 87c7 973e 5d11 c83e 3314 c43e 4b9e 18be
00000050: 56aa 5abe 8615 1d3f e04a ab3d 654d f33d
00000060: e176 1bbe fb13 c2be 90da 13bf 24fd b7bd
00000070: 0148 84be 3f81 883d d269 c4bd ed31 6e3f
00000080: 6585 1dbf 1be3 e1be 9312 733e f278 553d
00000090: 5d0d 8cbf 7523 02be 57d7 b7be 4083 6a3f
000000a0: 940b 0abf c281 4dbd e023 aabe 6fd6 bcbe
000000b0: a5e3 6c3e ac5e 8f3f ce17 df3c b61c c83e
000000c0: 4c2a 2f3e 777a bf3e 10a9 4abf 7774 e8bc
000000d0: fb63 8bbe 521a 703c e04f cf3e 9095 03bc
000000e0: e22d 603e afad b03e 4255 c1be 2557 613e
000000f0: 4f1c 8dbe 99d9 87bd 1341 90be d4ed a73e
00000100: 93f6 4e3e b872 c73d 0d25 b3bd 5d55 0f3f
00000110: e9e9 07bf c443 d6be 744f a03d 6b41 04be
00000120: feda f33e b5b7 1e3d 5178 173f 4977 5bbf
00000130: f5b4 a93e a197 02bf 5059 bd3e bd51 34be
00000140: 30c3 023e 4209 9c3e 5193 ec3e 1bc1 383f
00000150: a8b9 46be 5f65 c13e ec9e 973e f03d b13d
00000160: 2ba5 6ebf a61e a4bd fc9e 793e f683 d53b
00000170: 7d29 f7be 3ad8 17bf 4f0d 3abf 9480 a33d
00000180: d13c 77bf 1169 e93e e706 c3bc 9062 4abe
00000190: 490e f7bc 18cc 273f 42ee 063f 6c29 95bd
000001a0: eab3 28bf a376 dd3d c7d1 ea3c 8a78 58be
000001b0: f37e 34bd c964 a7be e1d0 a4bd d215 5c3e
000001c0: d68d b7bb b7c3 af3d aabe 323e 5232 1f3f
000001d0: a59c 153f 8bde a0be b6b1 e13e f7b9 7d3e
000001e0: 0850 34bf cf1b f3be a2cc cd3c 9c56 09bd
000001f0: 4e9b e0bd 354d 25bf 11aa 90bf c53d a73b
00000200: fa89 993e 2d20 24bf 83eb 65bd e1d8 e7bd
00000210: 66af b03b f657 8b3e 3267 c7bd 2ce9 173f
00000220: 0e91 0cbd 7a0f 9f3e c546 01bf a01f 893e
00000230: 81ff c1bc f0d5 9cbe e3ae 943e a6a7 a9bd
00000240: bbbc 8bbe 7874 dfbd 90e4 e6be 24ec 72be
00000250: 275b 65be 363a 80be 498f 9f3d 2222 5cbe
00000260: cf92 803e 3680 df3d 9c64 bebd d2dc 12bf
00000270: c3cc 1dbf 76ff 3bbf 0a18 0cbf 5711 fd3e
00000280: 9d72 c5be 0231 c23d d881 8e3d 9462 a73e
00000290: 4f2f 88bf 3da0 a93e e127 f1bc 0fa0 e1be
000002a0: c151 74be 04bf dbbe b0d6 973e 00e3 ca3d
000002b0: 523f 0e3f 5787 bcbd 04e6 6cbf df2e 02be
000002c0: ed98 923e b11c 9dbd 9bff 03bf 8440 df3e
000002d0: 1c4e be3e 2874 d0be 035d 97be 8685 95bc
000002e0: 35cf edbe 7ece b5bd cc4d 96bb 0dcb b6be
000002f0: 096c 1b3e 7137 813d c487 833e 5997 be3c
00000300: cd87 e5bd de48 a0bc fc58 63bc 5aeb 7bbd
00000310: b67b 3fbe 4cc6 c5bd c431 f5bd 807b b1be
00000320: 4f77 95bd 8bc4 6ebc 1470 9c3c 24da 27be
00000330: 33d8 403b c1b2 6e3d d398 12be 06d9 2a3d
00000340: c6f5 98bd 8f04 423d fca1 963d ac8c c6bd
00000350: 02e3 b2bb feef b33d 1e00 c2bb 7ec8 85bd
00000360: 4542 bebd 1f23 0a3d 7e80 4ebc e3fa d43d
00000370: d550 43bd 2cc2 c1bd db46 ba3d 4d50 cebd
00000380: 032f 2fbe 62f3 a43d e4c9 33be 4096 53bd
00000390: 749f ffbd b74f 09be faa3 b3bc 173d 99bd
000003a0: 0805 b7bd b360 b1bd 008d 90bd 5f54 af3d
000003b0: f983 313d 36bd b83c 15e6 4cbe 176a 38bd
000003c0: 3243 1dbd ead4 423d 7810 9dbd 81a2 68be
000003d0: cb06 a9bd 174d 7bbd 2534 a73d 91d2 29bc
000003e0: f156 323c 80be 533d 875b cdbd 58dd 1ebe
000003f0: bc54 ef3d 41bb 093d 8b24 dcbd 88fd c83d

critic.2.bias f4 [64]
-0.42265874 0.34614363 0.12487336 -0.23674278 -0.5826546 -1.1685799 0.035289116 -0.07726659
0.3642738 -0.040755007 0.1125443 0.42623794 0.36451763 0.036301564 -0.022664182 0.28476086
-1.4336244 -0.047042903 0.003978678 0.0067473967 -0.3447013 0.07564312 -0.09295416 -0.022270832
-0.134982 -0.648861 -0.6334644 0.101812705 0.16614303 -2.1336741 0.2624661 0.41034368
-0.2338552 0.39018473 -0.26763433 0.020154571 -0.07288864 0.1515868 0.36897892 -0.10770558
0.13577838 0.05299654 0.5682403 -0.6813832 -0.3443379 0.20207036 -0.01328316 0.31211066
-0.049718287 -0.0817219 -0.31907248 0.012714554 0.01843249 -0.277396 -0.12769884 -0.80706114
-0.23621733 -0.1386126 0.2803148 -0.31347048 -0.50838023 -0.5199239 -0.07177705 0.0660511
00000000: ba66 d8be bd39 b13e 9bbd ff3d b36c 72be
00000010: da28 15bf 0794 95bf 528b 103d f23d 9ebd
00000020: 1882 ba3e b9ee 26bd a07d e63d dc3b da3e
00000030: 0ea2 ba3e f3b0 143d 3caa b9bc 2dcc 913e
00000040: 0181 b7bf 0fb0 40bd 925f 823b 4419 dd3b
00000050: b07c b0be c8ea 9a3d c05e bebd 5271 b6bc
00000060: b938 0abe c11b 26bf b92a 22bf 2e83 d03d
00000070: 6621 2a3e 1e8e 08c0 f561 863e 9118 d23e
00000080: bd77 6fbe 4bc6 c73e 5e07 89be 331b a53c
00000090: a446 95bd 9239 1b3e ceea bc3e be94 dcbd
000000a0: 7d09 0b3e e612 593d 3278 113f 216f 2ebf
000000b0: 0f4d b0be 88eb 4e3e 9ca1 59bc f8cc 9f3e
000000c0: 67a5 4bbd d05d a7bd 785d a3be b450 503c
000000d0: bcff 963c d906 8ebe 7cc3 02be 8f9b 4ebf
000000e0: f5e2 71be 76f0 0dbe 6c85 8f3e 347f a0be
000000f0: 3525 02bf bc19 05bf d9ff 92bd cd45 873d

critic.4.weight f4 [1, 64]
0.48192212 0.11836567 -0.16513322 0.009736997 0.046268344 -0.2881628 -0.056947656 -0.30019987
-0.28736934 -0.13274959 0.24431077 0.30163977 0.5747005 0.15018448 0.2231975 0.4568678
0.574403 0.015422443 -0.32270333 0.4497973 0.46698225 -0.22574697 -0.0004264664 0.09373359
-0.17022355 0.34250203 -0.5377988 0.014994145 0.18645543 0.42087263 -0.16785924 0.44587883
-0.20271637 0.58885497 0.13135277 -0.29932344 -0.5035521 0.5247982 0.1755592 0.00688131
-0.46064752 0.059814878 0.37098837 0.40787858 0.30793127 -0.41276458 0.029099839 -0.48802516
0.8735915 0.00058033084 -0.085122906 0.12230598 -0.020199042 -0.2193416 -0.058888532 0.19125251
-0.24733026 0.028302133 0.3608231 0.16692206 0.3414317 -0.40159738 -0.33487743 -0.115844384
00000000: 7fbe f63e b369 f23d af18 29be ed87 1f3c
00000010: e083 3d3d 138a 93be f241 69bd ccb3 99be
00000020: 1322 93be 82ef 07be 9a2c 7a3e 8770 9a3e
00000030: 921f 133f f6c9 193e e38d 643e 94ea e93e
00000040: 130c 133f 6aae 7c3c 5f39 a5be d54b e63e
00000050: 4c18 ef3e 372a 67be 5a97 dfb9 65f7 bf3d
00000060: 154f 2ebe 6d5c af3e 2fad 09bf 01aa 753c
00000070: 2cee 3e3e 9e7c d73e 4be3 2bbe 3b4a e43e
00000080: e194 4fbe 33bf 163f 5781 063e ec40 99be
00000090: cae8 00bf 2d59 063f cac5 333e 9d7c e13b
000000a0: fed9 ebbe 7200 753d 30f2 bd3e 76d5 d03e
000000b0: 2ba9 9d3e e155 d3be c962 ee3c 6fde f9be
000000c0: b1a3 5f3f 5821 183a eb54 aebd 8f7b fa3d
000000d0: 7678 a5bc 169b 60be 1a35 71bd b3d7 433e
000000e0: 2544 7dbe e0d9 e73c cebd b83e 9eed 2a3e
000000f0: 23d0 ae3e 2c9e cdbe 0e75 abbe d23f edbd
