HAC-Baseline/preTrained/LunarLanderContinuous-v2/3level/HAC_LunarLanderContinuous-v2_ou_async_level_1_crtic.pth (torch, 25239 bytes, 5 tensors)

critic.0.weight f4 [64, 24]
000000 81 5a 67 bd e2 86 f6 3b 26 7f 33 be d3 c2 65 bc
       -0.056482796 0.0075234035 -0.17528972 -0.0140235005
000010 19 c8 b6 ba a2 48 1f be 36 c1 e1 3d bd 74 45 3e
       -0.0013945132 -0.15555051 0.1102318 0.19282813
000020 4c e3 df 3d a8 3e da bd d6 15 ee bd 12 f2 29 be
       0.10932025 -0.10656482 -0.116252586 -0.16596249
000030 c9 85 06 be b7 1f fe 3d 03 01 cc 3d f1 ae a7 bd
       -0.13136972 0.12408393 0.099611305 -0.08187664
000040 e3 26 50 bc 3c 63 fd bc ed 9d 35 3c d6 3a 4f be
       -0.012704584 -0.030931108 0.011085016 -0.20237288
000050 fd 1b 44 3e fb a8 b1 bd 23 64 2e be 4a 27 17 bc
       0.19151302 -0.086748086 -0.17030387 -0.009225676
000060 f1 cd 8e 3c be 6f 1d 3e 35 7f 23 be 6b 19 4e bd
       0.017432185 0.15374658 -0.15966494 -0.05031721
000070 18 e4 e5 bd 8a 1a df bd 73 ff 09 be 07 49 03 be
       -0.11225146 -0.10893734 -0.13476352 -0.12820826
000080 43 60 d7 3d 1e 5e 3c be b9 f1 61 bd 6c 52 c5 bd
       0.10516407 -0.18395278 -0.055162165 -0.09634861
000090 7a a8 26 3e 46 3b ed bc 0f ba da bd 3f 11 24 3e
       0.16275206 -0.028958928 -0.10680019 0.16022204
0000a0 3f 96 50 be 02 b0 4f bd 59 5a 53 be 68 1f 20 bd
       -0.20369814 -0.050704964 -0.20639934 -0.03909245
0000b0 1b 87 e9 3d 26 fb 05 3e 50 b1 12 be 95 5c 10 be
       0.114027224 0.13084087 -0.14325452 -0.14097817
0000c0 2f 85 4a 3e e1 7b 2c 3d f3 fe 13 be 52 81 a7 3d
       0.19777368 0.042110328 -0.14452724 0.08178963
0000d0 96 b4 4f 3e 5d e3 60 3c 39 b3 bf bd 39 7f df bd
       0.20283732 0.013726083 -0.09360356 -0.10912938
0000e0 61 0d 8c bd 05 73 e1 3d 94 18 1a be 46 49 43 3e
       -0.06838489 0.11008266 -0.15048438 0.1907092
0000f0 51 80 06 be 1f 90 81 3d 0f 45 4a 3e 8e 7c ad bd
       -0.13134886 0.06326317 0.19752906 -0.084710225
000100 38 64 05 be 7b 67 e5 bd 6f 00 bc bd 45 05 f4 bd
       -0.13026512 -0.11201378 -0.0917977 -0.119150676
000110 64 4f 54 be 0a 28 ca bd cc 06 9e bd 50 70 3b 3e
       -0.2073341 -0.09870918 -0.0771614 0.18304563
000120 58 bd 2a bc 9c 2a 42 3c 83 9a 45 bd e0 0d 6f 3d
       -0.01042112 0.011850979 -0.048243057 0.05836284
000130 39 8f 91 3d 1f 89 3b 3c 81 cf cd bc f0 d0 8c 3c
       0.07107396 0.011446266 -0.02512336 0.017189473
000140 61 ef 5c 3e 82 6a 11 be b3 57 5b 3e 7d 8b 1b bd
       0.21575691 -0.14200786 0.21420173 -0.037974823
000150 53 1a f8 3d cf e3 28 3e 39 ab e8 3b bf 99 96 3b
       0.12114396 0.16493152 0.0071004895 0.0045959647
000160 79 29 23 3e 3e 7a 3a bd 24 61 98 3d 71 ad 57 3e
       0.1593379 -0.045526735 0.07440403 0.21062256
000170 23 cb 6e bd f0 70 5d bd 72 13 27 3e 9f cf 36 3e
       -0.058299195 -0.054062784 0.16316012 0.17852639
000180 da e0 5a 3e 95 77 64 be dd b0 27 3e 01 3c a7 3d
       0.21374837 -0.22311242 0.16376062 0.08165742
000190 2a c6 16 be b0 24 e7 3d 0e 84 e0 bd 76 1e dd 3d
       -0.14724031 0.112862945 -0.109626874 0.107968256
0001a0 6c e6 c7 3c 67 82 26 3d b7 10 d6 bd a7 27 03 bd
       0.024401866 0.040651705 -0.10452407 -0.032020237
0001b0 50 22 f8 bd 2f 1f b6 3d 0e 61 20 be 77 86 0f 3c
       -0.121159196 0.088926665 -0.15662023 0.008760086
0001c0 04 02 df 3d 51 01 b4 bc 02 fa 07 bd 1c 74 64 3d
       0.10889056 -0.021973284 -0.03319741 0.055774793
0001d0 21 a1 6b bc c7 39 a9 bd 65 81 46 bd ea 64 53 bd
       -0.014381678 -0.08262973 -0.048463244 -0.05160991
0001e0 32 d4 1c be cc fc 2b 3d db 76 ce bd aa 38 1d be
       -0.15315321 0.041989133 -0.10081264 -0.15353647
0001f0 93 1f 02 be 1e a7 c2 bd 13 06 36 bd a2 2e 27 3e
       -0.12707357 -0.09504531 -0.044439387 0.16326383
000200 fb ac 7d bd 21 3c 9e bd a1 c5 45 be f5 9c d0 3b
       -0.061932545 -0.077263124 -0.1931367 0.006366367
000210 8f c4 58 3e e0 e4 65 be 9f 2e 21 3e 75 b5 3a 3e
       0.21168731 -0.2245059 0.15740441 0.18233283
000220 1c f1 0a 3c e4 e2 0e 3e 71 b2 bb 3c 5c 58 5d be
       0.0084803365 0.1395374 0.022912236 -0.21615738
000230 54 12 33 bd 67 14 af bd f8 4a f9 bd c9 45 d2 bb
       -0.04371865 -0.08548813 -0.12172502 -0.0064170104
000240 4f 92 1f 3d 90 6c 33 3c 16 d5 db 3d b2 e2 fe bd
       0.03895789 0.010951176 0.10734002 -0.124455824
000250 79 0c 34 3e cb 9b a1 bd b6 99 27 3e 2f 99 3d 3e
       0.17582883 -0.07891043 0.1636723 0.18515466
000260 b6 ed 2e be 32 4d 44 be 96 01 17 3e a4 24 1b 3e
       -0.17082867 -0.19170073 0.14746699 0.15150696
000270 15 7c 91 bc be 29 3b 3d 3f 84 f6 3c aa 49 7f bd
       -0.017759362 0.045694105 0.030092357 -0.06232611
000280 bb 2a e4 3d cd da 84 3d 38 be 4d be a7 3e 56 bd
       0.11140963 0.064870454 -0.20092094 -0.052305844
000290 47 3e 00 be 15 a7 bb 3d f7 cc 54 be fb 88 2f be
       -0.12523757 0.09162728 -0.20781313 -0.17142098
0002a0 e5 c9 52 be 36 59 12 bd 56 f6 41 be 61 f6 68 bd
       -0.20584829 -0.03572961 -0.18941626 -0.05687559
0002b0 43 d0 b8 bd 9c 8c 21 3e 0a 65 37 3e 35 b8 a1 3d
       -0.09024098 0.15776294 0.17909637 0.07896463
0002c0 12 b9 dd bd bc 39 f5 3d 97 ce 56 be 49 56 02 be
       -0.10826315 0.119739026 -0.20977245 -0.12728228
0002d0 04 9f 7d bc ce 1e 29 be fe 01 44 3e 36 f8 08 3e
       -0.015479807 -0.16515657 0.19141385 0.13375935
0002e0 ea 19 78 3d ad 0b 05 3e 96 e3 2a 3e be 90 e4 bd
       0.06057159 0.12992735 0.1668838 -0.1116042
0002f0 9d e4 a9 3d 96 30 d2 bd a3 ee 0d bd 98 5b 2b be
       0.08295558 -0.10263173 -0.03465141 -0.16734159
000300 52 bc 9c 3d 43 c9 df bd 71 a5 04 be 52 3b 17 3e
       0.07653107 -0.109270595 -0.12953736 0.14768723
000310 a3 24 99 bd 2d 58 93 3d 1d d6 3f be d3 c4 f2 bd
       -0.07477691 0.071945526 -0.18734021 -0.118539475
000320 3f ef 10 3e 39 d3 15 3e 0d 54 f5 bc 28 96 05 be
       0.14153765 0.14631356 -0.029947305 -0.13045561
000330 1a 27 4f 3e a7 20 5b 3e c0 e3 10 3d 06 15 01 be
       0.2022976 0.21399175 0.03537345 -0.12605676
000340 16 29 08 bd 3f 3b 0e 3e 8b 9d a0 3c d6 c5 17 3e
       -0.033242308 0.13889788 0.019606372 0.14821562
000350 9c 7d 65 3e 7a 46 81 3d ba 55 0d be 32 74 75 bc
       0.22411197 0.063122705 -0.13802233 -0.014981316
000360 4d 2e 3b 3d f8 0a 98 bd 84 a8 89 3d 6c c2 0e 3e
       0.045698453 -0.07423967 0.06721595 0.13941354
000370 c5 81 ee bd 6f 13 8c bd fe fe 1e be 69 df 01 3d
       -0.11645845 -0.06839644 -0.1552696 0.0317072
000380 fe e9 ef 3d 69 e2 36 3e 47 09 89 3c d9 f3 02 3e
       0.11714552 0.17859806 0.016728057 0.12788333
000390 6c b4 44 be 80 66 2b bc bd 13 07 bd 02 d8 cb bd
       -0.1920945 -0.01046145 -0.03297781 -0.099533096
0003a0 2d 32 3b 3e b8 d3 08 3e 4f e2 27 be 4c 1f 44 be
       0.1828086 0.13362014 -0.16394924 -0.19152564
0003b0 26 3b b7 bd b1 4b 81 3d ec f1 d2 3d ee cb cb 3d
       -0.089468285 0.06313265 0.10300049 0.09951006
0003c0 d8 70 e2 3d 4e 1a 83 bd b5 94 30 bd 36 1e 07 be
       0.110566795 -0.064015016 -0.043110568 -0.13195118
0003d0 99 c6 5f bd 2b a0 4e 3d 10 2c 93 bc 58 5a 29 be
       -0.054632757 0.050445717 -0.017965347 -0.1653837
0003e0 1c 99 62 bd 44 d6 2f 3e 2d f6 f0 3d 83 62 e1 bd
       -0.055321798 0.1717158 0.11765704 -0.11005118
0003f0 ea ad 3e 3e 6d ec d2 bc f5 c1 19 be 31 cb 34 3e
       0.1862103 -0.025747502 -0.15015395 0.17655636

critic.0.bias f4 [64]
000000 4c 27 1a 3e fc bf 93 3b 7e 66 31 3e 16 29 c4 ba
       0.15054053 0.0045089703 0.17324254 -0.0014965858
000010 18 a5 20 3d f0 47 ef bd 66 ce 0a 3d d6 08 3d 3e
       0.039219946 -0.11683643 0.033888243 0.18460402
000020 6e 8a ec bd 23 56 14 3e a7 6c 0d 3e 94 9b a6 bd
       -0.11549841 0.14485984 0.13810979 -0.08135143
000030 76 87 00 be e6 10 05 3e 94 c7 67 bd e8 db c3 3d
       -0.12551674 0.12994727 -0.056586817 0.09563428
000040 8b 36 cc 3c 1a fd 49 3e 91 13 b5 bd 66 3e c2 3a
       0.024928352 0.19725457 -0.088416226 0.0014819622
000050 e6 af ab 3d 2c 5a d6 bd e9 b3 63 bc 96 d6 9b bc
       0.08383159 -0.10466418 -0.013897874 -0.019023221
000060 07 66 62 3e bc 51 ae 3d 0d 65 0e be 2d 6d c7 3d
       0.22109233 0.08511683 -0.13905735 0.097376205
000070 9d de 1a 3e c2 b3 a2 3d 48 fe 38 3e f4 3e 7b bd
       0.15123983 0.07944442 0.1806575 -0.061339334
000080 98 18 a6 3c da 1e 30 3e 93 5a 3f 3e 22 28 a3 bd
       0.0202754 0.17199269 0.18686895 -0.07966639
000090 12 e0 3f 3d 6c 88 bc 3a 17 72 4c 3e b7 3b 61 bd
       0.04684455 0.0014383919 0.19965397 -0.05498859
0000a0 a5 08 00 3d cd 3f ce 3d 9a 73 33 bd d5 d5 00 be
       0.031258244 0.10070763 -0.043811418 -0.1258157
0000b0 17 5b 53 3e 0d 3f a5 bd 83 4f d8 3d da db 85 3a
       0.20640217 -0.080686666 0.10562041 0.0010212616
0000c0 2b 78 47 be 42 6a f9 bd 16 52 3d 3d a4 69 44 3e
       -0.19479434 -0.1217847 0.04622086 0.19180924
0000d0 a9 d1 a4 bc f4 77 02 3e 98 96 9f 3d 53 fe ab 3d
       -0.020119505 0.12741071 0.07792395 0.08398118
0000e0 53 f1 7d 3e be 98 0e 3e aa 9d 26 3e 98 ce 05 be
       0.24799089 0.13925454 0.16271082 -0.1306709
0000f0 e4 f4 2f be ea 83 1f 3e 1a df 3c 3e 27 24 1e 3e
       -0.17183262 0.15577665 0.18444481 0.15443479

critic.2.weight f4 [64, 64]
000000 d4 5d 14 3d f0 56 19 bd db eb 47 3d e1 42 89 bd
       0.036222294 -0.037436426 0.048808914 -0.06702209
000010 d7 a6 39 3b 76 8d ef 3d e2 14 aa bd 71 76 fd bd
       0.0028328204 0.116969034 -0.08304764 -0.123761065
000020 71 45 b2 bc 6a d8 8f 3d d3 69 0b be 45 48 ae 3d
       -0.021761628 0.070236996 -0.13614587 0.08509878
000030 07 38 a9 3a fb 74 a3 3c 49 d9 a9 3d 34 1f 71 3d
       0.0012910374 0.019953242 0.08293397 0.05886765
000040 40 54 e8 bb 75 3f e9 bd f7 9b c1 3d 20 5d 73 bd
       -0.0070901215 -0.113890566 0.09453576 -0.059414983
000050 15 de 82 bd 9c 8d 19 3d db 47 7f 3d d9 79 ba 3c
       -0.06390015 0.037488565 0.062324386 0.02276318
000060 ea 52 b3 bd d5 2a de bd b0 e5 5e 3d 6a d5 f0 3c
       -0.08756049 -0.10848013 0.054418266 0.029398639
000070 7d 9d a0 3d 80 51 00 3e 97 3e 81 bd 2b 45 2a 3d
       0.078425385 0.1253109 -0.06310766 0.04156987
000080 76 f6 fd 3d f5 97 ce 39 e0 aa 45 bd 37 a8 d0 bd
       0.12400524 0.000394046 -0.048258662 -0.101883344
000090 e0 d3 20 bb ae 23 8a bd f2 ae a3 bd 39 e9 0e be
       -0.002454035 -0.067450866 -0.079923525 -0.13956155
0000a0 9d 37 10 3d 29 45 07 bd 30 00 79 3d 8f ec 91 3d
       0.035209287 -0.03302494 0.060791194 0.07125198
0000b0 15 90 0d be 41 12 25 bd 84 31 ea 3d 43 90 a6 bc
       -0.13824494 -0.04030061 0.114352256 -0.020332461
0000c0 e9 be b6 3d b2 96 d5 bd e4 19 e1 3d 2a 82 68 3d
       0.08923132 -0.104291335 0.10991266 0.05676476
0000d0 f7 6e b5 bd 78 e5 0e 3d 8e 4b 87 3d 4b aa 98 3d
       -0.088590555 0.034886807 0.06606208 0.07454356
0000e0 57 3d da 3b 40 ea 46 bd c0 de 0b bd e0 9e c2 bd
       0.0066601443 -0.048563242 -0.034147978 -0.09502959
0000f0 cf c8 f8 3d 42 2a ec 3c 79 a8 54 3c 06 96 b4 bd
       0.12147676 0.028828744 0.01297962 -0.08817677
000100 2d 91 bc bd 41 df 21 bc 2d 75 8e 3d 44 4a b8 3d
       -0.092073776 -0.009879888 0.06955943 0.0899854
000110 0a 95 ec bb dc 0b 57 3d 31 7d d7 bc b4 01 18 bd
       -0.0072199153 0.052501544 -0.026304813 -0.037111
000120 f9 f4 04 3e be 52 11 3d 42 7c f2 3d 39 ca ef bd
       0.12984075 0.0354793 0.118401065 -0.11708493
000130 59 ab b8 3b e6 d8 1a bd 19 98 d1 3d b9 e8 6e 3d
       0.0056356606 -0.037804507 0.102340885 0.05832741
000140 48 d4 aa 3c 21 b9 a9 3d 27 5e 8e bd c9 e6 17 bd
       0.020853177 0.08287264 -0.06951552 -0.03708533
000150 13 42 8d 3d f5 ac 9d bd b0 35 f6 3c db e8 3a 3d
       0.06897368 -0.076990046 0.030054897 0.045632225
000160 a2 d5 d4 bd bd 23 8c bd cc 77 bd bd 24 fc f2 bd
       -0.1039231 -0.06842754 -0.09251365 -0.11864498
000170 91 38 21 bd 60 9a 37 3d 37 8c 52 3d f1 66 9b 3d
       -0.039360587 0.044824958 0.05140325 0.07587994
000180 48 5b 80 3c bf 90 99 bd af 0b e6 bd 8b 43 d6 3d
       0.015668526 -0.07498311 -0.11232697 0.104621015
000190 5c 93 91 3c 45 92 bb 3d 9b c1 f8 bd fc 38 8b bd
       0.017770462 0.09158758 -0.12146302 -0.06797978
0001a0 40 06 58 bb bc d4 d3 3d 99 b3 c7 bd ea a8 79 bd
       -0.003296271 0.1034331 -0.097510524 -0.060952105
0001b0 38 36 c2 bd 5f 7f 8c 3d e3 f2 6e 3c 77 06 2e bd
       -0.09482998 0.068602316 0.014584276 -0.042486634
0001c0 49 ff b4 3d 7f 06 b4 bd 9a a6 88 bc e0 72 53 bd
       0.08837754 -0.087903015 -0.016681004 -0.051623225
0001d0 07 68 b7 bc cd 90 df 3b b5 f7 e9 bb e0 f2 03 3e
       -0.022388471 0.0068226815 -0.0071401247 0.12885618
0001e0 99 cb ea bd 50 6d 56 bd 46 cc 94 bb 17 dc 67 bd
       -0.114646144 -0.052350342 -0.004540953 -0.05660638
0001f0 b7 21 f9 3d 74 f0 8d 3d 5c a4 c1 3d 08 02 bc 3d
       0.12164634 0.069306284 0.09455177 0.09180075
000200 00 e5 da bb 60 ae a8 3d 50 b8 2c bc 48 e6 b7 3d
       -0.006680131 0.082363844 -0.01054199 0.089794695
000210 08 25 95 3c 20 e3 4b 3d 14 f7 52 3d bc 59 42 bd
       0.018206134 0.04977715 0.051505163 -0.04744886
000220 9a db da 3d 24 a2 d0 3d 98 79 f7 bc 64 8f 17 bd
       0.10686417 0.10187176 -0.030209348 -0.037001982
000230 e0 25 e3 bd 76 ad 86 3d 3c 39 c4 bd 48 7f ec bd
       -0.110912085 0.06576054 -0.09581229 -0.115477145
000240 52 a8 d2 3d 80 ee e2 3c f4 f2 de 3d 2c 27 d6 bd
       0.10286011 0.027701616 0.108861834 -0.1045669
000250 72 35 90 bd 00 9f 08 bd d8 42 9e 3d 98 59 c2 bd
       -0.07041444 -0.03335476 0.07727593 -0.09489745
000260 3a 94 dc bd e8 c5 16 bd 26 d0 84 bd 08 0f f8 3d
       -0.107704595 -0.03680983 -0.06485014 0.12112242
000270 2e 98 82 3d ca cb ac bd 0c af 5c bd c0 c2 96 bb
       0.06376682 -0.08437307 -0.053877875 -0.0046008527
000280 e0 35 a0 bd 38 6e c1 bd 26 68 e5 3d fc 3f aa bd
       -0.07822776 -0.09444851 0.11201505 -0.08312985
000290 48 db 93 3d 9c 64 13 bd e4 78 c2 bd 38 fb 67 bd
       0.07219559 -0.03598462 -0.09495714 -0.056636065
0002a0 44 99 6a bd f2 de ad bd e8 d0 9c bd 20 0a ba bb
       -0.05727507 -0.08489789 -0.07657033 -0.0056774765
0002b0 fc cb 86 bd 80 31 d0 3d 70 93 f4 bd 10 d3 a6 bc
       -0.06581876 0.101656914 -0.11942184 -0.020364314
0002c0 d0 86 a8 3d 16 f7 a8 bd 38 eb e9 bc 60 be d0 bd
       0.082288384 -0.08250253 -0.028554544 -0.10192561
0002d0 92 f8 f6 bd 84 90 72 3d 20 ca 02 3d d0 53 47 3c
       -0.1205913 0.059219852 0.031931043 0.012165979
0002e0 ee 70 ca 3d 80 63 3b bb e8 9b d5 bd 78 13 f9 bd
       0.09884821 -0.0028593242 -0.104301274 -0.121619165
0002f0 40 7d 94 3c 68 b1 97 bd 00 66 ee 3d 40 1d 80 bc
       0.01812613 -0.074068844 0.11640549 -0.015638947
000300 fe 33 dc 3d 90 3e a5 bc f4 f3 6c bd 3a 9a fd bd
       0.10752104 -0.020171434 -0.05784984 -0.12382932
000310 7c 1f f4 3d 9a 42 dd bd 12 04 b5 3d 94 cb 46 bd
       0.11920068 -0.10803719 0.08838667 -0.04853399
000320 10 f5 bc bd 0c 06 30 bd 14 e2 77 3d 34 5d c3 3d
       -0.092264295 -0.042974517 0.06051834 0.095392615
000330 12 1e d6 bd ea e2 be bd f4 d4 2d 3d cc 66 74 3d
       -0.10454954 -0.09320624 0.042439416 0.059668347
000340 a2 66 a4 bd 08 1d 55 3d 98 6a 8f bc 40 60 df bd
       -0.08027388 0.05202964 -0.017506883 -0.1090703
000350 92 64 8f 3d 44 6d d6 bd 40 ee e7 bb d0 61 dd bc
       0.07001604 -0.104700595 -0.007077962 -0.02702418
000360 74 53 6b bd 98 93 a5 bc 12 80 e4 bd de 9c e2 3d
       -0.057452634 -0.02021198 -0.1115724 0.11065076
000370 66 7a bf bd 04 05 9e 3d 00 ae 8d 3b 80 c1 b6 bb
       -0.093495175 0.077158004 0.004323721 -0.005577266
000380 30 19 15 bc 3c 7a 5a bd f0 8d b9 bc fa 3a b8 3d
       -0.009100243 -0.053339228 -0.022650689 0.08995624
000390 ac 2e 73 bd 48 8c 69 3d 3c 8a ce bd d4 28 7d bd
       -0.05937068 0.05701855 -0.1008496 -0.061806515
0003a0 6a 07 b1 3d 10 55 3b 3d ee 7b e8 bd 30 4c b3 bd
       0.08643992 0.04573542 -0.11351763 -0.08754766
0003b0 40 af a5 3d 40 67 0c bc fe d6 ed 3d 3c 7d fc bd
       0.08090067 -0.008569539 0.11613272 -0.12328574
0003c0 c8 ce 07 3d c2 2d fd bd 28 17 55 3d 44 66 2d bd
       0.033156186 -0.12362243 0.052024037 -0.042333856
0003d0 b0 41 59 bc 90 de 7c bc 10 a9 83 3c 5c 49 ac bd
       -0.01326029 -0.015433922 0.016071826 -0.0841243
0003e0 76 09 8e bd 9c 22 5f 3d 96 18 94 bd b0 49 0f 3d
       -0.06935398 0.054476365 -0.07231252 0.034982383
0003f0 50 e5 71 bc 7a ad a1 3d 5c d8 00 bd c4 72 b4 3d
       -0.014764145 0.07894416 -0.031456336 0.08810952

critic.2.bias f4 [64]
000000 7c 68 73 3d 33 cc 0b bd 8c 3f 23 bd 00 f0 07 38
       0.059425816 -0.034130286 -0.039855525 3.2410026e-05
000010 18 61 60 3c b0 04 b7 bd 77 ae 08 3d 0f 0e 45 3d
       0.013695024 -0.08936441 0.033369508 0.04810911
000020 00 d5 af 3d 76 90 c5 bd 1f c4 c8 3d 56 89 8a 3d
       0.085855484 -0.09646694 0.09803032 0.06764476
000030 7f c5 90 3d 93 d4 cf 3d 3d 32 9e bd 18 26 45 3d
       0.070689194 0.10147967 -0.07724426 0.048132032
000040 c6 31 14 3e 7b f3 41 3d 3a fe bb bc 09 46 e6 bd
       0.14472112 0.04735134 -0.022948373 -0.11243827
000050 9b 01 69 bd 04 18 c9 bd 88 93 10 3e 24 0b 1a 3d
       -0.056886297 -0.09819034 0.14118779 0.03760828
000060 b8 a3 27 bd a2 c1 fe bd 44 bb 71 bd 3e 00 8a bd
       -0.04092762 -0.12439276 -0.05901648 -0.067383274
000070 a3 dd 2d 3d 19 20 16 bd a1 d1 e0 3d 01 00 cb 3d
       0.042447697 -0.036651704 0.109774835 0.0991211
000080 f3 ca c4 bd c2 56 34 3d bd 04 4c 3a d9 2c ed bd
       -0.09609022 0.04402805 0.00077826885 -0.1158082
000090 fa e0 cb 3c 9a f8 1c bb 57 54 92 ba 21 58 4c bd
       0.02488755 -0.002395189 -0.0011164051 -0.049888734
0000a0 10 32 28 3e d7 c9 0b 3d 35 fd f2 bd bd 21 09 be
       0.16425347 0.034128036 -0.11864702 -0.13391776
0000b0 bb e2 11 3c c7 be ab bd 8c 58 73 3d 5e db 33 3d
       0.008904154 -0.08385997 0.059410617 0.043910377
0000c0 df 0c 09 ba e6 d9 62 3d 40 4d 5e 3d 06 16 c8 bc
       -0.0005228053 0.055383585 0.05427289 -0.024424564
0000d0 69 21 bd 3c 44 93 f3 ba bf c9 aa bd d7 21 08 be
       0.02308722 -0.0018583317 -0.08339261 -0.13294159
0000e0 0a d4 20 3d 7a c5 04 3e ea bf 2b bd f7 41 e2 3d
       0.039264716 0.12965956 -0.04193107 0.11047738
0000f0 ad 59 a3 3d d2 24 b7 3c 6f 17 d2 3d 35 07 08 3b
       0.07976089 0.022356424 0.10258376 0.002075625

critic.4.weight f4 [1, 64]
000000 97 35 9b 3d 46 97 86 3d 52 7a ac 3d e6 11 e9 3d
       0.07578581 0.06571822 0.08421768 0.11380367
000010 26 4f 27 bd 5a ec ff 3c 69 53 eb 3c 57 1e bf bd
       -0.040846966 0.03124063 0.028726296 -0.09331959
000020 ac b8 1c be 2f 11 be bc 5c a2 17 3d dc 41 c3 3d
       -0.15304822 -0.023201553 0.037020072 0.09534046
000030 b9 72 94 bd 26 b6 c4 bd 4b a8 d6 bd 90 97 99 3d
       -0.07248444 -0.096050546 -0.10481318 0.074996114
000040 c4 9b ea bd 35 8e 17 3d 5d 9b c3 3c c1 66 5c bc
       -0.11455491 0.037000854 0.023877794 -0.013452233
000050 c9 e6 ce 3d ca 71 9b 3d 8c e7 70 bc a8 32 89 bd
       0.101026125 0.07590063 -0.014703643 -0.06699115
000060 a4 91 a8 3d 24 bd 94 bd 36 1f 00 be 85 ce a0 3d
       0.08230904 -0.07262638 -0.12511906 0.078518905
000070 a9 7d 74 bd 15 b2 ec b8 80 d3 2c bd e0 d9 90 3d
       -0.05969015 -0.00011286527 -0.04219389 0.07072806
000080 86 f2 9b 3c 27 f9 92 3c 8c f5 8d 3c e0 8c 45 bd
       0.019036543 0.01794107 0.017329 -0.048230052
000090 41 f4 0d be fe a3 d8 3d 62 44 24 be 31 77 d7 bd
       -0.13862707 0.10578154 -0.16041711 -0.10520781
0000a0 ac 05 52 bd c0 1c 8b 3d 20 07 36 bd 46 aa ab 3d
       -0.05127494 0.06792593 -0.04444039 0.083820865
0000b0 b2 a5 2d 3d 58 1e a5 3d 45 3f d8 bd f8 23 5f 3d
       0.042394347 0.08062428 -0.10558943 0.05447766
0000c0 ed 2f 7d 3c 61 84 cd 3d a4 af 6a bd e7 48 b8 3d
       0.015453321 0.10035015 -0.05729641 0.0899828
0000d0 a5 72 8f bd e8 85 02 be 2a e4 cd 3d 6f 00 88 3d
       -0.070042886 -0.12746394 0.100532845 0.06640708
0000e0 33 39 50 3d 14 da c6 bd 87 6f c8 3d 63 c5 83 bd
       0.0508358 -0.09709564 0.09786897 -0.06434133
0000f0 49 d9 e0 3d fc c6 af 3d d6 76 fa bd ea 56 f3 bc
       0.10978944 0.08582875 -0.122296974 -0.02970453
