HAC-Baseline/preTrained/Ant-v3/3level/HAC_Ant-v3_surprise_sync_level_2_actor.pth (torch, 104471 bytes, 6 tensors)

actor.0.weight f4 [64, 222]
0	0xbc7f5aa2	-0.015585573
1	0xbcd3f0dc	-0.025871687
2	0x3d35d2d4	0.044390514
3	0xbc55518d	-0.0130199315
4	0x3cfa95de	0.03058904
5	0xbd8044ad	-0.06263099
6	0x3c65d6ac	0.014028233
7	0xbbe79d14	-0.0070682857
8	0x3c982fdf	0.018577514
9	0xbd053fa6	-0.032531403
10	0x3d7eae01	0.06217766
11	0xbd806759	-0.06269712
12	0xbbb89412	-0.0056328857
13	0xbd6d1b3c	-0.0578873
14	0x3cda54f0	0.02665183
15	0x3c9fa2ad	0.01948675
16	0x3cf0aaa6	0.029378247
17	0xbd2f7897	-0.042839613
18	0x3d3b9802	0.045799263
19	0x3d0b5c73	0.034023713
20	0x3d0e219c	0.03470002
21	0xbd540853	-0.05176575
22	0x3d87adcf	0.06624948
23	0x3d1705c7	0.036870744
24	0xbc56f6f8	-0.013120405
25	0x3d4aef97	0.049544897
26	0xbd84c06b	-0.06482013
27	0xb9db0c6e	-0.00041780196
28	0x3d32a8a4	0.04361786
29	0xbd7c3ed6	-0.061583363
30	0xbd35f1cf	-0.04442006
31	0xbd231eaf	-0.039824184
32	0x3d497a78	0.04918906
33	0x3d2706a4	0.040777817
34	0xbd60141a	-0.05470667
35	0xbbdeb36b	-0.0067962906
36	0xbd84abcd	-0.06478081
37	0xb814a0a4	-3.5435558e-05
38	0x3d45f4ea	0.04832927
39	0x3cf8963a	0.030345071
40	0x3d11687d	0.03550004
41	0xbc0d773f	-0.0086343875
42	0xbb465d02	-0.003026784
43	0x3cd49b48	0.02595295
44	0x3ccd9a8a	0.025098104
45	0xbd652a4e	-0.055948548
46	0x3ca48940	0.020084977
47	0x3c73319c	0.014843371
48	0x3d190a66	0.037363432
49	0x3a73fd8a	0.00093074946
50	0xbd459121	-0.04823411
51	0xbbdf5999	-0.006816101
52	0x3d72a99e	0.05924379
53	0xbc101611	-0.008794324
54	0xbcaf6235	-0.021409133
55	0x3c80093f	0.015629409
56	0x3d0d5739	0.03450701
57	0xbc9f58e2	-0.019451562
58	0x3c2d89aa	0.010591904
59	0xbcbdb756	-0.02315871
60	0x3d6f4691	0.058416907
61	0x3c68265d	0.014169303
62	0x3cc2adde	0.023764547
63	0x3d03ab45	0.032145757
64	0x3d6a0e0d	0.057142306
65	0x3d16a63d	0.03677963
66	0x3c9d1ad3	0.01917783
67	0xbc98d162	-0.018654529
68	0xbccfcf40	-0.02536738
69	0x3c94be17	0.018157048
70	0xbd0bc1f8	-0.03412053
71	0x3c32c8d9	0.010912144
72	0x3d2ea9c0	0.042642355
73	0xbd88b81f	-0.06675743
74	0xbd19c32b	-0.037539642
75	0xbc82e724	-0.015979357
76	0x3d759c88	0.059963733
77	0xbcc5601a	-0.024093676
78	0x3d711826	0.05886092
79	0x3d868121	0.06567598
80	0x3cbb760f	0.022883443
81	0xbd58f0cc	-0.052964017
82	0x3ce9fa14	0.02856163
83	0x3cafbd38	0.021452531
84	0xbd56c33c	-0.052432284
85	0x3d121faa	0.03567473
86	0xbd63f3f4	-0.055652574
87	0x3ca00886	0.019535314
88	0xbc14ae44	-0.009074751
89	0x3af2b01c	0.001851562
90	0xbd88f3c8	-0.066871226
91	0x3cc35b72	0.023847315
92	0x3ca7297b	0.020405522
93	0x3d831b45	0.064016856
94	0xbd758242	-0.059938677
95	0x3b54eec2	0.0032490944
96	0xbc039358	-0.008030735
97	0xbd51a583	-0.051183235
98	0x3d4e5bd3	0.05038054
99	0x3d410d62	0.047131903
100	0x3a6c188e	0.00090063445
101	0x3d00f912	0.031487532
102	0xbcb977c7	-0.022640122
103	0xbd86f522	-0.06589724
104	0xbd803959	-0.06260938
105	0xbd86ff04	-0.06591609
106	0xbd36e44d	-0.04465132
107	0x3b5dd0c5	0.003384636
108	0x3d2df4a3	0.042469632
109	0xbd17a26d	-0.037020136
110	0x3d84b70d	0.06480227
111	0xbc13e346	-0.009026354
112	0xbb8420db	-0.004032237
113	0xbd6aaee3	-0.05729569
114	0xbd8025e1	-0.06257225
115	0xbd2a2e55	-0.041548092
116	0xbd6b0079	-0.057373498
117	0x3d828cf3	0.0637454
118	0x3d7c4e2e	0.061597995
119	0xbca8155c	-0.020517997
120	0xbc67a929	-0.014139452
121	0x3d33243a	0.04373572
122	0xbd2fa171	-0.042878572
123	0xbbd2bd11	-0.00643123
124	0x3d418d65	0.047253985
125	0x3d182a06	0.03714945
126	0x3cc4309b	0.023948958
127	0xbd13f559	-0.036122654
128	0x3cfd7c5e	0.030943092
129	0x3ca885dc	0.020571642
130	0x3d24428d	0.04010253
131	0xbc5e3e3c	-0.0135646425
132	0x3b627ffd	0.003456115
133	0xbcfb3420	-0.030664504
134	0xbd3f3010	-0.046676695
135	0x3a2d229c	0.00066045835
136	0x3d671761	0.05641878
137	0xbd614fb4	-0.05500765
138	0xbd73c2e2	-0.059512027
139	0x3ce19169	0.027535157
140	0x3b63e43d	0.0034773492
141	0xbc15efc0	-0.009151399
142	0x3c380483	0.011231544
143	0xbd648d54	-0.055798844
144	0x3d5bbc64	0.05364646
145	0x3d47a9d4	0.048745945
146	0xbcfc3997	-0.03078918
147	0xbd5ae8aa	-0.053444542
148	0x3cfef32d	0.031121815
149	0x3caab2bc	0.02083718
150	0x3d2dce73	0.042433213
151	0x3d233fc1	0.039855722
152	0x3c5a6c87	0.013331539
153	0xbd3fda1a	-0.046838857
154	0x3d73b3f7	0.0594978
155	0x3cf10f79	0.029426323
156	0x3c32a7a9	0.010904231
157	0xbd3640b7	-0.04449531
158	0xbd45f802	-0.04833222
159	0x3d17fe34	0.03710766
160	0x3d61b748	0.05510643
161	0xbc4974b4	-0.012295891
162	0xbd731371	-0.059344713
163	0xbc70f1a8	-0.014706053
164	0xbd05cf2f	-0.03266829
165	0xbd57f344	-0.05272223
166	0x3c662f5e	0.014049379
167	0x3d8579c6	0.06517367
168	0x3c810168	0.01574774
169	0x3d65ffaa	0.056152023
170	0xbc9abc9a	-0.01888876
171	0xbcf985ee	-0.03045937
172	0xbcda5c2b	-0.026655277
173	0xbd380ce6	-0.044934176
174	0xbd3068aa	-0.043068565
175	0xbd55cbba	-0.052196242
176	0xbccfb45f	-0.025354562
177	0x3af9f5e6	0.0019070476
178	0x3cf67182	0.030083422
179	0x3cb43545	0.021998057
180	0x3caeb780	0.021327734
181	0x3ad687e5	0.0016367404
182	0xbd5d260f	-0.053991374
183	0xbd0763d9	-0.033054207
184	0xbd7daef0	-0.06193441
185	0x3d8165bd	0.06318233
186	0xbd783873	-0.06060071
187	0xbcd6ae8d	-0.02620628
188	0x3d838aa8	0.06422931
189	0xbca53187	-0.020165218
190	0x3c981ba7	0.018567873
191	0xb9c31587	-0.00037209337
192	0xbd77b494	-0.060474947
193	0xbc2ddbb7	-0.010611466
194	0x3d19eb6a	0.037578024
195	0x3d407b61	0.046992663
196	0x3d318483	0.043339264
197	0x3d4a9e34	0.04946728
198	0xbd4aff20	-0.049559712
199	0xbcdd86fe	-0.027041908
200	0x3cf1f043	0.029533511
201	0x3c981411	0.018564256
202	0xbd5dd2e8	-0.054156214
203	0xbaebec42	-0.0017999487
204	0x3d84b2f5	0.06479446
205	0xbd12ab5b	-0.03580795
206	0x3d22c5ca	0.039739408
207	0x3d06fd8c	0.032956645
208	0x3b5cd59f	0.0033696664
209	0xbd10d00b	-0.035354655
210	0xbd76dd1e	-0.060269468
211	0xbd48f49d	-0.049061406
212	0x3cddca20	0.02707392
213	0x3c5c940d	0.013463032
214	0x3c585765	0.01320443
215	0x3d75bb4a	0.059993066
216	0xbbf241e8	-0.0073931105
217	0xbd253a67	-0.0403389
218	0xbcab0be6	-0.020879697
219	0x3ce90b95	0.028447906
220	0xbcfa2c4b	-0.030538699
221	0x3d0a6c38	0.03379461
222	0xbd83364b	-0.0640684
223	0x3d32057a	0.043462254
224	0xbb5fde6b	-0.003415967
225	0xbcfbf081	-0.03075433
226	0x3c240886	0.010011798
227	0xbce5140a	-0.027963657
228	0xbd41d3c8	-0.04732111
229	0xbcb7cfa4	-0.022437878
230	0xbd324fea	-0.043533243
231	0x3a1ad929	0.0005906993
232	0x3d161827	0.036644127
233	0x3ce7b13b	0.028282752
234	0x3d3b5a4c	0.04574041
235	0x3b9a85ab	0.0047156415
236	0xbd6f6360	-0.05844438
237	0x3ce44172	0.027863238
238	0x3d3bc672	0.04584355
239	0xbcbe4a1a	-0.023228694
240	0x3c3fca16	0.011705896
241	0x39546102	0.00020254034
242	0xbd716dd9	-0.05894265
243	0xbcb05e88	-0.021529451
244	0x3af9c147	0.0019054794
245	0xbce4d9a2	-0.027935807
246	0xbd378312	-0.044802733
247	0x3d2ce881	0.04221392
248	0x3d4ee158	0.050507873
249	0x3ca13056	0.019676369
250	0x3d6ad87f	0.057335373
251	0x3a60e115	0.0008578462
252	0x3d074b90	0.033031046
253	0xbd86cdd1	-0.06582225
254	0x3beec534	0.007286692
255	0x3cf186b0	0.02948317

actor.0.bias f4 [64]
0	0x3d609537	0.054829802
1	0x3d6ac82e	0.057319812
2	0xbc467136	-0.0121119525
3	0xbd2d7266	-0.042345427
4	0x3d3e3717	0.046439257
5	0xba037df7	-0.00050160236
6	0x3b61fa3c	0.0034481427
7	0xbc513b9f	-0.012770562
8	0x3b52e338	0.003217889
9	0xbd910141	-0.07080317
10	0x3cea47be	0.028598662
11	0x3dab33ca	0.08359487
12	0x3da6f497	0.081521206
13	0xbb7a5397	-0.0038196796
14	0xbd855905	-0.0651112
15	0x3c0e752d	0.008694929
16	0xbc36c13f	-0.011154472
17	0xbd0e24e6	-0.034703158
18	0xbc47ea78	-0.012201898
19	0xbd605b26	-0.054774426
20	0xbd1bc075	-0.03802534
21	0x3d01f8c3	0.03173138
22	0x3c808f20	0.015693247
23	0x3d285724	0.04109873
24	0xbcd90aa2	-0.026494328
25	0xbba1cf26	-0.004938024
26	0xbd2a4efa	-0.041579224
27	0xbd63262b	-0.05545632
28	0x3d138761	0.03601778
29	0xbd611f2e	-0.054961376
30	0xbd7c41d2	-0.06158621
31	0xbce4ff3f	-0.027953742
32	0xbc725c5a	-0.014792526
33	0xbc04b830	-0.008100554
34	0xbcfe1e8b	-0.031020423
35	0xbd5dcceb	-0.054150503
36	0xbb9b7545	-0.004744204
37	0xbcebc1a4	-0.028778858
38	0x3d705864	0.058678046
39	0x3c6c161c	0.014409568
40	0xbd829782	-0.06376554
41	0xbc324bae	-0.010882301
42	0xbcf11886	-0.029430639
43	0xbc8a690c	-0.016895793
44	0xbd86d228	-0.06583053
45	0xbcf31606	-0.029673588
46	0x3c5ed7f2	0.01360129
47	0xbc561a7e	-0.01306784
48	0x3d9b61bb	0.07587
49	0x3d1a908d	0.03773551
50	0xbd0df287	-0.03465512
51	0xbc64e45d	-0.013970462
52	0xbd211b61	-0.03933275
53	0x3b14387a	0.002261667
54	0x3d6bb3c9	0.057544503
55	0xbc2db50e	-0.010602249
56	0xbc9facfe	-0.019491669
57	0x3c56efd3	0.013118702
58	0xbcf6f0a4	-0.030144043
59	0xbc945f6e	-0.01811191
60	0xbd249362	-0.040179618
61	0xbc552f16	-0.013011714
62	0xbd196cc5	-0.037457246
63	0xbd2b86f4	-0.04187675

actor.2.weight f4 [64, 64]
0	0x3d88f4e2	0.06687333
1	0xbd6138bc	-0.054985747
2	0xbcb9e008	-0.022689834
3	0x3d448574	0.047978833
4	0x3d8d4034	0.068970114
5	0x3b906060	0.00440602
6	0x3cc1652b	0.023607811
7	0x3dbbbf84	0.09167388
8	0xbc87de0a	-0.016585369
9	0x3c2ce5e6	0.010552859
10	0xbd6a9f3a	-0.057280757
11	0x3d85b34d	0.065283395
12	0x3dc1a982	0.09456159
13	0x3dadcb38	0.084860265
14	0x3cac3278	0.02102016
15	0x3d6a2688	0.057165653
16	0x3d17bc48	0.037044793
17	0x3e0008ae	0.12503311
18	0x3da3b4ba	0.07993455
19	0x3dc52a0b	0.0962716
20	0x3d6ee110	0.058320105
21	0xbdb4c3cb	-0.08826407
22	0x3d04eaa8	0.03245035
23	0xbdcac344	-0.09900525
24	0x3d906cf0	0.07052028
25	0xbda1ec68	-0.07906419
26	0x3d160fa8	0.036636025
27	0xbd87fed8	-0.066404045
28	0xbc99c498	-0.018770501
29	0x3dd5adbc	0.10433528
30	0x3db05180	0.08609295
31	0x3d32e96c	0.04367964
32	0x3d9a8d98	0.07546538
33	0xbd775c01	-0.060390476
34	0x3de7cd32	0.11318435
35	0xbcf84ee8	-0.030311063
36	0x3dace92f	0.08442914
37	0xbc9f51b8	-0.019448146
38	0xbd70146c	-0.058613226
39	0x3df7dfa3	0.12103202
40	0x3d7ee284	0.06222774
41	0x3df67130	0.120333076
42	0xbd3c1462	-0.045917876
43	0x3d3dc500	0.046330452
44	0xbdf5076a	-0.11964305
45	0x3c990bd8	0.018682405
46	0x3e01f372	0.12690523
47	0xbda1b23e	-0.07895325
48	0xbd8383a3	-0.06421592
49	0x3dba3b6a	0.090933636
50	0x3d007de0	0.031370044
51	0x3d12f19f	0.03587496
52	0xbdc57a88	-0.096425116
53	0xbd9eb706	-0.07749753
54	0xbdd313e3	-0.103065275
55	0x3c3eae67	0.01163826
56	0x3d44eeb0	0.048079193
57	0x3d0d8f75	0.03456064
58	0x3d445380	0.047931194
59	0xbb0b1444	-0.0021221796
60	0x3d76f2fc	0.06029032
61	0x3daecc12	0.08535017
62	0xbd56e5a8	-0.05246511
63	0x3a70823e	0.0009174681
64	0x3de109ea	0.10988219
65	0x3c177dd0	0.009246305
66	0xbdb4bcca	-0.08825071
67	0xbc8c3808	-0.017116562
68	0x3a160b00	0.0005723685
69	0x3daa5456	0.08316867
70	0x3dd5cbe8	0.10439283
71	0x3d0fc570	0.0351004
72	0xbc1b1ea5	-0.009467755
73	0x3b952f21	0.0045527373
74	0xbc8d621f	-0.017258702
75	0x3db307f1	0.08741749
76	0x3dd5bdf0	0.10436618
77	0xbd74cb78	-0.059764355
78	0x3cc98b80	0.024602652
79	0xbd5e2be4	-0.054241076
80	0xbdb075e2	-0.08616234
81	0x3d7e4934	0.06208153
82	0x3d9df088	0.07711893
83	0x3d002016	0.0312806
84	0xbdfa0f92	-0.12210001
85	0x3d63485c	0.05548893
86	0x3c19c4c0	0.009385288
87	0x3d1cc81c	0.038276777
88	0x3d93bfcc	0.07214317
89	0x3dcb30b2	0.09921397
90	0xbddaad12	-0.10677542
91	0xbd94c0f8	-0.07263368
92	0x3dfdd610	0.12394345
93	0xbc6f41b0	-0.014603063
94	0xbcbf99f8	-0.023388848
95	0xbd1cd43f	-0.03828835
96	0x3d725c74	0.0591702
97	0x3db106b5	0.086438574
98	0x3d2ec594	0.042668894
99	0x3a586b00	0.00082556903
100	0x3dc99b55	0.0984408
101	0x3d8b03fc	0.06787869
102	0xbce7b600	-0.028285027
103	0x3dc0c168	0.09411889
104	0x3dd6b23a	0.10483213
105	0x3dbd365c	0.09238884
106	0xbdb91b55	-0.09038416
107	0x3dad06ae	0.0844854
108	0xbc6b8620	-0.01437524
109	0xbd91e08a	-0.071229056
110	0x3dea6fca	0.11447103
111	0xbdb6c978	-0.08925146
112	0x3defd89b	0.11711236
113	0x3df3aa9e	0.11897777
114	0xbcdccbc0	-0.026952624
115	0xbda6062a	-0.081066445
116	0xbd6a34d4	-0.057179287
117	0xbd3b192c	-0.045678303
118	0x3e07f360	0.13276434
119	0x3d80915c	0.06277725
120	0xbcf03208	-0.029320732
121	0x3db01c0d	0.085991
122	0x3d56dd80	0.052457333
123	0x3d0325bb	0.032018404
124	0x3a512c00	0.0007979274
125	0x3d1cf900	0.038323402
126	0x3c61accd	0.013774109
127	0xbced4d49	-0.028967516
128	0xbdd6d83c	-0.10490462
129	0x3da667d6	0.08125274
130	0xbcf0c538	-0.029390916
131	0xbab18b80	-0.0013545603
132	0xbc653380	-0.013989329
133	0xbdd004e0	-0.1015718
134	0x3d9da4ca	0.07697447
135	0x3d23d1b4	0.03999491
136	0xbc9980f0	-0.01873824
137	0x3c10f980	0.008848548
138	0xbb8ab9e0	-0.004233584
139	0xbd849c0a	-0.064750746
140	0x3c4237a0	0.011854082
141	0x3d8fb68c	0.0701724
142	0x3dd76fd0	0.105193734
143	0x3aafb700	0.0013405979
144	0x3d3f2c78	0.046673268
145	0x3d601a7c	0.054712757
146	0xbd3a3238	-0.04545805
147	0x3de3465e	0.11097406
148	0xbd9bc65c	-0.076061934
149	0x3dcf03e4	0.10108164
150	0xbd11e5c0	-0.035619497
151	0xbcca9a20	-0.024731696
152	0x3d92b970	0.07164276
153	0xbd87b590	-0.06626427
154	0xbda89c76	-0.082329676
155	0x3ce79ec0	0.02827394
156	0xbd77fc20	-0.06054318
157	0xbc9ecb00	-0.019383907
158	0xbc91eb70	-0.01781246
159	0x3dd0761c	0.101787776
160	0xbdcc5abc	-0.09978244
161	0xbd73f540	-0.05956006
162	0x3dbfbfbe	0.09362744
163	0x3c3a8e50	0.011386469
164	0x3dbe8d46	0.093042895
165	0xbb7fc840	-0.003902927
166	0xbc379210	-0.011204258
167	0x3d909dce	0.07061349
168	0x3dd2806a	0.10278399
169	0x3dce6846	0.10078482
170	0xbd84d398	-0.06485671
171	0xbce5ea28	-0.028065756
172	0x3dfeb3c2	0.1243663
173	0xbd48f6dc	-0.04906355
174	0xbdeb65aa	-0.11494
175	0x3dc82240	0.09772158
176	0xbd0be954	-0.034158066
177	0x3d4c04d8	0.049809307
178	0xbdfc6c6e	-0.12325369
179	0x3cadb158	0.021202728
180	0xbdc28f9c	-0.095000476
181	0xbc60a040	-0.013710082
182	0xbdf7773c	-0.12083289
183	0xbd88fd56	-0.06688945
184	0x3d3cc8c8	0.046089917
185	0xbd2b70a8	-0.041855484
186	0x3d9fdd0c	0.07805833
187	0xbdab2258	-0.0835616
188	0x3d779600	0.060445786
189	0xbc6c1740	-0.01440984
190	0x3c9f0e40	0.019415975
191	0xbdf3d5a2	-0.119059816
192	0xbcd24410	-0.02566722
193	0xbd4f663c	-0.050634608
194	0xbdb84a24	-0.08998516
195	0x3d82b6a6	0.06382494
196	0xbd9872a4	-0.07443741
197	0x3db48c5c	0.08815834
198	0x3d68e424	0.056858197
199	0xbdf94fce	-0.12173425
200	0xbd80179e	-0.062545046
201	0xbbd98a40	-0.006638795
202	0xbce602a8	-0.028077438
203	0x3c61a800	0.0137729645
204	0x3d4c85b0	0.04993218
205	0x3dd6ee7c	0.10494706
206	0x3cca2480	0.024675608
207	0xbdcfbee0	-0.101438284
208	0xbc2675a0	-0.01015988
209	0x3d2810a8	0.04103151
210	0xbdc4786a	-0.0959328
211	0xbc7d9d80	-0.015479445
212	0x3bc381c0	0.005966395
213	0x3d846100	0.06463814
214	0x3dc1a072	0.09454431
215	0x3ca581a8	0.020203426
216	0xbcc8d908	-0.024517551
217	0xbd8ea26c	-0.06964573
218	0x3d5c8210	0.053834975
219	0x3dc85c7a	0.097832635
220	0x3d5813c8	0.05275324
221	0xbdbdfe5e	-0.09277032
222	0xbded5e1e	-0.11590217
223	0x3a8cbf00	0.0010738075
224	0x3d8459a2	0.064624086
225	0xbd8b4e54	-0.06802049
226	0x3dedd9e6	0.116138265
227	0xbd222ee8	-0.039595515
228	0x3de2465a	0.11048575
229	0xbda6474e	-0.08119069
230	0xbd0ac900	-0.033883095
231	0x3d8ab936	0.067736074
232	0x3a0d7900	0.00053967535
233	0x3d9410a6	0.07229738
234	0x3d99cb50	0.07509482
235	0xbdedd022	-0.11611964
236	0xbc2456a0	-0.010030419
237	0xba9cb080	-0.0011954457
238	0xbd22111c	-0.039567098
239	0xbc23a1b0	-0.00998728
240	0xbd7b6168	-0.06137219
241	0xbd88cf5e	-0.06680177
242	0xbd699380	-0.057025433
243	0x3cf9e5c8	0.030505076
244	0xbc597a80	-0.013273835
245	0x3d96b13e	0.07358025
246	0x3d97d7de	0.0741422
247	0xb7d1e000	-2.501905e-05
248	0x3aad1880	0.0013206154
249	0xbcc17a70	-0.023617953
250	0xbd808a4a	-0.062763765
251	0xbd05ecd0	-0.032696545
252	0xba19ee00	-0.00058719516
253	0xbd7757f8	-0.060386628
254	0xbd9bdf1a	-0.076109126
255	0xbdb4e54c	-0.088327974

actor.2.bias f4 [64]
0	0x3df40156	0.11914317
1	0x3b7f79ec	0.0038982583
2	0x3d834104	0.06408885
3	0xbd18001c	-0.03710948
4	0x3cfd9d78	0.030958876
5	0xbd3da960	-0.046304107
6	0xbcec0c46	-0.028814446
7	0xbcb32ebe	-0.021872874
8	0x3e12b15e	0.14325473
9	0x3dbd0d12	0.092310086
10	0x3d9b8381	0.07593442
11	0xbd5d11ea	-0.053972162
12	0xbd59a290	-0.053133547
13	0x3c7bb573	0.015363085
14	0xbd042a10	-0.032266676
15	0xbcd6da41	-0.026227118
16	0x3d7caf21	0.061690453
17	0x3dd6a582	0.10480787
18	0xbd032ecc	-0.03202705
19	0x3cadb470	0.021204203
20	0x3d2ff564	0.042958632
21	0x3c46b958	0.01212915
22	0x3dc757bd	0.097335316
23	0xbd01e354	-0.031710938
24	0xbdf5abfc	-0.11995694
25	0xbd6f7f48	-0.058470994
26	0xbd8426f1	-0.0645274
27	0xbd563448	-0.052295953
28	0x3bd787d2	0.0065774703
29	0x3d27617c	0.040864453
30	0xbdaf4cb6	-0.08559553
31	0x3d1ba1c7	0.03799608
32	0x3d8b388e	0.06797896
33	0xbd591ea8	-0.05300775
34	0x3c851570	0.016245574
35	0x3d97fc1b	0.07421132
36	0x3d18f50b	0.037343066
37	0x3c68b5d0	0.014203504
38	0x3d92cec6	0.07168345
39	0x3df8fe08	0.121578276
40	0x3c9bef90	0.01903513
41	0xbd86af5c	-0.06576416
42	0x3ddb743e	0.10715531
43	0xbb19a000	-0.0023441315
44	0x3d8a4242	0.06750919
45	0xbce32fb0	-0.0277327
46	0x3e10309c	0.14081043
47	0x3df244b7	0.118295126
48	0xbc1c9529	-0.009557047
49	0xbdb5c0ba	-0.0887465
50	0x3c2b801b	0.010467554
51	0x3d351d7c	0.04421757
52	0x3d3999eb	0.045312803
53	0xbd6d9324	-0.058001652
54	0x3d82b57c	0.06382272
55	0xbd481ea0	-0.04885733
56	0xbd9fe293	-0.078068875
57	0xbdb233e0	-0.087013006
58	0xbc69c620	-0.014268428
59	0x3e123abf	0.14280222
60	0x3c7b49d0	0.0153374225
61	0x3dc02218	0.09381503
62	0x3d010e2c	0.031507656
63	0xbbe164a3	-0.006878452

actor.4.weight f4 [111, 64]
0	0x3ce1fb15	0.027585546
1	0xbd826f6a	-0.06368907
2	0xbcebbd20	-0.028776705
3	0xbdd58406	-0.10425572
4	0xbd63537c	-0.05549954
5	0xbdec7b5c	-0.115469664
6	0x3d64c88a	0.05585531
7	0x3e137c58	0.14402902
8	0xbd9b3102	-0.07577707
9	0xbd6b4074	-0.057434514
10	0xbdc82864	-0.09773329
11	0xbc15d3d8	-0.009144746
12	0x3d8fb6fe	0.07017325
13	0x3d44aa86	0.048014186
14	0xbdd2e3e2	-0.102973714
15	0x3e010b09	0.12601866
16	0x3c482c64	0.012217615
17	0x3d0d1b42	0.034449823
18	0xbd739404	-0.05946733
19	0xbca2bb10	-0.019864589
20	0x3c868f4e	0.016425755
21	0x3d921095	0.07132069
22	0x3ce3854c	0.027773522
23	0xbce401a0	-0.027832806
24	0xbd92e1d2	-0.07171978
25	0xbdfa1b78	-0.122122705
26	0x3d83e5fd	0.06440351
27	0x3c04fc00	0.008116722
28	0x3d2fbd42	0.0429051
29	0xbdcd37a3	-0.100203775
30	0x3de2a210	0.11066067
31	0x3e00b5bb	0.12569325
32	0x3c87a029	0.016555863
33	0x3bf30d40	0.007417351
34	0xbdb5e8ba	-0.0888228
35	0x3e0023d6	0.1251367
36	0x3db943d7	0.090461425
37	0xbd142ef0	-0.036177576
38	0x3d953790	0.07285988
39	0x3d891a11	0.06694425
40	0x3e13e3ec	0.14442414
41	0x3c43d650	0.011952952
42	0xbb732dc0	-0.0037106127
43	0xbdce7904	-0.10081676
44	0xbd76d1f9	-0.06025884
45	0xbdf1431a	-0.11780377
46	0x39af1ed9	0.00033401584
47	0xbd98b40f	-0.074562185
48	0xbcf5239e	-0.02992421
49	0xbdeb9ede	-0.11504911
50	0xbdaaeb66	-0.0834568
51	0xbbb7217b	-0.005588708
52	0x3e00bf74	0.12573034
53	0xbcaa1010	-0.020759612
54	0xbc6f4def	-0.014605983
55	0x3d3377b4	0.04381533
56	0x3dcffcd6	0.101556465
57	0xbdedebfc	-0.11617276
58	0x3e00cb62	0.12577584
59	0x3d753705	0.059866924
60	0xbdf9508a	-0.12173565
61	0xbdc61302	-0.09671594
62	0x3d7741dc	0.060365543
63	0xbd9f352a	-0.07773812
64	0xbd90d7f7	-0.07072442
65	0x3d1a3f8c	0.03765826
66	0x3c5a4450	0.013321951
67	0xbd5f6220	-0.05453694
68	0xbce1d098	-0.027565286
69	0xbd9b3d3a	-0.075800374
70	0xbdb7d616	-0.089763805
71	0x3d9dd72e	0.07707058
72	0x3b9e400b	0.004829412
73	0x3d8fae35	0.07015649
74	0xbdc6bb4f	-0.09703695
75	0x3d128221	0.03576863
76	0xbd2aa4bc	-0.04166101
77	0xbbfb4fea	-0.0076694386
78	0x3dcac0dd	0.09900067
79	0xbdc8ffee	-0.0981444
80	0xbd011ade	-0.031519763
81	0x3d246b97	0.04014167
82	0x3d9bafd8	0.07601899
83	0xbd3e6bcc	-0.04648952
84	0xbdc55f3f	-0.096373074
85	0x3d90dbd8	0.07073182
86	0xbd191c4a	-0.037380494
87	0xbdbe22f8	-0.092840135
88	0xbdcc9d52	-0.09990944
89	0xbcfc86c0	-0.030825973
90	0xbd69e190	-0.05709988
91	0xbcced120	-0.025246203
92	0xbde47e55	-0.111569084
93	0xbbc02d41	-0.0058647697
94	0x3d29ffcc	0.041503713
95	0xbd97c5de	-0.07410787
96	0x3b19ae88	0.0023449976
97	0xbc8dc698	-0.017306611
98	0x3c4b77a0	0.012418658
99	0x3d5fc02b	0.054626625
100	0xbdba1f77	-0.09088033
101	0xbdcf71ca	-0.101291254
102	0xbddda7a7	-0.10822993
103	0x3d9083a8	0.070563614
104	0xbc33dafb	-0.010977502
105	0xbdab74b6	-0.0837187
106	0xbbfc8b00	-0.007707
107	0xbdb35a54	-0.08757463
108	0x3d9e4d51	0.07729591
109	0x3dcc8ef6	0.09988205
110	0x3cdca5da	0.026934553
111	0xbd3b1958	-0.045678467
112	0xbbb6038e	-0.005554623
113	0x3dd2cf2c	0.10293421
114	0xbd679eb9	-0.056547854
115	0xbe0d0ecf	-0.1377518
116	0xbcaabede	-0.020842966
117	0xbdcc184c	-0.09965572
118	0x3cf90ff9	0.030403124
119	0xbd9ba9ac	-0.07600722
120	0x3db7dea5	0.08978013
121	0x3d0321a0	0.03201449
122	0x3c9cc709	0.019137876
123	0xbc99dd3c	-0.01878225
124	0x3dfca8c8	0.1233688
125	0x3a590200	0.0008278191
126	0xbd8d0888	-0.06886393
127	0xbd1f3012	-0.038864203
128	0x3e0c9cb9	0.1373166
129	0xbcc863bb	-0.024461618
130	0xbd103e44	-0.03521563
131	0x3df04858	0.117325485
132	0xbd87d43c	-0.06632277
133	0xbd288674	-0.04114385
134	0x3de06dc8	0.10958439
135	0xbd959c56	-0.07305209
136	0x3c2c6563	0.010522219
137	0xbdb48df5	-0.08816139
138	0x3e11c5c6	0.14235601
139	0xbcae1c22	-0.02125365
140	0x3ccf5220	0.025307715
141	0xbd312c89	-0.043255363
142	0xbd7e6676	-0.062109433
143	0xbc923a0c	-0.017849945
144	0x3e0e872e	0.13918754
145	0x3daaf1a4	0.083468705
146	0xbd995ba0	-0.07488179
147	0xbd430c54	-0.04761918
148	0xbd8f640e	-0.07001506
149	0x3d89c510	0.0672704
150	0x3c5937fd	0.013257978
151	0xbd3d03c0	-0.046146154
152	0xbd72258c	-0.05911784
153	0x3d45d3b8	0.048297614
154	0xbc925e99	-0.017867373
155	0x3dfba390	0.122870564
156	0xbdb2de15	-0.08733765
157	0xbdd201e4	-0.10254267
158	0xbdd204bc	-0.10254809
159	0x3dfb7d97	0.12279814
160	0x3e0e308d	0.13885708
161	0x3d6b3354	0.057421997
162	0xbd32c9e8	-0.043649584
163	0x3e145c59	0.14488353
164	0xbd3d68dd	-0.046242584
165	0xbd88f386	-0.066870734
166	0x3cb2ba63	0.021817392
167	0xbd2d97cb	-0.04238109
168	0xbda3c450	-0.07996428
169	0xbd9a1c98	-0.07524985
170	0xbcaa6058	-0.020797893
171	0x3d8796d2	0.066205636
172	0x3d8d8bcd	0.069114305
173	0xbccf25c8	-0.02528657
174	0x3d39e8f5	0.04538818
175	0xbdc1023c	-0.09424254
176	0x3e054c33	0.13017349
177	0xbc8ca770	-0.017169684
178	0xbdcc95f2	-0.09989537
179	0x3d75634a	0.059909143
180	0x3d9e2fd7	0.077239685
181	0x3de64c7e	0.112450585
182	0xbd7bb94f	-0.06145602
183	0xbd7d4898	-0.06183681
184	0xbd2f5afb	-0.042811375
185	0xbdb4a6f4	-0.08820906
186	0x3d33fcc2	0.04394222
187	0x3d400e6c	0.046888754
188	0xbd608a18	-0.054819196
189	0x3d22c41c	0.039737806
190	0xbd9d4d7c	-0.076807946
191	0x3cd2b2ce	0.025720026
192	0x3dd89f0f	0.10577213
193	0x3dc3887f	0.09547519
194	0xbdc63100	-0.09677315
195	0xbd8dbdf4	-0.06920996
196	0x3de7b82e	0.11314426
197	0x3d98a716	0.07453744
198	0x3dd1c5c1	0.10242797
199	0xbd9fee88	-0.07809168
200	0x3deae216	0.11468904
201	0x3ddc01be	0.1074252
202	0xbdbd326a	-0.09238131
203	0x3e0dcbe1	0.13847305
204	0xbd374e34	-0.044752315
205	0x3e118e79	0.14214505
206	0xbcb9eb6e	-0.02269527
207	0xbd4b49c7	-0.049630906
208	0xbc41dd27	-0.011832512
209	0x3da7cae5	0.08192996
210	0x3c81d4e8	0.015848592
211	0x3d5e3b98	0.05425605
212	0x3d961625	0.073284425
213	0xbd86f709	-0.06590087
214	0x3de265ee	0.11054598
215	0xbd98f702	-0.07468988
216	0xbd92b664	-0.071636945
217	0xbdbe2918	-0.09285182
218	0x3dba31df	0.090915434
219	0xbb4f3e40	-0.0031622797
220	0x3e025446	0.1272746
221	0x3da66db9	0.08126397
222	0xbd8a9ba2	-0.06767966
223	0xbc22169a	-0.009893084
224	0x3b9ec158	0.0048448257
225	0xbd92dee8	-0.07171422
226	0x3d180f44	0.037123933
227	0x3db3548e	0.08756362
228	0xbdc85a92	-0.097829
229	0xbc9c81a8	-0.019104794
230	0x3dde2b1b	0.108480655
231	0x3cd0fe24	0.025511809
232	0x3db91593	0.09037318
233	0x3d641d4c	0.055692002
234	0x3c8974b0	0.016779274
235	0xbda8fe58	-0.08251637
236	0x3e003b23	0.12522559
237	0xbdef27e2	-0.11677529
238	0x3cae8fba	0.021308769
239	0xbd95ef83	-0.07321074
240	0xbd8ff3ba	-0.07028909
241	0xbd87471e	-0.066053614
242	0xbcfe1bc7	-0.031019105
243	0x3e005a07	0.12534343
244	0xbdc07480	-0.093972206
245	0xbd31122c	-0.04323022
246	0xbcf0f12a	-0.029411871
247	0xbceea368	-0.029130653
248	0xbdbc5000	-0.09194946
249	0xbdf80908	-0.121110976
250	0xbd8346ed	-0.064100124
251	0xbdcec1a0	-0.10095525
252	0x3defb8b4	0.11705151
253	0x3dcdc912	0.10048117
254	0x3d089ea0	0.0333544
255	0xbcc1500d	-0.023597741

actor.4.bias f4 [111]
0	0x3afe15d3	0.0019385166
1	0xbca3639e	-0.019944962
2	0xbdcbf215	-0.09958283
3	0xbd7d41ba	-0.06183026
4	0x3b921122	0.004457609
5	0x3d9a32dd	0.07529233
6	0xbd6f46e9	-0.058417235
7	0xbe045e85	-0.12926681
8	0x3d7a9083	0.061172973
9	0xbd3436fa	-0.043997742
10	0x3dd7dd1a	0.10540219
11	0xbd1a3277	-0.037645783
12	0x3db35d18	0.087579906
13	0xbe05020d	-0.12989064
14	0x3b3ad433	0.0028507828
15	0x3e14c0d8	0.14526689
16	0x3c491965	0.012274121
17	0x3d94d2b9	0.07266755
18	0x3cce46d2	0.025180254
19	0xbd95e62b	-0.07319292
20	0x3ce0e293	0.027451789
21	0xbde2d862	-0.11076428
22	0x3d9bb4ac	0.0760282
23	0xbcbb2d9d	-0.022848899
24	0xbdb8c4ec	-0.09021935
25	0x3d0d90ad	0.0345618
26	0xbd89e56f	-0.06733214
27	0xbad0ec72	-0.0015939607
28	0x3bdfedbf	0.0068337615
29	0xbcb13a2c	-0.021634184
30	0xbdbbaf45	-0.091642894
31	0x3d10e918	0.035378546
32	0xbd0e94a9	-0.034809742
33	0x3d7b0d10	0.061291754
34	0xbda93c1c	-0.08263418
35	0x3e09ce1a	0.13457528
36	0xbd8c5bde	-0.0685346
37	0x3d19e37f	0.037570473
38	0x3c092776	0.008371225
39	0xbde3c6d3	-0.11121907
40	0x3d607557	0.054799404
41	0x3e13f339	0.14448251
42	0x3e04c8f2	0.1296728
43	0x3dded717	0.10880869
44	0x3dd876b6	0.10569517
45	0xbdb31b51	-0.087454446
46	0x3df3bde7	0.119014554
47	0xbd3739c2	-0.044732817
48	0x3d36dd63	0.044644725
49	0xbccef408	-0.025262848
50	0xbdb7e434	-0.08979073
51	0xbd7038ee	-0.058648042
52	0xbdd562db	-0.10419246
53	0x3d25f8b2	0.040520377
54	0x3dd16a3a	0.10225339
55	0x3d1efe38	0.03881666
56	0xbddaa67b	-0.10676285
57	0xbd490599	-0.049077604
58	0xbdcf6cc4	-0.10128167
59	0x3be0200e	0.0068397587
60	0xbe0edf5b	-0.13952391
61	0xb9fe6dbe	-0.0004852842
62	0x3d1fe75e	0.03903901
63	0xbd098278	-0.03357169
64	0xbe046695	-0.12929757
65	0xbd89a4ce	-0.06720887
66	0xbdf78d47	-0.120874934
67	0xbd4ca17b	-0.049958687
68	0x3db54731	0.08851469
69	0x3dd0fa28	0.102039635
70	0xbcdab9f3	-0.026699996
71	0xbdf71a46	-0.12065558
72	0x3e131c38	0.14366233
73	0x3d5e6b16	0.054301344
74	0xbd69b8c5	-0.057060976
75	0xbd4d226f	-0.050081667
76	0x3cb27ae0	0.021787107
77	0x3dec22bd	0.11530063
78	0xbe15bbb3	-0.14622383
79	0xbcd24390	-0.025666982
80	0x3ceb092d	0.028690899
81	0x3d01bda8	0.03167501
82	0x3c7b47e1	0.0153369615
83	0xbd74ca77	-0.059763398
84	0xbdfd5d0d	-0.12371264
85	0xbd51cccd	-0.051220704
86	0x3d183cfb	0.03716753
87	0x3d8291e3	0.06375482
88	0x3d558196	0.052125536
89	0xbdb651ca	-0.08902319
90	0x3d491d8e	0.04910045
91	0xbd002fe6	-0.03129568
92	0x3c983dc3	0.018584138
93	0xbc89330f	-0.01674798
94	0xbd83aa71	-0.064289935
95	0xbe09dad3	-0.13462381
96	0x3d7f75bc	0.06236814
97	0x3d872c88	0.066002905
98	0xbd2599df	-0.040429946
99	0x3e13dfeb	0.14440887
100	0xbd5ddc34	-0.05416508
101	0x3b5dbf1d	0.0033835836
102	0x3d80a1be	0.0628085
103	0xbd4657be	-0.04842352
104	0xbe0f32d1	-0.13984229
105	0xbc4865ce	-0.012231303
106	0x3cacfb5c	0.021115951
107	0xbc711dd9	-0.014716589
108	0x3d28de56	0.04122766
109	0xbd7b5769	-0.061362658
110	0x3bc5e976	0.0060397936
