HAC-Baseline/preTrained/Ant-v3/3level/HAC_Ant-v3_surprise_sync_level_0_crtic.pth (torch, 77975 bytes, 5 tensors)

critic.0.weight f4 [64, 230]
0	0xbe3f22f9	-0.18665685
1	0xbd36f93a	-0.044671275
2	0xbdafb246	-0.08578925
3	0x3e5f2587	0.2179166
4	0x3e31233c	0.17298597
5	0xbe4d4417	-0.20045505
6	0xbea1228a	-0.31471664
7	0xbedacc5f	-0.42734048
8	0x3e1e3df6	0.15453324
9	0x3e35d979	0.1775874
10	0x3e30b4c9	0.17256464
11	0xbe830016	-0.25586003
12	0xbe6676c0	-0.22506237
13	0x3d82763a	0.06370206
14	0xbdf5895e	-0.11989091
15	0x3c979275	0.018502453
16	0xbe0dd0e3	-0.13849215
17	0xbe7e8e2d	-0.24858923
18	0x3e311e14	0.1729663
19	0x3d471e7c	0.048613057
20	0x3dcaed47	0.09908538
21	0x3db286d2	0.08717121
22	0xbc646233	-0.013939428
23	0x3ce986cc	0.028506659
24	0xbc3643af	-0.011124535
25	0xbc5d13f1	-0.013493524
26	0xbd8efce2	-0.06981827
27	0xbd0b5d78	-0.034024686
28	0xbca686d4	-0.020327963
29	0x3d1de9fc	0.038553223
30	0xbd52d696	-0.051474176
31	0x3d472c6d	0.048626352
32	0xbd1c73cb	-0.038196366
33	0xbca32d67	-0.01991911
34	0x3d47dbbf	0.04879355
35	0x3d84315d	0.06454728
36	0x3ca20268	0.019776538
37	0xbc66d108	-0.014087923
38	0x3d3f11ef	0.046647962
39	0xbb51325b	-0.0031920883
40	0x3d22c2d4	0.039736584
41	0x3cdac5c0	0.026705623
42	0xbabc732d	-0.0014377587
43	0x3d7eded6	0.06222423
44	0x3d023443	0.031788122
45	0x3d7da26d	0.06192248
46	0x3d7f0fb6	0.062270842
47	0x3c50d8e9	0.012747028
48	0xbcfcbe0a	-0.030852336
49	0xbcb59c3a	-0.022169221
50	0xbc2be3db	-0.010491337
51	0xbcb0482e	-0.021518793
52	0x3be17014	0.006879816
53	0x3d8347c1	0.0641017
54	0x3d31e6b6	0.043432914
55	0x3c93e995	0.018055717
56	0x3d0c632c	0.034274265
57	0xbd187c89	-0.03722814
58	0x3cd92722	0.026507918
59	0x3d6c9501	0.05775929
60	0x3caeb408	0.02132608
61	0x3a8502ac	0.0010147891
62	0x3d5a1aa2	0.053248055
63	0xbd5e1801	-0.05422211
64	0x3d1877f0	0.037223756
65	0xbc5129d9	-0.012766325
66	0xbd78f441	-0.060779814
67	0x3d176b7d	0.036967743
68	0xbc580aca	-0.013186166
69	0xbc72b231	-0.014812992
70	0xbcf6eedf	-0.0301432
71	0xbcb25c01	-0.021772387
72	0xbc2610b3	-0.010135817
73	0xbd8499a1	-0.06474615
74	0x3d03582b	0.032066505
75	0x3c0b7c5b	0.008513535
76	0x3cc898d1	0.024486931
77	0x3d865f56	0.06561153
78	0xbc711393	-0.0147141395
79	0xbd2216ec	-0.03957264
80	0xbd2f60e1	-0.042817
81	0xbc14e26f	-0.009087189
82	0xbc524da8	-0.0128358975
83	0x3cc056dc	0.023478918
84	0x3b999f90	0.004688211
85	0x3cb3fa29	0.021969872
86	0xbd09a1a0	-0.033601403
87	0xbd688b16	-0.056773268
88	0x3b212408	0.0024588127
89	0x3c648286	0.013947135
90	0xbd01311e	-0.031540982
91	0xbcc0c455	-0.023531118
92	0xbc3e83cd	-0.011628103
93	0xbd71800d	-0.05896001
94	0x3d7c1585	0.06154396
95	0x3d429534	0.047505572
96	0xbd452fa2	-0.04814113
97	0xbd80aecf	-0.06283342
98	0x3d6b29a9	0.057412777
99	0x3d603dc3	0.0547464
100	0xbd728bec	-0.05921547
101	0x3c650225	0.013977562
102	0xbd2b90d9	-0.041886184
103	0xbd46cd9d	-0.04853593
104	0xbd3be107	-0.0458689
105	0x3b077731	0.002067041
106	0x3d796dd0	0.06089574
107	0x3cfbcd94	0.030737676
108	0xbd79697a	-0.060891606
109	0x3d11a042	0.035553224
110	0x3d752202	0.059846886
111	0xbce63192	-0.028099809
112	0xbdc786d1	-0.09742511
113	0xbcb25648	-0.021769658
114	0xbdd0515e	-0.101717696
115	0x3d378f83	0.044814598
116	0x3d8bf894	0.06834522
117	0x3df62ebf	0.12020635
118	0x3e84916f	0.25892207
119	0x3d86216e	0.06549345
120	0xbcc71a99	-0.024304675
121	0xbd499bf5	-0.049220998
122	0x3d166c27	0.036724236
123	0xbd6cf613	-0.057851862
124	0x3cb49dfc	0.02204799
125	0xbd6414aa	-0.05568377
126	0x3dd0d349	0.101965494
127	0x3d057490	0.032581866
128	0xbdb4365d	-0.087994315
129	0x3dc2eaf1	0.09517468
130	0x3c0b538f	0.008503809
131	0x3dd2cf6e	0.1029347
132	0xb962e43d	-0.00021638065
133	0x3d04f347	0.03245857
134	0xbdc84f6c	-0.097807735
135	0x3e03282f	0.12808298
136	0x3dfcb4bf	0.12339162
137	0x3d209456	0.039203964
138	0xbd84edd7	-0.06490677
139	0xbd71f520	-0.05907166
140	0xbc8570aa	-0.016289074
141	0xbc8cda16	-0.017193835
142	0x3d3f5545	0.04671218
143	0xbd49a620	-0.049230695
144	0xbd1962a5	-0.03744759
145	0x3dadd241	0.084873684
146	0xbde93ac8	-0.11388165
147	0xbdf27e93	-0.11840548
148	0x3cc924cb	0.024553677
149	0xbbb089e4	-0.0053875316
150	0xba9eafa1	-0.0012106785
151	0xbbd28dcf	-0.0064255963
152	0x3b243596	0.0025056354
153	0x3cb84bd7	0.0224971
154	0x3da5f5db	0.08103534
155	0xbd1a4f67	-0.03767338
156	0xbd99ade8	-0.07503873
157	0x3c4f77c7	0.0126628345
158	0xbd402ef9	-0.046919797
159	0xbd982d0d	-0.07430468
160	0xbca6880b	-0.020328542
161	0xbd551e58	-0.05203089
162	0xbd19d18b	-0.03755335
163	0x3d8800af	0.066407554
164	0x3db6e011	0.08929456
165	0xbcabce73	-0.020972466
166	0x3c40643c	0.011742648
167	0xbccafe05	-0.02477933
168	0xbe00fe45	-0.12596996
169	0x3cf592fc	0.029977314
170	0xbdef9218	-0.11697787
171	0x3cc1aef1	0.023642989
172	0xbc8faa8f	-0.017537383
173	0x3da04d08	0.078271925
174	0x3ddc9635	0.10770837
175	0xbdae056a	-0.084971264
176	0xbcf1b358	-0.029504463
177	0xbd9a4d08	-0.07534224
178	0xbded3829	-0.11582977
179	0xbdcda40f	-0.10041057
180	0x3e1313cb	0.14363019
181	0x3d52d59f	0.051473256
182	0xbe303b1d	-0.1721005
183	0x3d83c939	0.064348646
184	0xbdfc8868	-0.12330705
185	0xbdd4e2d7	-0.10394829
186	0x3c0f5250	0.008747652
187	0x3db11b53	0.0864779
188	0xbb2722b6	-0.0025502867
189	0xbd0f88d1	-0.035042588
190	0xbd182c0a	-0.037151374
191	0x3e126921	0.14297916
192	0x3dd67751	0.104719765
193	0x3e1fa991	0.15592028
194	0xbdf1c08d	-0.11804304
195	0x3dd73621	0.10508371
196	0xb9aebd79	-0.00033329034
197	0xbe3c973e	-0.1841707
198	0xbdbda307	-0.092596106
199	0xbc8a31e6	-0.016869497
200	0xbc5d30b1	-0.0135003785
201	0x3cc6db87	0.0242746
202	0xbd8f88a6	-0.070084855
203	0x3db6f9d8	0.08934373
204	0xbd5deec6	-0.05418279
205	0xba7fca71	-0.0009757644
206	0x3de62ce5	0.11239032
207	0x3dc3debb	0.09563967
208	0xbdb5b4e4	-0.08872393
209	0x3e23790e	0.15964147
210	0x3c67e7c9	0.014154383
211	0x3d11d7b8	0.035606116
212	0x3e0f376a	0.13985983
213	0xbd434be1	-0.047679786
214	0xbbaa2eac	-0.005193552
215	0x3ca91011	0.020637544
216	0x3c434572	0.0119184125
217	0x3bda3e40	0.006660253
218	0xbdcd866b	-0.10035404
219	0x3d400ff6	0.04689022
220	0xbcb5f470	-0.022211283
221	0xbd518221	-0.05114949
222	0xbd8bc527	-0.06824713
223	0x3dbe54dc	0.092935294
224	0xbd9e3273	-0.07724466
225	0xbdb130e9	-0.08651907
226	0xbd734dd8	-0.05940041
227	0x3d8add87	0.06780534
228	0xbd0f01b2	-0.034913726
229	0xbdaa32cc	-0.0831047
230	0xbcb7b369	-0.022424417
231	0xba96b998	-0.0011499403
232	0x3d64a278	0.055819005
233	0xbd393ed5	-0.045225937
234	0x3dd7fef5	0.10546676
235	0xbe2d6ec3	-0.16936783
236	0xbda6f196	-0.081515476
237	0xbea4a50f	-0.3215718
238	0xbd1bc211	-0.038026873
239	0x3d215c98	0.039394945
240	0x3db21c04	0.0869675
241	0xbe8588c3	-0.26080903
242	0x3cb5ba5a	0.022183586
243	0x3e0e1772	0.13876131
244	0xbe2d574e	-0.16927835
245	0xbd2c42cc	-0.04205589
246	0x3e7a9f1d	0.2447476
247	0x3db58019	0.08862323
248	0x3cb72f3f	0.022361396
249	0x3cfba04a	0.03071608
250	0x3d0c657d	0.034276474
251	0x3df970ae	0.12179695
252	0x3d22f637	0.03978559
253	0x3da5d7a1	0.080977686
254	0xbd3258dd	-0.043541778
255	0x3daeb313	0.085302494

critic.0.bias f4 [64]
0	0xbe9e29d4	-0.30891287
1	0x3c5e84af	0.013581439
2	0xbe9d1e05	-0.30686966
3	0xbe5dd89e	-0.21664664
4	0xbe8c466e	-0.27397484
5	0xbe3aa212	-0.18225887
6	0xbe319bf0	-0.17344642
7	0xbba10499	-0.004913878
8	0xbef5aca8	-0.4798329
9	0x3e0d47d6	0.13796934
10	0x3c2979e7	0.010344005
11	0xbe44dd67	-0.19225083
12	0xbdd2363e	-0.10264252
13	0xbea1c698	-0.31596828
14	0x3e10cbbc	0.14140218
15	0x3cebeb1b	0.02879863
16	0xbf07094f	-0.5274858
17	0xbecee02c	-0.40405405
18	0xbe71df03	-0.23620228
19	0xbd89fff4	-0.06738272
20	0xbe217758	-0.15768182
21	0x3ddf04d6	0.10889594
22	0xbe0eab6d	-0.13932581
23	0x3c3595bc	0.011083063
24	0xbe02c95e	-0.12772128
25	0xbc89b11b	-0.016808083
26	0xbeb0c35e	-0.34524053
27	0xbeb27018	-0.34851146
28	0xbe757045	-0.23968609
29	0xbaea70dd	-0.0017886419
30	0x3d73e151	0.05954105
31	0xbd810559	-0.06299848
32	0xbdd47f27	-0.10375815
33	0xbf0164d1	-0.5054446
34	0x3d9efbb9	0.07762856
35	0xbe3ad92b	-0.18246906
36	0x3cdbfb5b	0.026853254
37	0xbdfc5e8f	-0.12322723
38	0xbe64b1a0	-0.22333384
39	0xbd0ed3fc	-0.034870133
40	0xbdf7850f	-0.12085926
41	0xbe875f97	-0.26440117
42	0xbd695395	-0.056964476
43	0xbed94ecb	-0.42442927
44	0x3d8ddd23	0.06926944
45	0xbe1b9091	-0.15191866
46	0xbe0d1dbd	-0.13780876
47	0xbe9562ca	-0.29176933
48	0xbc5d261d	-0.013497856
49	0xbe5f94c4	-0.21834093
50	0xbc67832e	-0.014130397
51	0xbe55fe40	-0.2089777
52	0xbe51fe23	-0.20507102
53	0x3d51792e	0.051140957
54	0x3d850648	0.06495339
55	0xbe900866	-0.28131407
56	0xbe6a14d8	-0.22859514
57	0x3cc7ed54	0.024405159
58	0xbf099a38	-0.53750944
59	0x3bf29838	0.0074034
60	0xbde0c344	-0.10974744
61	0xbeb7499e	-0.35798353
62	0xbd186b7f	-0.03721189
63	0x3e168380	0.14698601

critic.2.weight f4 [64, 64]
0	0x3e2ed624	0.17073876
1	0x3dc8a646	0.09797339
2	0x3d88f876	0.06688015
3	0x3e04427a	0.12915984
4	0x3dcd36bb	0.10020205
5	0x3d58f75c	0.052970275
6	0x3c8f025b	0.017457178
7	0xbdddd5f2	-0.108318225
8	0x3d3f066b	0.04663698
9	0x3defa8d5	0.11702124
10	0xbd496664	-0.049169913
11	0x3da0b489	0.07846934
12	0x3d82e4fd	0.06391332
13	0x3e225d0b	0.15855806
14	0xbca56e9b	-0.020194342
15	0xbce9cf4d	-0.028541232
16	0x3de94d2f	0.11391675
17	0x3e8d1e55	0.27562204
18	0x3e00bda3	0.1257234
19	0x3da47c8b	0.08031567
20	0xbb65a525	-0.003504106
21	0xbd31743d	-0.043323744
22	0xbd9ca9a7	-0.07649546
23	0xbd239a24	-0.03994192
24	0xbc496817	-0.012292883
25	0x3e08fb42	0.13377097
26	0x3e3948c3	0.18094163
27	0x3d706c01	0.05869675
28	0x3c6579ad	0.014006061
29	0x3e0adee7	0.13561593
30	0xbb47584b	-0.0030417617
31	0x3db3f231	0.08786429
32	0xbdcc878b	-0.0998679
33	0x3e620904	0.22073752
34	0x3c1175ce	0.0088781845
35	0x3c4fbc90	0.012679234
36	0xbdd86167	-0.10565453
37	0x3d212772	0.03934426
38	0x3c9236a3	0.017848318
39	0xbde3b0a9	-0.111176796
40	0xbe2665b9	-0.16249742
41	0xbafebf37	-0.0019435649
42	0x3d11c43b	0.03558753
43	0x3d6c8ffe	0.05775451
44	0x3d5ad81b	0.05342875
45	0x3e1699c0	0.14707088
46	0x3e11704d	0.14202996
47	0x3e3d4d0a	0.1848642
48	0x3e4f4e28	0.20244658
49	0x3da5f747	0.08103805
50	0xbd02c495	-0.031925756
51	0x3e3155c9	0.1731788
52	0x3da92b16	0.08260171
53	0x3d1cc991	0.038278166
54	0x3d7b910c	0.061417624
55	0x3dcf7736	0.101301596
56	0x3d072729	0.03299633
57	0x3b4cf8e9	0.0031276292
58	0x3e2b9858	0.16757333
59	0x3db67435	0.089088835
60	0x3d724e82	0.059156902
61	0x3e0c7802	0.13717654
62	0x3dadf44a	0.0849386
63	0x3d8925a2	0.06696631
64	0xbeb4f0a2	-0.35339838
65	0xbe5ed934	-0.21762544
66	0xbdddb55c	-0.10825607
67	0xbeb1dfd8	-0.34741092
68	0x3e45925e	0.19294116
69	0xbe1849e5	-0.14871939
70	0xbe0231fb	-0.12714379
71	0xbcd6df65	-0.02622957
72	0x3c152d4e	0.00910504
73	0x3e157fee	0.14599583
74	0x3dd5fdd5	0.10448805
75	0xbee1b78c	-0.44085348
76	0x3e1312dd	0.14362665
77	0xbe405da3	-0.1878572
78	0x3e40c754	0.18826038
79	0x3e461cba	0.19346896
80	0xbe2980cb	-0.16553037
81	0xbe8ff6f9	-0.28118113
82	0xbdc884da	-0.097909644
83	0xbe813feb	-0.25244078
84	0x3d072fe7	0.033004668
85	0xbddc7a81	-0.10765553
86	0xbd8daad7	-0.06917351
87	0xbdbeefb2	-0.09323062
88	0xbe022e97	-0.12713085
89	0xbe90bc09	-0.2826846
90	0xbe47d124	-0.19513375
91	0x3e392eb7	0.18084227
92	0xbdbdea86	-0.092732474
93	0xbe0384cb	-0.12843625
94	0x3e67c6ed	0.22634478
95	0xbd626812	-0.05527503
96	0xbe0e3a53	-0.13889436
97	0xbe1609ac	-0.14652127
98	0x3e091ee1	0.13390686
99	0x3c2bf101	0.0104944715
100	0xbe9d7a6d	-0.30757466
101	0x3beeb92d	0.0072852583
102	0x3cb648e1	0.022251548
103	0x3c932a6c	0.017964564
104	0xbdbeebd1	-0.09322322
105	0xbd485532	-0.048909374
106	0xbdb3358b	-0.08750447
107	0xbd14480a	-0.036201514
108	0x3d68bbf3	0.056819867
109	0x3e9e0433	0.3086258
110	0xbc517c01	-0.0127859125
111	0x3ea8c772	0.32964665
112	0x3d92a3b7	0.071601324
113	0xbeb83caf	-0.35983798
114	0xbdda4503	-0.10657694
115	0x3c4dedb9	0.0125688845
116	0x3a1325a6	0.0005613215
117	0x3e3101df	0.1728587
118	0xbc57909f	-0.013157039
119	0xbd62c2c3	-0.05536152
120	0xbdfccc3a	-0.123436406
121	0xbe413807	-0.18869029
122	0xbb265dbb	-0.0025385458
123	0x3dea9dcd	0.11455879
124	0xbe16944c	-0.14705008
125	0xbd5b1ced	-0.053494383
126	0x3d13485a	0.03595767
127	0x3e8cd16c	0.27503526
128	0x3c38aad0	0.011271194
129	0xbdaa8ea4	-0.08327988
130	0xbd98a13d	-0.07452629
131	0xbe260d29	-0.16215958
132	0xbd825ddc	-0.063655585
133	0xbe45a94e	-0.19302866
134	0xbdf503bc	-0.11963603
135	0xbdb82f19	-0.08993358
136	0xbddfb5fb	-0.10923382
137	0x3d9ba4f0	0.07599819
138	0x3d4a5255	0.049394924
139	0xbd8b34df	-0.06797194
140	0xbea67e86	-0.32518405
141	0xbd516515	-0.05112179
142	0x3d8ad43e	0.06778763
143	0x3da1ea3f	0.07906007
144	0x3d156c3d	0.036480177
145	0xbe49d73b	-0.1971101
146	0xbdd2e6f1	-0.10297955
147	0xbd987d1c	-0.07445738
148	0xbeb635d2	-0.35587937
149	0x3c4a8755	0.012361367
150	0x3b360740	0.0027775317
151	0x3d00914a	0.03138856
152	0xbe8f4523	-0.27982435
153	0xbd02db7c	-0.031947598
154	0x3d0bdd02	0.034146316
155	0xbe26b45a	-0.16279736
156	0x3d359b77	0.044337716
157	0x3bea6d44	0.0071541388
158	0xbdee6a81	-0.11641408
159	0x3e1e8778	0.15481365
160	0x3cfdae52	0.030966911
161	0x3ca89418	0.02057843
162	0x3dca7e00	0.09887314
163	0xbe33af00	-0.17547226
164	0xbe5c7a24	-0.21530968
165	0xbd087ff1	-0.03332514
166	0xbc8d92d3	-0.017281925
167	0x3e39d415	0.18147309
168	0x3b885a56	0.0041611595
169	0x3d395e6f	0.045256075
170	0x3ce63df3	0.028105712
171	0xbe056172	-0.13025454
172	0x3dcf4109	0.10119826
173	0x3d9e8abf	0.077413075
174	0xbc07823d	-0.008270797
175	0x3c87ea8c	0.016591333
176	0x3bf75d36	0.0075489534
177	0xbe37d690	-0.17952943
178	0x3cd1500f	0.02555087
179	0xbce646bc	-0.0281099
180	0x3d1578a3	0.036492
181	0xbd9432da	-0.07236262
182	0x3dd6b29d	0.104832865
183	0xbd4a2004	-0.04934694
184	0xbd821033	-0.06350746
185	0xbd293040	-0.04130578
186	0xbe040cce	-0.1289551
187	0x3cd8f394	0.026483335
188	0xbe3eaf19	-0.18621482
189	0x3cb698c5	0.022289643
190	0xbd96ac5f	-0.07357096
191	0xbc25afd4	-0.0101127215
192	0xbd964678	-0.073376596
193	0xbd60adf8	-0.05485341
194	0x3a2d7d47	0.0006618094
195	0xbe385ae7	-0.18003426
196	0x3bcea746	0.0063065616
197	0xbd79bf8f	-0.0609737
198	0x3d0434c3	0.03227688
199	0xbdd08534	-0.101816565
200	0xbd9c8cdd	-0.07644055
201	0x3e09a444	0.13441569
202	0xbd95bd56	-0.073115036
203	0x3d33572f	0.043784317
204	0x3d6f6f39	0.05845568
205	0xbd48624d	-0.048921872
206	0xbd3d4e69	-0.046217356
207	0x3d570021	0.052490357
208	0xbdbdb928	-0.092638314
209	0xbdacb45e	-0.0843284
210	0x3cd8eb7f	0.02647948
211	0x3cff209a	0.031143475
212	0xbda13717	-0.07871836
213	0xbd129317	-0.035784807
214	0xbd5f3ca5	-0.054501195
215	0x3d009a80	0.031397343
216	0xbda5abc7	-0.080894046
217	0xbd4c3a5d	-0.049860347
218	0xbb01c64b	-0.001980203
219	0x3bcbbdd5	0.006217698
220	0xbd9b41ab	-0.075808845
221	0xbdbb2940	-0.09138727
222	0x3e74b13c	0.23895735
223	0x3cbd694d	0.0231215
224	0xbdd2a8f3	-0.10286131
225	0xbdea6373	-0.1144475
226	0x3de06912	0.109575406
227	0xbd663ad5	-0.05620845
228	0xbdbc01f6	-0.091800615
229	0x3c043821	0.008070023
230	0xbc886a25	-0.016652176
231	0x3cbc2178	0.022965178
232	0xbd150221	-0.036378983
233	0xbca42331	-0.020036312
234	0x3db7ab70	0.08968246
235	0x3d1bd122	0.03804124
236	0x3e27512d	0.1633956
237	0xbd08aadb	-0.033366065
238	0xbe179acc	-0.14805144
239	0xbad5e3e8	-0.0016318532
240	0x3d7f336c	0.0623049
241	0xbcbc1f43	-0.022964125
242	0xbd55cde8	-0.05219832
243	0x3d2aa45b	0.041660648
244	0xbe67a36b	-0.22620933
245	0x3d52553b	0.051350813
246	0x3de4297d	0.11140726
247	0xbd366f6c	-0.044539854
248	0xbd0fc063	-0.035095584
249	0xbdd068e4	-0.10176256
250	0x3c1ef68a	0.009702334
251	0xbd1de21d	-0.038545717
252	0xbd2c8d22	-0.042126782
253	0xbcf34a70	-0.02969858
254	0xbda68ee2	-0.081327215
255	0x3d3d2c46	0.0461848

critic.2.bias f4 [64]
0	0xbf6fb9c7	-0.9364285
1	0x3e9a6597	0.30155632
2	0x3e69afe6	0.22821006
3	0x3eae2ae7	0.34017107
4	0xbd5355e2	-0.051595576
5	0x3e0021d4	0.12512904
6	0x3e9136a2	0.28361994
7	0x3ec743ee	0.38919014
8	0xbc35fef6	-0.011108151
9	0x3ae14c09	0.0017188798
10	0xbf2ced69	-0.6754976
11	0x3e8cd794	0.27508223
12	0xbe8ee479	-0.27908686
13	0xbe880fce	-0.26574558
14	0xbfa82d73	-1.313887
15	0x3e09a3f0	0.13441443
16	0xbfbf6bf8	-1.4954824
17	0x3e9d71c9	0.30750874
18	0x3c2cf61e	0.010556726
19	0xbf13bdfc	-0.5771177
20	0xbe85cbc9	-0.26132038
21	0xbf8f13de	-1.1177938
22	0xbeb846dd	-0.35991564
23	0xbfab682a	-1.3391163
24	0xbf0faa32	-0.5611907
25	0x3e78e280	0.24305153
26	0x3ee73be3	0.45162877
27	0xbf38d832	-0.7220489
28	0x3e7aba23	0.24485068
29	0x3e32c1bc	0.17456716
30	0x3df8ca57	0.12147968
31	0xbfb72bb2	-1.431021
32	0x3f13a90d	0.57679826
33	0x3ed8c8fa	0.42340833
34	0xbf9e219b	-1.2354006
35	0x3ec3a107	0.38208792
36	0xbf8aa266	-1.083081
37	0x3e8bf77e	0.2733726
38	0x3eb06b73	0.34456977
39	0xbd27ccb8	-0.04096672
40	0x3ea6a1d8	0.32545352
41	0x3e8735d9	0.2640827
42	0x3e2e9cfb	0.17052071
43	0x3eb83bf7	0.3598325
44	0x3ed18093	0.40918407
45	0x3dd38a49	0.1032911
46	0x3d62b122	0.05534471
47	0xbf6f4c8e	-0.9347619
48	0x3b481f5c	0.003053627
49	0x3ef88d5f	0.48545358
50	0x3e7dbe24	0.24779564
51	0x3eeac147	0.45850584
52	0xbf03f6d1	-0.51548487
53	0xbe160377	-0.14649759
54	0xbd522df2	-0.051313348
55	0xbf897100	-1.073761
56	0xbf758503	-0.95906085
57	0xbe208690	-0.15676332
58	0xbe9bd90d	-0.30439034
59	0xbe44a681	-0.19204141
60	0xbeead581	-0.45866016
61	0x3e29dc76	0.16588005
62	0x3f12c80b	0.5733649
63	0xbf4df65a	-0.8045403

critic.4.weight f4 [1, 64]
0	0x3de3db26	0.111257836
1	0xbe729aef	-0.23691915
2	0xbe25d839	-0.16195764
3	0xbd788b46	-0.060679697
4	0x3db16aea	0.0866297
5	0xbc9d3265	-0.019189069
6	0xbd1cbb87	-0.038264778
7	0xbdf87dea	-0.12133391
8	0x3c47034c	0.012146782
9	0x3d825f1e	0.063657984
10	0x3e303d37	0.17210852
11	0xbdd16f4a	-0.10226305
12	0x3e6c8fdf	0.23101757
13	0x3dc33bc3	0.09532883
14	0x3e736e22	0.23772481
15	0xbb468bf8	-0.003029583
16	0x3e845d7c	0.25852573
17	0xbdc0ea40	-0.0941968
18	0x3d5e4606	0.054266
19	0x3beb86b8	0.0071876906
20	0x3e30ac10	0.17253137
21	0x3e226d73	0.15862064
22	0x3d70c2e7	0.058779623
23	0x3e5947e9	0.21218838
24	0x3e32f840	0.17477512
25	0xbd0d6237	-0.034517493
26	0xbd187902	-0.037224777
27	0x3d805a07	0.06267171
28	0xbd63943d	-0.055561293
29	0xbe1bdd2b	-0.15221088
30	0x3de1750e	0.110086545
31	0x3d7930c3	0.06083752
32	0xbdbf26ad	-0.09333549
33	0xbdc3032c	-0.09522089
34	0x3e164191	0.14673449
35	0xbe0f2071	-0.13977219
36	0x3e68162f	0.22664712
37	0xbd57141e	-0.05250942
38	0xbe66e5a9	-0.22548546
39	0x3ca273e4	0.019830652
40	0xbc861075	-0.01636527
41	0xbd5e08a3	-0.054207455
42	0xbe6579fb	-0.22409813
43	0xbe484d8f	-0.19560836
44	0xbde1e24b	-0.1102949
45	0x3e222b36	0.15836796
46	0xbd868c66	-0.065697476
47	0x3dbabed9	0.091184326
48	0x3d837d79	0.064204164
49	0xbe657a25	-0.22409876
50	0xbce75b6c	-0.028241836
51	0xbe55208c	-0.20813197
52	0x3d802b1d	0.06258223
53	0xbc880c9e	-0.016607579
54	0x3d94c396	0.072638676
55	0x3e1ce5f4	0.15322095
56	0x3e0d5695	0.1380256
57	0xbcd4e05d	-0.025985891
58	0x3d0488a5	0.032356877
59	0x3e0585c1	0.13039304
60	0x3e3fb9a2	0.18723157
61	0xbde2094e	-0.11036931
62	0xbe08d5dc	-0.13362831
63	0x3e0bb98d	0.13645001
