HAC Baseline/preTrained/MountainCarContinuous-h-v1/2level/HAC_MountainCarContinuous-h-v1_level_1_actor.pth (torch, 20439 bytes, 6 tensors)

actor.0.weight f4 [64, 4]
0	0x3e33b0ee	0.17547962
1	0xc0646890	-3.568882
2	0x3f1400ed	0.5781391
3	0xbdd7a79f	-0.10530018
4	0x3ec797b3	0.38982925
5	0x408546ed	4.164908
6	0x3ea2ab53	0.31771335
7	0xbf83d2a6	-1.029866
8	0x3e0daca9	0.13835396
9	0xc054978c	-3.3217497
10	0xbf2ed1df	-0.6828899
11	0xbf8907c5	-1.0705496
12	0x3f20ed0a	0.6286169
13	0xbfba8536	-1.4571903
14	0x3ef3d2d2	0.4762178
15	0x3f3bcb61	0.73357207
16	0xbe3785a0	-0.17922068
17	0xbe9c1bb6	-0.30489892
18	0x3ec1d794	0.37859786
19	0x3ea12b9a	0.31478578
20	0x3ee706cc	0.45122373
21	0xc00bb383	-2.1828315
22	0x3e6f9d3e	0.23399827
23	0x3f68bd54	0.9091389
24	0xbe9be48e	-0.3044781
25	0xbf5477ba	-0.8299519
26	0xbeaafc89	-0.33395794
27	0xbf3a84c7	-0.7285885
28	0x3eee3038	0.46521163
29	0x3e803eec	0.25048006
30	0x3e48b61c	0.19600719
31	0xbdc642d8	-0.09680718
32	0x3fe1cc1d	1.7640415
33	0x3f64d73f	0.8939094
34	0x3e4a17e8	0.19735682
35	0xbee013bb	-0.43765053
36	0xbeba581b	-0.36395344
37	0x4087e806	4.247073
38	0xbf244b2e	-0.64177215
39	0xbf6bc54d	-0.9209793
40	0x3e04f116	0.12982592
41	0xc09b7a9e	-4.858718
42	0x3d193ad1	0.037409607
43	0x3e24be49	0.16088213
44	0xbe702684	-0.23452193
45	0xc083b0b4	-4.11532
46	0x3edc1774	0.42986643
47	0xbdb94a6a	-0.090473965
48	0xbe4526e6	-0.1925312
49	0xbf903b0a	-1.1268017
50	0x3e9868cd	0.29767457
51	0xbf2f0241	-0.68362814
52	0xbe8de3a7	-0.27712747
53	0xbe26aab0	-0.1627605
54	0xbf2e7189	-0.6814199
55	0xbfa5b78e	-1.2946641
56	0x3eb96bde	0.3621511
57	0x3e84aba6	0.25912207
58	0x3d921940	0.07133722
59	0x3ec92b60	0.39290905
60	0x3e872f8e	0.2640347
61	0xc00b3837	-2.175306
62	0xbe9beb32	-0.30452877
63	0xbd6583a5	-0.05603375
64	0xbf471771	-0.77770144
65	0xc05d5dcd	-3.4588501
66	0xbefc088a	-0.49225265
67	0x3e966f96	0.29382008
68	0xbc8f38ae	-0.017483082
69	0xc017b3df	-2.3703535
70	0xbf4f1c09	-0.80902153
71	0xbea596fe	-0.3234176
72	0x3fdc7410	1.722292
73	0x4063dda5	3.560403
74	0x3e8f155a	0.27945977
75	0xbc2f6e3e	-0.010707436
76	0x3f37b7c1	0.7176476
77	0x40a53cb4	5.16366
78	0x3ee4d01d	0.44690028
79	0xbf5a3397	-0.8523497
80	0x3e4ebf99	0.20190276
81	0x3f68f8b7	0.9100451
82	0xbf45d219	-0.7727371
83	0xbf962c6a	-1.1732304
84	0x3f3321c2	0.69973385
85	0x403e411c	2.972724
86	0x3ebe362c	0.37150705
87	0xbf49dff6	-0.7885736
88	0x3d248f94	0.04017599
89	0xc0bd0d27	-5.9078555
90	0xbe6af9f5	-0.22946914
91	0xbe0b28a7	-0.13589726
92	0x3e712cb3	0.23552208
93	0xbec05f24	-0.37572587
94	0xbf37c56d	-0.7178562
95	0x3fa87440	1.3160477
96	0x3e7bb27c	0.24579805
97	0x4030cfb5	2.7626774
98	0x3e8ed2c2	0.2789517
99	0xbe0daa25	-0.13834436
100	0x3f826fc9	1.0190364
101	0x3fdff999	1.7498046
102	0x3e0abd91	0.13548876
103	0xbe8f3ba1	-0.2797518
104	0xbef8245d	-0.48465243
105	0x3f4c66f5	0.798446
106	0x3dc3170c	0.0952588
107	0xbfb244c0	-1.3927231
108	0xbf669846	-0.900761
109	0xbf71c8db	-0.94447106
110	0xbf08d079	-0.53443104
111	0x3edb3060	0.42810345
112	0x3f673c4d	0.90326387
113	0x3ea891de	0.32923788
114	0xbe6761b9	-0.22595872
115	0xbf75e1ef	-0.9604787
116	0x3e27c654	0.1638425
117	0x3ebd5870	0.36981535
118	0x3e430fe0	0.19049025
119	0x3ce25c80	0.027631998
120	0xbda7aed6	-0.08187644
121	0x40702506	3.7522597
122	0x3d660779	0.05615947
123	0xbf5594f3	-0.83430403
124	0x3c02e60b	0.007989417
125	0x3d75e247	0.060030248
126	0xbf663838	-0.89929533
127	0xbe5f299b	-0.21793215
128	0xbc8b27c2	-0.016986731
129	0x40882cca	4.2554674
130	0xbec1485a	-0.37750512
131	0x3ee581ad	0.44825497
132	0x3e2c5a79	0.16831388
133	0xc0a88ed2	-5.267434
134	0x3da60c45	0.08107809
135	0x3d782cda	0.06058965
136	0x3f440445	0.76569015
137	0x40730670	3.797268
138	0x3e710557	0.23537193
139	0xbee4357c	-0.44572055
140	0x3d750af0	0.059824884
141	0x3eecd0f2	0.46253163
142	0x3ee245e0	0.44193935
143	0x3ebd3a58	0.36958575
144	0x3ecaf274	0.39638102
145	0xc09b6715	-4.8563333
146	0x3e7d39bd	0.24729057
147	0x3e87ad46	0.26499385
148	0x3e517230	0.20453715
149	0x3edae250	0.42750788
150	0x3e86df6e	0.26342338
151	0xbe83cc6a	-0.25741893
152	0xbe3440aa	-0.17602792
153	0xc082900a	-4.080083
154	0x3eec88a6	0.46198004
155	0xbe506506	-0.20351037
156	0x3e2ac78c	0.16677684
157	0x3e009be8	0.12559474
158	0xbe604a3c	-0.21903318
159	0x3e889d52	0.26682526
160	0x3e3895ec	0.1802594
161	0x4068a846	3.6352706
162	0x3eab54dd	0.33463183
163	0xbf019a16	-0.5062574
164	0x3ec77592	0.38956887
165	0xc0201d01	-2.5017703
166	0xbf3a70d8	-0.72828436
167	0xbe0f8d14	-0.14018661
168	0xbc17e3f8	-0.009270661
169	0x3df956c5	0.12174753
170	0xbf2dc78b	-0.67882603
171	0x3f00c281	0.5029679
172	0xbd7ebe70	-0.062193334
173	0xbe0311d8	-0.12799776
174	0xbbc04880	-0.0058680177
175	0xbee57af0	-0.44820356
176	0x3bdefead	0.006805262
177	0x3d560d29	0.052258644
178	0xbf0c9d1e	-0.5492724
179	0xbe876182	-0.2644158
180	0x3f2beb0d	0.67155534
181	0xbfc5128a	-1.5396283
182	0xbe9355d3	-0.28776416
183	0x3f2c5869	0.67322403
184	0xbf2e9f6b	-0.68212
185	0x402b5000	2.6767578
186	0xbf735278	-0.9504771
187	0x3d021d33	0.031766128
188	0xb8a7d22d	-8.002329e-05
189	0xbe57a91e	-0.21060607
190	0xbd88f2e5	-0.066869535
191	0xbe797602	-0.24361423
192	0x3f0c7f30	0.5488157
193	0x3ee37441	0.44424632
194	0x3ed8f3a8	0.42373395
195	0xbe659ec2	-0.22423843
196	0xbe8e1a4e	-0.27754444
197	0xc01ef36f	-2.483608
198	0xbf315a61	-0.6927853
199	0xbe36154b	-0.1778156
200	0xbd7e6340	-0.06210637
201	0xbe7ea624	-0.24868065
202	0x3ef450f0	0.47718
203	0xbe55eba4	-0.20890671
204	0x3e2f92c5	0.17145832
205	0xc0bac8e5	-5.8370233
206	0x3e4d3b0b	0.20042054
207	0x3ef77cc4	0.48337376
208	0x3e589a8e	0.21152708
209	0x409f3eec	4.976431
210	0x3e17793c	0.14792341
211	0xbef83d1a	-0.48484117
212	0xbf316fab	-0.69311017
213	0x3f811380	1.0084076
214	0xbc810add	-0.01575225
215	0xbee9aa23	-0.45637617
216	0x3d078070	0.033081472
217	0xbed93f5a	-0.42431146
218	0xbe3686d0	-0.17824864
219	0xbedcf24e	-0.43153614
220	0x3eb06f57	0.34459946
221	0xc026c3fe	-2.6057124
222	0xbe21646c	-0.15760964
223	0x3edc0de9	0.42979363
224	0xbf6391bf	-0.88894266
225	0x4028e0c1	2.638718
226	0xbfce3a3f	-1.6111525
227	0x3f1c7190	0.6111078
228	0x3eb0a590	0.34501314
229	0x3f1e48db	0.6182992
230	0xbf33630a	-0.70072997
231	0x3eef2fcc	0.46716154
232	0x3dc36d8f	0.09542381
233	0x406bf354	3.6867266
234	0xbe6d1426	-0.23152217
235	0xbcb87b4f	-0.022519736
236	0xbe1c4950	-0.15262341
237	0x3eeed50c	0.46646917
238	0xbe4767a8	-0.19473135
239	0xbeaa4f48	-0.33263612
240	0x3e4d12ce	0.20026705
241	0x404c8276	3.1954627
242	0x3e6d0e99	0.231501
243	0x3ebc6473	0.36795387
244	0x3ec9ccbd	0.39414015
245	0x40205838	2.5053844
246	0x3e1fd0d3	0.15607004
247	0xbf0a9390	-0.5413141
248	0x3f2a45fa	0.66513026
249	0xbfc27cd8	-1.5194349
250	0x3eb0f74e	0.34563679
251	0x3e328605	0.17433937
252	0x3e9e369f	0.30901048
253	0xc0b2a7ec	-5.5829983
254	0xbd9a307d	-0.0752878
255	0xbad1dc22	-0.0016011039

actor.0.bias f4 [64]
0	0xbd7d12b7	-0.061785426
1	0xbc2069cf	-0.009790852
2	0x3ea845dd	0.328658
3	0x3e61fd51	0.22069289
4	0xbeeb5776	-0.45965165
5	0x3dbf8c7a	0.09352966
6	0x3cbb278e	0.02284601
7	0xbefa9218	-0.48939586
8	0x3ce5027f	0.027955292
9	0x3e2aa4fb	0.16664498
10	0xbd17761d	-0.036977876
11	0xbeb82620	-0.35966587
12	0xbeee6ef7	-0.46569034
13	0xbf423891	-0.75867563
14	0xbe915db4	-0.28391802
15	0x3eb5df95	0.35522142
16	0xbeb3f692	-0.35149056
17	0x3e75d274	0.24006063
18	0x3d133837	0.035942283
19	0x3e271d4c	0.1631977
20	0xbcb47dae	-0.022032585
21	0x3df9b289	0.12192256
22	0x3e004550	0.1252644
23	0xbe7d8c97	-0.24760662
24	0x3dd8300b	0.105560385
25	0x3e368368	0.17823565
26	0xbeae9171	-0.34095338
27	0xbea3403e	-0.3188495
28	0x3f2b6da9	0.66964203
29	0xbedaf0be	-0.42761797
30	0xbdcd1d11	-0.100153096
31	0xbdd06d4e	-0.10177098
32	0x3e8ba7e6	0.27276534
33	0xbc298d2c	-0.010348599
34	0x3ea9b41a	0.3314522
35	0xbedd95aa	-0.43278247
36	0x3e1b4d03	0.15166096
37	0xbeedefc2	-0.46471983
38	0xbd917d0d	-0.0710393
39	0xbed9d36e	-0.4254412
40	0x3db61e09	0.088924475
41	0x3e9e9068	0.30969548
42	0xbf2313b3	-0.63701934
43	0xbef61a38	-0.48066878
44	0xbf1a8e76	-0.6037363
45	0x3f1f4fa0	0.62230873
46	0xbefea71c	-0.4973687
47	0xbdc99f89	-0.09844882
48	0x3e88352f	0.26603076
49	0xbe23055d	-0.15920015
50	0xbea5e130	-0.32398367
51	0xbdcfc510	-0.101450086
52	0xbd6cad85	-0.05778267
53	0xbeede941	-0.4646702
54	0xbece9338	-0.40346694
55	0x3eb93a7b	0.3617743
56	0xbec2710a	-0.37976867
57	0xbe9bcd30	-0.30429983
58	0x3d8c311f	0.068453066
59	0xbee1e27c	-0.44118106
60	0x3d3d16d3	0.046164345
61	0x3e743fc0	0.23852444
62	0x3eaa5324	0.33266556
63	0x3e2a16ab	0.1661021

actor.2.weight f4 [64, 64]
0	0xbe0489db	-0.12943213
1	0x3d2cc9fc	0.042184815
2	0x3d3b9520	0.045796514
3	0x3de0c468	0.109749615
4	0x3d967498	0.07346457
5	0x3d87a541	0.066233166
6	0xbdb4c9cb	-0.088275515
7	0x3dadc5f0	0.08485019
8	0xbd9ddf4b	-0.077086054
9	0xbd718fb3	-0.058974933
10	0xbe0e0325	-0.13868387
11	0xbd8a1e0c	-0.06744012
12	0x3ddb519e	0.107089266
13	0xbe0605f4	-0.13088208
14	0x3ddba338	0.10724491
15	0xbd6b7df2	-0.057493158
16	0x3a4342fd	0.00074486417
17	0xbcb2db5c	-0.021833114
18	0x3d8ae80e	0.06782542
19	0xbdec1b64	-0.11528662
20	0x3c9387da	0.018009115
21	0xbcff47fd	-0.031162256
22	0xbb857f62	-0.004074023
23	0x3c3c36e9	0.011487701
24	0xbdacb9b6	-0.08433859
25	0x3d817707	0.06321531
26	0xbdda6058	-0.10662907
27	0xbdfc8fc8	-0.123321116
28	0x3c59b616	0.013288042
29	0xbc9f6f60	-0.019462287
30	0xbd9ba350	-0.07599509
31	0xbd945f58	-0.07244748
32	0xbd9b2204	-0.07574847
33	0xbcc70cac	-0.024298035
34	0xbd84db69	-0.06487162
35	0xbdb2c482	-0.08728887
36	0x3cebf5b9	0.028803693
37	0x3cd9aa80	0.026570559
38	0xbd98cb92	-0.07460703
39	0xbda193e8	-0.07889539
40	0x3db29ddd	0.08721516
41	0xbd8ec42e	-0.06971012
42	0xbd464597	-0.04840621
43	0xbde25f46	-0.11053328
44	0x3d4cfac6	0.050043844
45	0xbd2797fe	-0.040916435
46	0x3c21814e	0.009857489
47	0x3d84d733	0.064863585
48	0xbcf58f31	-0.029975506
49	0xbbcca313	-0.006245026
50	0x3c047fb0	0.008087084
51	0x3bb50ca8	0.0055251904
52	0x3cad7558	0.021174118
53	0xbe0b2031	-0.13586499
54	0xbc5118d0	-0.012762263
55	0xbd606316	-0.054781996
56	0x3d707414	0.05870445
57	0xbd8cf223	-0.068821214
58	0x3d471e15	0.048612673
59	0xbddd3cd2	-0.10802616
60	0x3da5b776	0.08091633
61	0xbd885f2d	-0.06658778
62	0xbe17fe41	-0.14843084
63	0xbe216938	-0.15762794
64	0x3d939c28	0.07207519
65	0x3dc22016	0.09478776
66	0xbdde5a68	-0.108570874
67	0x3d7ea6a5	0.062170643
68	0x3d7349b0	0.059396446
69	0xbdcff23e	-0.10153626
70	0x3ca4d2f0	0.020120114
71	0x3dd1de9a	0.10247536
72	0xbd8400f1	-0.06445492
73	0xbc89480c	-0.016757987
74	0x3d446989	0.04795221
75	0x3d60aa48	0.054849893
76	0xbb41e51e	-0.0029586027
77	0xbd60b324	-0.05485834
78	0xbd18b2c0	-0.037279844
79	0xbdd662ba	-0.10468049
80	0xbe168e32	-0.1470268
81	0x3bb3a481	0.005482257
82	0xbdc11c68	-0.09429246
83	0xbd9d8dec	-0.07693085
84	0xbd164104	-0.036683097
85	0xbc12e6a7	-0.008966125
86	0x3ce5b9f1	0.028042765
87	0xbdf78eec	-0.12087807
88	0xbd979779	-0.07401938
89	0xbda75c92	-0.08171953
90	0xbcaabd76	-0.020842295
91	0xbca0c658	-0.019625828
92	0xbc5166e2	-0.012780877
93	0xbd99919e	-0.074984774
94	0x3d19d22f	0.037553962
95	0xbbd68381	-0.006546438
96	0x3d96da05	0.07365803
97	0xbe20edd2	-0.15715721
98	0xbdab4e85	-0.08364586
99	0xbd513cc0	-0.051083326
100	0xbde65e5b	-0.112484656
101	0x3d7930e8	0.060837656
102	0xbca0827f	-0.019593475
103	0x3c362ae0	0.011118621
104	0x3d35dd22	0.04440034
105	0xbcd0bfb0	-0.025482029
106	0x3dc34370	0.09534347
107	0xbdb1530c	-0.08658418
108	0xbdd20f52	-0.10256828
109	0xbd42694f	-0.04746371
110	0x3dbdb78a	0.09263523
111	0x3d6fab44	0.05851294
112	0xbcda12cc	-0.026620291
113	0x3d89ff07	0.06738096
114	0xbc1fa420	-0.00974372
115	0xbe3b6ad2	-0.18302467
116	0xbc31c51f	-0.01085022
117	0x3bdae206	0.006679776
118	0x3df757b4	0.12077275
119	0xbd1bceb8	-0.03803894
120	0x3cb1c679	0.021701084
121	0xbdfb4542	-0.12269069
122	0x3c4bfd0f	0.012450471
123	0x3dfcbe6a	0.12341006
124	0x3d422a9e	0.047403924
125	0x3d279a05	0.04091837
126	0x3d241dbd	0.040067423
127	0xbe037f57	-0.12841545
128	0x3ce58674	0.028018214
129	0x3cfb562b	0.030680737
130	0xbd526eea	-0.051375307
131	0xbc99c29d	-0.018769557
132	0x3dfeb840	0.12437487
133	0xbd01ede8	-0.031721026
134	0xb9b22459	-0.00033977887
135	0xbd283b74	-0.041072324
136	0x3da82d6d	0.08211789
137	0x3d37589f	0.04476225
138	0x3c858067	0.016296579
139	0x3d87fdd4	0.06640211
140	0x3c7914ff	0.01520276
141	0xbcbec368	-0.023286536
142	0xbd20b210	-0.039232314
143	0x3cb48b10	0.022038966
144	0xbe2815a1	-0.16414501
145	0xbe0a376f	-0.13497709
146	0xbd577e15	-0.052610476
147	0x3d683a0e	0.05669599
148	0x3dac5441	0.08414508
149	0x3d60654f	0.054784115
150	0xbe0b10f6	-0.13580689
151	0x3d4963a4	0.04916729
152	0xbda9d6ce	-0.08292924
153	0x3d46a61c	0.048498258
154	0xbdc1ae95	-0.09457127
155	0xbdf3f122	-0.11911227
156	0x3d25234c	0.040316865
157	0x3de09ce6	0.10967426
158	0xbdd9a23f	-0.10626649
159	0xbdcdc415	-0.10047165
160	0xbdd3d9c6	-0.10344271
161	0x3bbc057a	0.0057379575
162	0xbd32bf11	-0.043639246
163	0x3bb1a360	0.005421087
164	0xbdb25778	-0.087080896
165	0x3dd3a348	0.10333878
166	0xbdcbf344	-0.099585086
167	0x3d0ce5e8	0.034398943
168	0xbe23f6b1	-0.16012074
169	0x3d851704	0.064985305
170	0xbddb4e9f	-0.10708355
171	0xbdb5bbfa	-0.08873744
172	0x3bd4fd93	0.006499955
173	0xbd901ff8	-0.070373476
174	0xbdc52927	-0.0962699
175	0xbdffeca5	-0.12496308
176	0x3cb5476a	0.02212878
177	0x3d6c26cc	0.057654187
178	0x3dee123c	0.11624572
179	0xbd84898c	-0.064715475
180	0xbbecef78	-0.0072306953
181	0xbd85d733	-0.065351866
182	0x3d8fa2ee	0.07013498
183	0xbcf9ae66	-0.030478667
184	0x3c730730	0.014833257
185	0x3d4ad5d1	0.049520317
186	0xbdaa3250	-0.083103776
187	0xbdfb1a28	-0.12260848
188	0xbd9df49f	-0.077126734
189	0xbe200eef	-0.15630697
190	0xbe15dae1	-0.14634277
191	0xbddfb06d	-0.109223224
192	0xbfe43823	-1.7829632
193	0x3e7ec9f2	0.24881724
194	0xbec3b8aa	-0.38226825
195	0x3e82402c	0.25439584
196	0x3d4c5674	0.049887136
197	0xbd95a109	-0.07306106
198	0xbe73e66b	-0.23818366
199	0x3cbd2368	0.023088172
200	0x3ebf8ca6	0.37411994
201	0x3f34a5e5	0.70565635
202	0xc00078c8	-2.007372
203	0xbf20cb09	-0.6280981
204	0xbc2fe896	-0.010736605
205	0xbdffe466	-0.124947354
206	0x3d85b76a	0.06529124
207	0xbef51d3d	-0.4787387
208	0xbea60d59	-0.32432058
209	0xbe691f7a	-0.22765914
210	0x3f9908b3	1.195578
211	0x3f586a73	0.8453743
212	0xbe0f3504	-0.13985068
213	0x3ee63e94	0.44969618
214	0xbfbf8878	-1.4963522
215	0x3e9696e9	0.2941201
216	0x3e838ccd	0.2569336
217	0x3e510e27	0.20415555
218	0x3e615b90	0.22007585
219	0xbf744da5	-0.95430976
220	0xbd1dde87	-0.038542297
221	0x3dc7103e	0.09719895
222	0x3f34d9f6	0.7064508
223	0xbf4877df	-0.7830791
224	0x3eeb53f7	0.45962498
225	0xbc6685dc	-0.0140700005
226	0x3ea45489	0.32095745
227	0x3dd04d90	0.10171044
228	0xbd6c2c65	-0.057659525
229	0x3d96f96a	0.07371791
230	0xc060ea01	-3.5142825
231	0x3ce67ff0	0.028137177
232	0x3f0827c7	0.53185695
233	0x3f309aa2	0.6898595
234	0x3d9ea9d0	0.07747233
235	0x3dbb268e	0.09138213
236	0x3f01849b	0.50592965
237	0xbf2ff463	-0.6873228
238	0xbc9a3336	-0.018823247
239	0x3e06fd36	0.1318253
240	0x3be0d36c	0.006861141
241	0xbe7f1eb7	-0.2491406
242	0x3d52b3c4	0.05144097
243	0xbf804155	-1.0019938
244	0x3f240ff8	0.64086866
245	0xbcdcdb7b	-0.026960125
246	0xbb034280	-0.002002865
247	0xbfb19668	-1.3874025
248	0xbf27034f	-0.65239424
249	0x3f04fc5b	0.51947564
250	0x3edc0a42	0.42976576
251	0x3d98ec00	0.074668884
252	0x3ea14c05	0.3150331
253	0x3ec5ab8f	0.3860745
254	0xbe85be1e	-0.2612161
255	0xbf9c47e8	-1.2209444

actor.2.bias f4 [64]
0	0xbe1f495d	-0.1555533
1	0xbe2f4aad	-0.1711833
2	0xbca31fdd	-0.019912655
3	0xbe02aaa4	-0.12760407
4	0xbe292674	-0.16518575
5	0x3b98864e	0.0046546822
6	0xbcff02b0	-0.031129211
7	0xbc89b752	-0.016811047
8	0xbde51499	-0.11185569
9	0xbdb89b1b	-0.09013959
10	0xbd52c3f4	-0.051456407
11	0x3e416ee5	0.18889959
12	0x3e10a29e	0.14124534
13	0xbdb28e2b	-0.08718523
14	0xbdbb4a77	-0.091450624
15	0xbf1b0043	-0.60547274
16	0xbdd8a495	-0.105782665
17	0x3de8a0f0	0.113588214
18	0x3d7c70aa	0.061630882
19	0x3c5e1fd8	0.013557397
20	0x3d89b9af	0.067248695
21	0xbd0ba13f	-0.034089323
22	0xbdf69add	-0.120412566
23	0x3dfb2d47	0.12264495
24	0x3c0a85bd	0.008454737
25	0xbdb09d5f	-0.08623766
26	0x3e2b61a5	0.16736467
27	0xbd0d60d5	-0.034516174
28	0x3be31892	0.0069304192
29	0x3d5c6356	0.05380567
30	0xbcf2eb0c	-0.029653095
31	0xbd08f687	-0.03343823
32	0xbe1392f7	-0.14411531
33	0x3d066ea0	0.032820344
34	0xbdac9f6c	-0.08428845
35	0xbd73ccaa	-0.059521355
36	0x3d875460	0.0660789
37	0xbdc9eb64	-0.0985935
38	0xbccd8432	-0.02508745
39	0xbdff30f4	-0.12460509
40	0xbd461c60	-0.048366904
41	0xbd545f81	-0.051848892
42	0x3d85a5d1	0.065257676
43	0xbe61aef7	-0.220394
44	0xbdf2b90f	-0.118517034
45	0xbd380266	-0.044924162
46	0xbe68f000	-0.22747803
47	0xbc137cd4	-0.009001929
48	0xbc6cdbb9	-0.014456683
49	0xbdd68de6	-0.10476284
50	0xbedc4f5b	-0.43029293
51	0xbdc6ebe8	-0.09712964
52	0x3a9fde11	0.0012196918
53	0xbe0dde74	-0.1385439
54	0xbdc6e936	-0.0971245
55	0x3e9bd91a	0.30439073
56	0xbd8d1766	-0.068892285
57	0x3e8a2443	0.2698079
58	0x3a1f5e41	0.00060794136
59	0x3c1cbf79	0.009567135
60	0xbd7bbef0	-0.06146139
61	0xbdff5809	-0.12467963
62	0xbec18bbc	-0.3780192
63	0xbcec01d6	-0.02880947

actor.4.weight f4 [2, 64]
0	0x3da1a549	0.07892854
1	0xbae3a0ac	-0.001736661
2	0xbd3ecf97	-0.04658469
3	0x3fa5ceb6	1.2953708
4	0xbfdb4c80	-1.7132721
5	0x3c3fe85f	0.011713116
6	0x3e763273	0.24042682
7	0x3d1677eb	0.036735456
8	0x3cf374a5	0.029718706
9	0x3e006595	0.1253875
10	0xbce8e676	-0.028430205
11	0xbf2f0dc2	-0.6838037
12	0x3e46fab4	0.19431573
13	0xbd71f316	-0.059069715
14	0xbd57d6fa	-0.052695252
15	0xbebc4f3c	-0.367792
16	0xbd9f277d	-0.07771204
17	0x3eb534b0	0.3539176
18	0x3dd91ab7	0.106007986
19	0xbd793030	-0.06083697
20	0xbd9de245	-0.07709173
21	0x3d3895f4	0.04506488
22	0x3dd0a5aa	0.10187848
23	0x3e1c1547	0.15242492
24	0x3c84703a	0.016166795
25	0x3dc38c58	0.09548253
26	0x3fb9f5d8	1.452815
27	0x3ca69cc8	0.020338431
28	0xbd5d7469	-0.054066096
29	0x3e3fd0e7	0.18732034
30	0x3ef3d96f	0.47626826
31	0x3d9418c1	0.07231284
32	0xbe864e19	-0.2623146
33	0xbe8ef69b	-0.2792252
34	0xbd817784	-0.06321624
35	0x3c5fb971	0.0136550525
36	0x3e002f6a	0.12518087
37	0xbd82a332	-0.06378783
38	0xbd7cb4b6	-0.061695777
39	0x3bee6d1e	0.0072761914
40	0x3b749e82	0.0037325923
41	0x3be427de	0.0069627604
42	0x3d96ec3d	0.073692776
43	0xbe277e39	-0.16356744
44	0xbdcd6afd	-0.10030172
45	0xbd835391	-0.064124234
46	0xbd8f7136	-0.07004015
47	0xbc7479da	-0.01492163
48	0xbd0b1e1e	-0.03396427
49	0xbcebf17f	-0.028801678
50	0xbeb3f498	-0.35147548
51	0x3c7182b1	0.014740632
52	0x3cc8a3b8	0.02449213
53	0x3cf7a75c	0.03023117
54	0xc0af0e37	-5.470485
55	0xbe83380a	-0.25628692
56	0xbc60bcb0	-0.013716862
57	0xbe84e6da	-0.25957376
58	0xbbb90516	-0.0056463582
59	0xbd3d80d7	-0.04626545
60	0xbda8fcfc	-0.08251378
61	0x3be099a6	0.006854254
62	0x3de1e0a6	0.110291764
63	0xbdad3ab4	-0.08458462
64	0xbc41fd92	-0.011840241
65	0x3e17bd71	0.1481836
66	0xbd2be508	-0.041966468
67	0x3f36f783	0.7147142
68	0xbfe593ad	-1.7935692
69	0x3c0108f6	0.007875672
70	0x3ca0497f	0.019566296
71	0xbe0a78b9	-0.13522615
72	0xbd40068f	-0.046881255
73	0xbc87ba17	-0.016568227
74	0xbe704644	-0.23464304
75	0xbf3c31b0	-0.7351332
76	0xbdda2c86	-0.106530234
77	0xbd306bc2	-0.043071516
78	0xbdb039b0	-0.08604753
79	0x3f39a66c	0.72519565
80	0xbe335eaa	-0.1751658
81	0x3e55342d	0.20820685
82	0x3bb95861	0.0056562875
83	0xbd23c60c	-0.039983794
84	0x3dc86c15	0.0978624
85	0xbdeb60e8	-0.11493093
86	0xbdc4fd9b	-0.09618684
87	0x3df86fa8	0.12130672
88	0x3db1dbeb	0.08684524
89	0x3b6d725a	0.003623149
90	0x3fa35ef6	1.2763355
91	0xbdc33f39	-0.09533543
92	0xbd97c57e	-0.074107155
93	0xbea6052c	-0.3242582
94	0x3fb8e3cc	1.4444518
95	0x3cd7aa63	0.026326364
96	0xbd1e6b17	-0.038676348
97	0x3e8a49c0	0.27009392
98	0xbe02e667	-0.12783204
99	0xbdb29473	-0.08719721
100	0xbeb8858f	-0.36039397
101	0x3d6283b0	0.05530137
102	0xbe40f54a	-0.1884357
103	0x3d805cc5	0.062676944
104	0x3ec64827	0.38726923
105	0xbc9e0cb7	-0.019293172
106	0x3d95371d	0.07285903
107	0x3e65e0ab	0.22448985
108	0xba8a27e8	-0.0010540457
109	0xbe32df7f	-0.1746807
110	0x3f9f6ae4	1.2454495
111	0xbda75d4a	-0.0817209
112	0xbe2c3c7b	-0.16819946
113	0x3eb9e605	0.36308303
114	0x3fe417c0	1.7819748
115	0xbcd2a5d9	-0.025713848
116	0xbdeabeb6	-0.114621565
117	0xbd9bed0c	-0.076135725
118	0x3e058cbd	0.13041969
119	0x3d914243	0.070927165
120	0x3daab39c	0.08335039
121	0x3db91d23	0.090387605
122	0x3d4e39e7	0.05034819
123	0x3d9febcf	0.07808649
124	0x3d11e80d	0.03562169
125	0xbb453667	-0.003009224
126	0x3f827faf	1.0195216
127	0xbd787c0a	-0.060665168

actor.4.bias f4 [2]
0	0xbe04684d	-0.12930413
1	0x3e242a13	0.16031675
