HAC Baseline/preTrained/MountainCarContinuous-h-v1/2level/HAC_MountainCarContinuous-h-v1_ExplorationTechnique.SURPRISE_solved_level_0_actor.pth (torch, 20183 bytes, 5 tensors)

actor.0.weight f4 [64, 4]
0	0x3f327ef1	0.6972495
1	0xbef0bd49	-0.47019413
2	0xbe419933	-0.18906097
3	0x3e97c7ed	0.2964472
4	0xbda0d864	-0.07853773
5	0x3e29ac28	0.16569579
6	0xbe613372	-0.21992281
7	0x3e965660	0.29362774
8	0x3ee234e3	0.44180974
9	0xbe00b36f	-0.12568448
10	0x3f4776dd	0.77915746
11	0x3f708f7b	0.93968934
12	0x3ece060f	0.40238997
13	0xbfb83da7	-1.4393815
14	0x3de63a35	0.11241571
15	0xbf46c61d	-0.77646047
16	0x3f361f9a	0.7114197
17	0xbf0994db	-0.5374276
18	0xbe9a976a	-0.30193645
19	0xbf693de8	-0.91110086
20	0xbe46d8f4	-0.19418699
21	0x3e9630fb	0.29334244
22	0xbeb6d85b	-0.3571194
23	0x3bfa7781	0.0076436405
24	0xbe813a18	-0.25239635
25	0xbd7f6eea	-0.062361635
26	0x3ce8e0a7	0.028427435
27	0xbf8e3136	-1.1108768
28	0xbf25c0a5	-0.6474708
29	0x3e83d6e4	0.25749886
30	0x3f0ccfee	0.55004776
31	0x3e9566d8	0.29180026
32	0x3f1db19d	0.6159914
33	0xbf75d7f3	-0.9603264
34	0xbeb8da61	-0.3610411
35	0xbed63102	-0.41834265
36	0x3ece7bfb	0.40328965
37	0xbeca215e	-0.39478582
38	0x3d8a27fa	0.06745906
39	0xbfc09f93	-1.5048698
40	0x3df336e8	0.11875707
41	0xbe397773	-0.18111973
42	0x3e13362b	0.14376132
43	0x3ec9af7a	0.3939169
44	0xbc1a9770	-0.00943552
45	0x3d5f1aea	0.054469027
46	0x3f879f5f	1.0595511
47	0x3e98a7fd	0.29815665
48	0x3eeb8678	0.4600103
49	0xbe9fcddc	-0.31211746
50	0xbf2fa990	-0.68618107
51	0xbfadb3d1	-1.3570501
52	0xbed0d4b2	-0.40787274
53	0x3e8f2b89	0.27962902
54	0x3ea8262d	0.32841626
55	0x3cc9268f	0.024554519
56	0x3e440daa	0.19145837
57	0xbeb7b692	-0.35881478
58	0x3ea24048	0.31689668
59	0xbf9defc6	-1.2338798
60	0x3d00f320	0.031481862
61	0xbeaebaf4	-0.3412701
62	0x3e1de050	0.154176
63	0xbe3052e0	-0.17219114
64	0x3e5d02c0	0.2158308
65	0xbeec7a1b	-0.4618691
66	0x3ebc78a4	0.36810791
67	0xbfaed049	-1.3657314
68	0xbecea4a2	-0.4035998
69	0x3e3919da	0.18076268
70	0x3f0cab01	0.5494843
71	0x3f28a0cc	0.65870357
72	0x3f4ecda8	0.80782557
73	0xbf7f727f	-0.9978408
74	0xbf05969f	-0.52182955
75	0xbfdfadc2	-1.7474902
76	0xbf39d1a0	-0.7258549
77	0x3eeb6265	0.45973507
78	0x3e5f3a18	0.21799505
79	0x3fd96ae4	1.6985745
80	0xbe834fa5	-0.256467
81	0xbeae833b	-0.34084496
82	0x3e87523a	0.2642992
83	0xbe4ee3c9	-0.2020408
84	0x3eba2192	0.36353737
85	0x3ac37b65	0.0014914094
86	0x3f16f9b7	0.58974785
87	0x3e707c7c	0.23484987
88	0xbc6b20db	-0.014351095
89	0x3fa5a96c	1.2942328
90	0x3f419581	0.7561875
91	0x3f1c128c	0.609658
92	0x3e989802	0.29803473
93	0x3eae07fa	0.3399046
94	0xbeb9a4f6	-0.36258668
95	0xbe88ab96	-0.2669341
96	0x3f119093	0.5686123
97	0xbf6b6810	-0.9195566
98	0xbefc15e2	-0.49235445
99	0xbfd54f22	-1.6664774
100	0xbe7e2243	-0.24817757
101	0x3e088492	0.13331822
102	0xbce060af	-0.027389852
103	0xbebff1d6	-0.37489194
104	0x3e3d1435	0.1846474
105	0xbed8bc73	-0.42331275
106	0xbee05be7	-0.43820116
107	0xbfc34e0f	-1.5258197
108	0xbf6e12d8	-0.92997503
109	0xbcefcd7f	-0.029272793
110	0x3f036e35	0.5134004
111	0x3f8bc90c	1.092073
112	0x3eb133bc	0.34609783
113	0xbf0c12de	-0.5471629
114	0xbf12a2c2	-0.572796
115	0xbfb3884e	-1.4025972
116	0x3ea9a4d7	0.33133575
117	0xbf18e826	-0.5972923
118	0xbececd9a	-0.40391237
119	0xbfe25147	-1.7681054
120	0x3ab59e00	0.0013856292
121	0xbe3e8450	-0.1860516
122	0xbd0deaf0	-0.034647882
123	0xbead7924	-0.33881485
124	0xbe23a6d7	-0.15981613
125	0xbf356bfe	-0.7086791
126	0xb91e7825	-0.00015112812
127	0xbfc4e423	-1.5382122
128	0x3efa1373	0.48842964
129	0xbf5570b6	-0.8337511
130	0x3e9a8f47	0.30187437
131	0xbf604347	-0.8760266
132	0xbf00b89d	-0.502817
133	0x3f5aade9	0.85421616
134	0xbe38c56f	-0.18044065
135	0xbf2c2d44	-0.6725657
136	0xbf3793b5	-0.7170976
137	0x3e3ba121	0.18323185
138	0x3e16ec91	0.1473868
139	0x3ec73cd2	0.3891359
140	0x3e2fa569	0.17152943
141	0xbed94947	-0.4243872
142	0x3ea63033	0.32458648
143	0xbeba1822	-0.36346537
144	0xbdb0d148	-0.08633667
145	0x3dd5e1f0	0.10443485
146	0x3e842914	0.2581259
147	0x3eceabe4	0.40365517
148	0x3ee934a0	0.45547962
149	0xbecafcf2	-0.39646107
150	0x3e00da88	0.12583363
151	0xbe5c3978	-0.21506298
152	0x3c89a8c8	0.016804114
153	0x3f1e12e0	0.6174755
154	0x3f3f17eb	0.7464587
155	0xbdbd611e	-0.09247039
156	0x3e88d1cc	0.26722562
157	0x3e33efe4	0.1757198
158	0x3e2660a0	0.16247797
159	0xbe8a67ca	-0.2703231
160	0x3ee8b10c	0.45447576
161	0x3de10640	0.1098752
162	0x3d83ba38	0.06432003
163	0xbee199ea	-0.4406274
164	0x3e973c69	0.29538277
165	0xbf24fe94	-0.64450955
166	0xbeaaa8ae	-0.33331817
167	0xbef09e21	-0.46995643
168	0x3e5b7057	0.21429573
169	0xbea1880a	-0.31549102
170	0xbee1ce12	-0.44102532
171	0xbf998786	-1.1994483
172	0x3edeca10	0.43513536
173	0xbeafb60d	-0.3431858
174	0xbefae1f6	-0.4900052
175	0xbfd132af	-1.6343592
176	0xbf197388	-0.5994191
177	0x3f43d584	0.76497674
178	0x3ea6f81a	0.3261116
179	0xbe0b493e	-0.13602158
180	0x3de10053	0.1098639
181	0x3e840270	0.2578311
182	0x3daba035	0.083801664
183	0xbe35b452	-0.17744568
184	0x3f03388a	0.51258147
185	0x3fbf84b5	1.4962374
186	0x3f7029d1	0.93813807
187	0x3f5c3aac	0.86027026
188	0xbdd5ab44	-0.10433057
189	0x3d94b7c5	0.07261614
190	0xbd76d29f	-0.060259458
191	0xbe2f2cb9	-0.17106904
192	0x3ea3a310	0.31960344
193	0x3edc019c	0.42969978
194	0xbd4abf20	-0.049498677
195	0xbde54538	-0.11194843
196	0x3e4f54e2	0.20247224
197	0xbc376c3d	-0.01119524
198	0x3e9cfea5	0.30663028
199	0xbe15bd4c	-0.14622992
200	0xbf61aab9	-0.8815113
201	0x3db858ed	0.09001336
202	0x3ede8970	0.43464231
203	0x3f9720eb	1.1806921
204	0x3e6f41a4	0.23364884
205	0xbf1a0244	-0.6015971
206	0xbe87f50d	-0.26554146
207	0xbfd8afad	-1.6928612
208	0xbf23fe94	-0.6406033
209	0x3ea37620	0.3192606
210	0x3eb09e75	0.34495893
211	0x3fa5c41b	1.2950472
212	0xbf09e59a	-0.5386597
213	0x3e6f6371	0.23377778
214	0xbd751594	-0.05983503
215	0x3ecbde93	0.39818248
216	0x3e9ed857	0.3102443
217	0xbf7c57bd	-0.9857138
218	0x3e99b243	0.30018815
219	0xbfa4a177	-1.2861775
220	0xbe7bfd3b	-0.24608319
221	0x3f4982dc	0.787153
222	0xbd1a92c4	-0.037737623
223	0xbebf3afd	-0.37349692
224	0xbf84ba1b	-1.0369295
225	0x3f2b6860	0.6695614
226	0x3e976688	0.29570413
227	0x3f914fe3	1.1352504
228	0xbe8d03c4	-0.27541935
229	0xbf46543d	-0.7747229
230	0xbeea6a25	-0.45784107
231	0xbf9831df	-1.189022
232	0x3ef4e226	0.47828788
233	0x3ee4f9f9	0.44721964
234	0x3eea6565	0.45780483
235	0x3ebd7f59	0.3701122
236	0x3e7ecb29	0.24882187
237	0xbedf2b44	-0.43587697
238	0xbed39964	-0.41327965
239	0xbfb39351	-1.4029332
240	0x3f03a5b7	0.51424736
241	0xbf88a4b9	-1.0675269
242	0xbd78dbe0	-0.060756564
243	0xbf99a811	-1.2004415
244	0x3e847492	0.25870186
245	0xbf4cc1b6	-0.7998308
246	0xbe85c3b7	-0.2612588
247	0xbfadeb33	-1.3587402
248	0xbd4b8bfa	-0.04969404
249	0x3f0e0fea	0.5549303
250	0xbe5781fd	-0.2104568
251	0xbf41d6e8	-0.75718546
252	0x3dd70abb	0.105000935
253	0xbf1bff13	-0.6093609
254	0xbe587d2e	-0.21141502
255	0xbfe3f70c	-1.7809768

actor.0.bias f4 [64]
0	0x3ebb0760	0.36529064
1	0xbebf3151	-0.37342313
2	0x3ef28611	0.4736791
3	0x3ea92bd5	0.33041254
4	0x3e953e60	0.2914915
5	0xbee7685b	-0.45196804
6	0xbc87e7a1	-0.016589941
7	0x3e3f0642	0.18654731
8	0x3e512542	0.20424369
9	0x3ea6d912	0.32587487
10	0xbe0e06c6	-0.13869771
11	0x3ed3cfb1	0.41369393
12	0x3df31471	0.11869133
13	0xbed96b8b	-0.4246486
14	0x3eb407de	0.35162252
15	0xbefe22c2	-0.49635893
16	0x3ed4b72e	0.41546005
17	0x3e70d60f	0.23519157
18	0x3ecbcedb	0.39806256
19	0xbcc73a6c	-0.02431985
20	0xbed33db7	-0.41258022
21	0x3eb45a9e	0.35225385
22	0x3e828bac	0.25497186
23	0xbefecc8e	-0.49765438
24	0x3e33c5ee	0.17555973
25	0xbead81d9	-0.33888128
26	0x3d4a034e	0.049319558
27	0xbc205f3b	-0.00978833
28	0x3db76f9f	0.08956837
29	0x3d5f2bfe	0.054485314
30	0xbef34720	-0.47515202
31	0x3dc4129b	0.09573861
32	0x3f1aae7c	0.6042249
33	0xbe4e6874	-0.20157033
34	0xbe08318c	-0.1330015
35	0xbe817693	-0.25285777
36	0xbee72f20	-0.4515314
37	0xbef91ffe	-0.4865722
38	0x3e8a0c52	0.26962525
39	0xbe8c8e4a	-0.27452308
40	0xbea49396	-0.3214385
41	0x3d98bbfd	0.07457731
42	0x3d19ab55	0.03751691
43	0x3da99771	0.08280838
44	0xbd6e794a	-0.05822114
45	0xbdf1408a	-0.11779888
46	0x3f0ec0e0	0.55763054
47	0xbe88efb3	-0.26745376
48	0xbed056fe	-0.4069137
49	0x3e390d19	0.18071403
50	0xbcd27f9a	-0.02569561
51	0x3d9c9bd1	0.07646907
52	0x3c99e066	0.01878376
53	0xbe16847f	-0.14698981
54	0x3ede42d0	0.4341035
55	0xbdfc331e	-0.12314437
56	0xbe169885	-0.14706619
57	0x3e005269	0.12531437
58	0x3eba5a4c	0.36397016
59	0x3d97c648	0.07410866
60	0x3e9aca39	0.3023241
61	0x3e8ded96	0.27720326
62	0xbe5d4b65	-0.21610792
63	0x3d3aac79	0.04557464

actor.2.weight f4 [64, 64]
0	0xbdc9d5c1	-0.098552234
1	0xbd0c3fa6	-0.034240387
2	0xbddb8a47	-0.10719734
3	0xbddae9d6	-0.10689132
4	0xbd7d5f03	-0.06185819
5	0xbe1867fc	-0.14883417
6	0xbd3d9c38	-0.04629156
7	0xbf113b92	-0.5673152
8	0xbd894502	-0.06702615
9	0xbb6119e4	-0.0034347707
10	0x3dacc4c0	0.084359646
11	0x3deee233	0.11664238
12	0xbe8b7783	-0.27239618
13	0xbe5d52ae	-0.21613571
14	0x3d3fa3de	0.046787135
15	0xbdbe6c62	-0.09298016
16	0xbd09d566	-0.03365078
17	0x3daf6933	0.08564987
18	0xbd0622f6	-0.032748185
19	0xbcfa1ef1	-0.030532332
20	0xbc324460	-0.01088056
21	0xbe2b6ad3	-0.16739969
22	0xbcf530a3	-0.029930418
23	0xbde4354e	-0.111429796
24	0xbeb74cc9	-0.3580077
25	0xbd8cf9ec	-0.06883606
26	0x3e2a1390	0.16609025
27	0xbebf2c21	-0.37338355
28	0xbed35601	-0.41276553
29	0xbe6c45ed	-0.2307355
30	0x3d0d1ccc	0.03445129
31	0x3dd96b15	0.106161274
32	0x3d820467	0.06348496
33	0x3dec3a90	0.115346074
34	0xbdadb9df	-0.08482718
35	0x3c35a260	0.0110860765
36	0x3d9b12a2	0.07571913
37	0xbc3d4990	-0.011553183
38	0xbdb9914a	-0.09060915
39	0x3df40e14	0.11916748
40	0xbd3f8094	-0.04675348
41	0xbe28db26	-0.16489848
42	0xbe80d57b	-0.25162873
43	0xbe8ade1d	-0.27122584
44	0x3d9def42	0.077116504
45	0x3ce2acf0	0.027670354
46	0x3cca7ee8	0.024718717
47	0xbd9de6a5	-0.077100076
48	0xbdef133c	-0.116735905
49	0x3ce89929	0.028393345
50	0xbe41b503	-0.18916707
51	0x3dd67f2c	0.10473475
52	0xbec06aca	-0.37581474
53	0x3cba9e57	0.02278058
54	0xbdb59381	-0.08866025
55	0xbc9cd55e	-0.01914471
56	0xbe92ff8b	-0.2871059
57	0x3dda7fde	0.1066892
58	0x3dedf264	0.11618498
59	0xbd9a42e9	-0.07532293
60	0x3dd8fe23	0.10595348
61	0xbd59d33b	-0.05317996
62	0x3dbc0e6f	0.091824405
63	0x3e0e79be	0.13913628
64	0xbd322e64	-0.043501273
65	0x3dd6b601	0.10483933
66	0xbefb78df	-0.49115655
67	0xbec8b648	-0.3920157
68	0x3da40498	0.08008689
69	0xbd851db3	-0.06499805
70	0xbb92ad79	-0.004476246
71	0xbd4fa102	-0.05069066
72	0x3dbe5e57	0.09295338
73	0x3d97dd6d	0.074152805
74	0x3d241208	0.04005626
75	0xbe43003f	-0.19043063
76	0xbe9ab0bf	-0.30212972
77	0x3d0fcbbb	0.035106402
78	0x3b2bfc1c	0.0026242798
79	0xbd6c6580	-0.057713985
80	0xbd6d60d4	-0.05795367
81	0x3dd0b77e	0.10191248
82	0x3caeca07	0.021336569
83	0xbde3cd18	-0.11123103
84	0xbcfc01c8	-0.030762568
85	0xbeeff0cd	-0.46863404
86	0xbdcb1731	-0.09916533
87	0xbd74be64	-0.059751883
88	0xbec34433	-0.3813797
89	0x3d17bf5d	0.037047733
90	0xbc1d9eef	-0.009620412
91	0xbf06b404	-0.5261843
92	0xbe7a7904	-0.24460226
93	0xbe82f4a6	-0.25577277
94	0x3db680c4	0.08911279
95	0xbd25f883	-0.040520202
96	0xbe0045e6	-0.12526664
97	0x3d92bb40	0.07164621
98	0xbd79f4b8	-0.061024398
99	0xbda75926	-0.081713006
100	0xbbc5d5e0	-0.006037459
101	0xbd3b44fc	-0.045720086
102	0xbe02328a	-0.12714592
103	0x3d97d944	0.07414487
104	0x3dcddd9e	0.10052036
105	0xbdf08ff4	-0.11746207
106	0xbe401d91	-0.18761279
107	0xbed672bb	-0.41884407
108	0xbd59ab8c	-0.053142115
109	0x3d02590c	0.031823203
110	0x3d716c80	0.058941364
111	0x3bf2d866	0.0074110506
112	0xbd4a6bb0	-0.049419105
113	0x3da8fc72	0.08251275
114	0xbf0e6676	-0.55625093
115	0x3dc59842	0.096481815
116	0xbf0deec8	-0.55442476
117	0x3cc82ffa	0.02443694
118	0xbc29026d	-0.01031552
119	0x3d15ed4a	0.03660325
120	0xbf0f2982	-0.5592271
121	0x3de4029c	0.1113331
122	0x3b1819fe	0.0023208852
123	0x3df80e4d	0.12112103
124	0x3e05bfb1	0.13061406
125	0xbd2e3fcf	-0.04254132
126	0xbd8bffda	-0.06835909
127	0x3df26c0d	0.11837015
128	0x3dc89aec	0.09795174
129	0xbdc377d6	-0.09544341
130	0xbcf74302	-0.030183319
131	0xbe133067	-0.14373933
132	0xbdf45330	-0.11929929
133	0x3cc5c728	0.024142817
134	0x3c770d78	0.015078895
135	0x3cd91190	0.026497632
136	0xbd30e71a	-0.043189146
137	0x3dc6732c	0.09689936
138	0x3c9268d0	0.017872244
139	0xbda2f14b	-0.07956179
140	0xbbe7e3e0	-0.0070767254
141	0x3cd98c8e	0.02655628
142	0x3ccae490	0.02476719
143	0xbdb50340	-0.088385105
144	0x3ce3d8c3	0.027813321
145	0xbda953c2	-0.08267929
146	0xbdf4580b	-0.11930855
147	0xbdb1f4b6	-0.08689253
148	0x3df6e388	0.12055117
149	0x3db24e47	0.087063365
150	0x3dbf8081	0.09350682
151	0x3d96465e	0.0733764
152	0x3dc16524	0.09443119
153	0xbc890fe8	-0.016731218
154	0xbda9b714	-0.082868725
155	0x3d2f1788	0.04274705
156	0xbd84a7a0	-0.064772844
157	0xbdacc402	-0.08435823
158	0xbd237fc0	-0.039916754
159	0x3c0475d8	0.008084737
160	0x3d37fa1b	0.044916254
161	0xbd87a8dc	-0.06624004
162	0xbdbc582c	-0.09196505
163	0x3c8a2168	0.016861632
164	0xbd96e518	-0.07367915
165	0xbda6abf6	-0.08138268
166	0x3d3d6583	0.046239387
167	0xbcac0428	-0.020998076
168	0x3de9edd0	0.11422312
169	0x3df90848	0.12159783
170	0x3d19245c	0.03738819
171	0x3d303570	0.043019712
172	0x3c255de0	0.010093182
173	0x3b004b40	0.0019576102
174	0xbc14f4c0	-0.009091556
175	0x3ae12f00	0.0017180145
176	0x3d3f3188	0.046678096
177	0x3dc802bd	0.09766147
178	0xbd549bcf	-0.051906403
179	0xbd8ea288	-0.06964594
180	0xbd4fdf37	-0.050749984
181	0xbda0f3cf	-0.07859003
182	0x3b1fd7cc	0.00243901
183	0x3d9a4e4a	0.07534464
184	0x3d9e4c16	0.07729356
185	0x3d227a21	0.039667252
186	0xbde2f558	-0.11081952
187	0xbda9c63e	-0.08289765
188	0xbd3a2f09	-0.045455012
189	0xbd282cfb	-0.04105852
190	0xbbc7c3c3	-0.0060963347
191	0xbe0779ae	-0.13230011
192	0xbe131a12	-0.14365414
193	0xbd9ec589	-0.077525206
194	0x3ec4d4a7	0.3844349
195	0xbca94088	-0.020660654
196	0x3dc4ddb2	0.096125975
197	0xbe7fc03c	-0.24975675
198	0x3dc660c8	0.09686428
199	0x3edcbea0	0.43114185
200	0xbe5c6f31	-0.21526791
201	0x3df94e89	0.121731825
202	0x3c8155f7	0.015788062
203	0x3d99bcf8	0.07506746
204	0xbcd20185	-0.02563549
205	0x3ca33a9a	0.019925404
206	0x3e6dec76	0.23234734
207	0x3cc14f48	0.023597375
208	0x3e4850a9	0.1956202
209	0x3e0225b6	0.12709698
210	0xbd2406c4	-0.040045515
211	0x3ec13db7	0.37742397
212	0xbc8309ff	-0.015995977
213	0x3edf9122	0.43665415
214	0x3e97ec62	0.29672533
215	0xbb99e160	-0.0046960562
216	0xbf787df6	-0.970672
217	0x3c77d2f3	0.015125978
218	0xbe0a7c3f	-0.13523959
219	0x3ee2fc25	0.44332996
220	0xbe6dd588	-0.23225987
221	0xbe92a89c	-0.28644264
222	0xbce344f0	-0.027742833
223	0x3d009c5b	0.031399112
224	0x3e65d7a1	0.22445537
225	0x3d67020d	0.05639844
226	0x3e8effe5	0.27929607
227	0x3de17d1b	0.1101019
228	0x3dceabf2	0.1009139
229	0xbd30d1e8	-0.043168932
230	0x3eaff7e3	0.3436881
231	0x3d76c08c	0.06024222
232	0xbd0bb550	-0.03410846
233	0xbcde472a	-0.027133543
234	0xbe4208d6	-0.18948683
235	0xbe799d2a	-0.2437636
236	0x3e2f65ad	0.1712863
237	0x3c9e985c	0.01935976
238	0x3f7077c1	0.9393273
239	0x3dd34064	0.10315016
240	0x3daec796	0.08534162
241	0x3e5934c2	0.21211532
242	0x3eae0c28	0.3399365
243	0xbe19e7f0	-0.15029883
244	0x3e685f08	0.22692502
245	0xbcb17619	-0.021662759
246	0x3ab31937	0.0013664131
247	0xbd6cd415	-0.057819445
248	0x3eab7b46	0.33492488
249	0xbdd60d7c	-0.10451791
250	0x3de86dc5	0.11349062
251	0xbe547aeb	-0.20750014
252	0xbd8b7d46	-0.068110034
253	0x3d4bff9f	0.049804326
254	0x3dee6c4c	0.1164175
255	0xbd831607	-0.06400686

actor.2.bias f4 [64]
0	0x3de7f67c	0.1132631
1	0xbdcc1f9c	-0.099669665
2	0xbdd57256	-0.104221985
3	0x3cffdaac	0.0312322
4	0xbdf8b4ae	-0.12143837
5	0xbe0ffb37	-0.14060675
6	0xbd31b292	-0.04338319
7	0x3de80eec	0.11330971
8	0x3d3d3bac	0.046199486
9	0xbd7ce17b	-0.061738472
10	0x3d03d91a	0.032189466
11	0xbe0102ce	-0.12598726
12	0xbe26bd3a	-0.16283122
13	0xbdd1eab9	-0.10249848
14	0xbe210e8a	-0.15728202
15	0x3e69f7f4	0.22848493
16	0xbd8c21fc	-0.068424195
17	0xbc0d094d	-0.0086081745
18	0xbe01b9c4	-0.1266852
19	0x3d9333a1	0.07187582
20	0xbd46d99b	-0.04854737
21	0xbc7f076b	-0.015565733
22	0x3d2cc574	0.042180493
23	0x3df63f13	0.12023749
24	0xbdfd244c	-0.12360439
25	0x3da73e75	0.081662096
26	0xbca64620	-0.02029711
27	0x3da5e50c	0.08100328
28	0x3e23400f	0.15942405
29	0x3dd94ce7	0.10610371
30	0x3e0935af	0.13399385
31	0x3dc79839	0.09745831
32	0xbda62d82	-0.08114149
33	0xbdb9c600	-0.09070969
34	0xbe11ec74	-0.14250356
35	0x3c2445d5	0.010026415
36	0x3d15b5d5	0.03655036
37	0x3cd6f763	0.02624101
38	0xbde15a0c	-0.11003503
39	0xbdd17da5	-0.10229043
40	0xbe0d8820	-0.13821459
41	0x3deb5a1c	0.114917964
42	0x3dab1f2c	0.08355555
43	0x3e04a420	0.12953234
44	0xbd9c429a	-0.07629891
45	0xbe37f4ba	-0.1796445
46	0xbd7d0698	-0.061773866
47	0xbcfac7d2	-0.03061286
48	0xbdb7bf7a	-0.08972068
49	0x3d62600b	0.055267375
50	0xbdcb8101	-0.09936715
51	0xbc85f6ad	-0.016352976
52	0x3e553ec5	0.20824726
53	0xbcdcb8e8	-0.026943639
54	0x3d62a0ce	0.055329137
55	0xbdb65356	-0.08902614
56	0x3d50d2ca	0.050982274
57	0x3cc541d7	0.024079246
58	0xbd18182b	-0.037132423
59	0xbd8add69	-0.06780512
60	0xbdb53d9e	-0.08849643
61	0xbdd2b6d3	-0.10288777
62	0xbc954d54	-0.01822535
63	0x3caf08b0	0.021366447

actor.4.weight f4 [1, 64]
0	0xbd46f61d	-0.048574556
1	0xbe62a6ab	-0.22133891
2	0x3d9a1375	0.075232424
3	0x3e917c16	0.28414983
4	0xbd9a57bc	-0.07536265
5	0x3dabb3a9	0.08383877
6	0x3e86994d	0.26288834
7	0xbe1827b1	-0.14858891
8	0xbe105b34	-0.14097291
9	0x3d50cb8d	0.05097537
10	0xbcd6ffb0	-0.026244968
11	0x3ccb25c0	0.024798274
12	0xbccf0cbb	-0.025274625
13	0x3c1dccaa	0.009631315
14	0x3d3cff79	0.046142075
15	0xbecb92c5	-0.39760414
16	0xbcebb099	-0.028770732
17	0xbe12f04a	-0.14349476
18	0xba91ed61	-0.0011133366
19	0x3e9a6a8d	0.30159417
20	0xbdb4f89c	-0.08836481
21	0xbe8b4f9c	-0.27209175
22	0x3cf24a0a	0.02957632
23	0xbd78dfee	-0.06076043
24	0xbd1c60b3	-0.038178157
25	0xbd72ff96	-0.059325777
26	0xbd4f70c0	-0.050644636
27	0xbfcf69fc	-1.6204219
28	0xbefb9c10	-0.49142504
29	0x3e907ebe	0.28221697
30	0xbd72a63d	-0.05924057
31	0xbd438414	-0.04773338
32	0xbc0a2d40	-0.00843364
33	0x3e3bdddc	0.18346351
34	0xbd7bd7e5	-0.06148519
35	0xbdadf75d	-0.084944464
36	0xbf088531	-0.53328234
37	0xbedf55c9	-0.43620136
38	0xbd0210db	-0.031754356
39	0x3f83e578	1.0304403
40	0xbcaff62b	-0.021479687
41	0xbdbf2748	-0.09333664
42	0xbe06730b	-0.13129823
43	0xbdbd6b47	-0.09248977
44	0x3bb9e84c	0.005673444
45	0xbec921fe	-0.39283746
46	0xbc9b4ea0	-0.01895839
47	0x3c44b4c8	0.012005992
48	0xbcae38c8	-0.02126731
49	0x3f8ea169	1.1143008
50	0x3bc04679	0.005867776
51	0x3dbb7ca9	0.091546364
52	0xbee70415	-0.45120302
53	0x3e84d763	0.25945577
54	0x3d8480bf	0.06469869
55	0x3d74c2c8	0.05975607
56	0x3f5000c1	0.8125115
57	0xbf812941	-1.0090715
58	0xbd765875	-0.060142953
59	0x3c69e8b5	0.014276673
60	0x3cf94729	0.03042944
61	0x3ee8a8b7	0.4544122
62	0xbd49baa0	-0.049250245
63	0xbde5b5d9	-0.11216325
