HAC Baseline/preTrained/MountainCarContinuous-h-v1/2level/HAC_MountainCarContinuous-h-v1_ou_level_1_crtic.pth (torch, 20695 bytes, 5 tensors)

critic.0.weight f4 [64, 6]
0.043633886 0.46440437 0.50836843 0.26537335 -0.5435014 -0.037660345 -0.0019196791 0.55881023
-0.33439416 0.43651795 -0.18622196 0.15857701 0.22536528 0.67114925 -0.16921775 0.6602964
-0.4091936 -0.45859158 0.29575917 -0.12223036 0.02496198 -0.17281458 0.04154521 0.08613921
0.23617512 -0.40622342 -0.0041098786 0.36574388 -0.120007396 -0.35849637 -0.37495595 0.4242875
-0.1802552 1.3078105 -0.054068018 -0.15708485 0.058625568 -0.92947197 0.84552824 -1.9821725
-0.1800007 0.12135845 0.12579417 2.1331396 -0.33941478 2.0656729 0.25401434 0.051303897
0.099273786 -0.32995546 -0.090969406 1.4442048 -0.35636327 -0.0939327 -0.04514472 0.4062352
-0.024426887 -0.020948755 0.36721212 0.14445102 -0.33277518 0.27967548 0.09101438 -2.7995965
0.37591627 -0.38364884 0.16931231 -2.151005 0.29790348 0.46809885 0.35811612 0.15444428
0.7400095 1.6746696 0.23528484 0.5344224 0.27151477 -0.2359206 0.21390174 0.81059134
-0.5031944 0.41076797 -0.048485372 -0.32251006 0.23101024 2.0928674 -0.46157694 0.5664784
0.24170567 0.68815553 -0.37825623 1.3270274 0.27305728 0.050824065 0.38300803 -0.00883726
0.036315747 0.1330426 0.04037735 -0.009539704 0.11798158 0.017075496 0.34756857 -0.05596126
0.12636314 1.4127002 -0.019716669 -0.3158277 0.3993646 0.0029266288 -0.21526033 1.1252494
-0.05064434 -0.17805246 0.7097479 0.46193364 -0.2933052 -0.44243196 -0.4011446 0.52186424
0.3458697 -0.3002537 0.5112618 1.7322154 0.42673433 0.20818877 -0.020299196 -0.9146964
-0.103858516 -1.2838664 0.468831 0.41492596 0.18411376 -3.2700043 -0.35625783 -1.0316226
-0.58893883 -0.55705136 -0.1679433 -1.3873053 0.2639742 -0.8890793 0.3258438 -0.37735027
0.1407747 -0.17115885 0.049285315 2.2989233 0.56343687 0.35589835 -0.042303197 -0.33742708
0.37316662 -0.10597159 0.11715108 -0.31030542 0.2997129 0.5458455 -0.32441854 -0.8931326
0.27797726 0.0046938523 -0.084630795 0.68058306 -0.14700055 0.013787194 -0.37961227 0.14750513
-0.3730779 1.551416 -0.3417442 -0.594517 0.12270498 0.21537611 0.5044298 2.0445452
0.68825877 0.43980888 0.18603943 0.40063486 -0.031390987 -0.9406848 -0.19301309 1.8693831
0.19052187 0.55382836 -0.22711311 -1.423594 -0.21520035 -0.30467638 -0.23342538 -1.5110224
-0.11959605 -2.5744634 0.52999985 -1.7022108 0.16916972 0.19124626 -0.01517624 -1.2125839
-0.2682376 -0.43857944 0.34117997 0.33337846 0.26244572 0.11184424 0.1290099 0.3759836
-0.07026746 0.025848536 -0.5631238 0.42430392 -0.25839025 -0.04646905 -0.35855675 -0.22356391
0.05495437 -0.8523915 0.8734361 0.8690142 -0.19609858 0.087367356 -0.43653154 -0.5624558
0.029777618 0.6689691 -0.32125917 -0.54815227 0.104302794 1.5451787 0.021787997 -2.0673664
0.4061216 -0.16784671 0.52287775 0.16525596 0.2951561 0.6900505 0.28457558 -0.065138206
-0.50136644 2.0630374 0.27695787 0.537225 -0.45665646 0.41205177 0.072909445 -0.49393365
-0.4761778 -0.18160154 0.50378877 0.34563786 -0.11735992 -0.0014873293 -0.2857774 -2.5440838
00000000: 72b9 323d 69c6 ed3e 6f24 023f 04df 873e
00000010: e822 0bbf bc41 1abd be9d fbba 300e 0f3f
00000020: b635 abbe 487f df3e f8b0 3ebe 0362 223e
00000030: 28c6 663e 70d0 2b3f 6b47 2dbe 2f09 293f
00000040: d381 d1be 84cc eabe bf6d 973e e953 fabd
00000050: 117d cc3c 4ef6 30be 4f2b 2a3d c169 b03d
00000060: e4d7 713e 84fc cfbe 29ac 86bb c842 bb3e
00000070: 70c6 f5bd d68c b7be 3afa bfbe 363c d93e
00000080: d294 38be 5666 a73f 6d76 5dbd dada 20be
00000090: 5d21 703d e0f1 6dbf 8a74 583f d4b7 fdbf
000000a0: 1a52 38be c78a f83d 30d0 003e 5c85 0840
000000b0: c6c7 adbe fc33 0440 2b0e 823e 0924 523d
000000c0: 0e50 cb3d ecef a8be 2b4e babd b4db b83f
000000d0: 3f75 b6be ca5f c0bd abe9 38bd 0ffe cf3e
000000e0: e51a c8bc b99c abbc 3a03 bc3e f8ea 133e
000000f0: 8261 aabe a031 8f3e bf65 ba3d 972c 33c0
00000100: 1978 c03e 9f6d c4be 3560 2d3e 11aa 09c0
00000110: ce86 983e a7aa ef3e ff5a b73e a426 1e3e
00000120: 4371 3d3f 935b d63f 82ee 703e e8cf 083f
00000130: fc03 8b3e 2b95 71be 0f09 5b3e ea82 4f3f
00000140: 59d1 00bf 2e50 d23e 9998 46bd 0a20 a5be
00000150: f38d 6c3e 8af1 0540 d053 ecbe ba04 113f
00000160: b181 773e f62a 303f cdaa c1be 09dc a93f
00000170: 2ace 8b3e e52c 503d a119 c43e 28ca 10bc
00000180: d2bf 143d 523c 083e b862 253d 6b4c 1cbc
00000190: 54a0 f13d e9e1 8b3c 82f4 b13e a237 65bd
000001a0: 5765 013e 5cd3 b43f da84 a1bc 2bb4 a1be
000001b0: 8479 cc3e afcc 3f3b 346d 5cbe 2c08 903f
000001c0: 7170 4fbd 6253 36be 0ab2 353f 9182 ec3e
000001d0: 192c 96be 7186 e2be d362 cdbe e598 053f
000001e0: d515 b13e daba 99be 0ee2 023f 3cb9 dd3f
000001f0: ec7c da3e 702f 553e 804a a6bc 8b29 6abf
00000200: c6b3 d4bd bc55 a4bf 9e0a f03e 2d71 d43e
00000210: 5188 3c3e c047 51c0 6d67 b6be 360c 84bf
00000220: b2c4 16bf eb9a 0ebf 54f9 2bbe 3893 b1bf
00000230: a027 873e b39a 63bf 00d5 a63e 0e34 c1be
00000240: 3e27 103e 4444 2fbe 66df 493d 8f21 1340
00000250: 663d 103f 4f38 b63e 1e46 2dbd 3ec3 acbe
00000260: b20f bf3e a207 d9bd e8ec ef3d 5ae0 9ebe
00000270: f873 993e 88bc 0b3f 301a a6be 57a4 64bf
00000280: 0953 8e3e e3ce 993b e952 adbd b13a 2e3f
00000290: 5087 16be afe3 613c 8a5c c2be 960b 173e
000002a0: 1104 bfbe cd94 c63f 19f9 aebe 4432 18bf
000002b0: c04c fb3d 8e8b 5c3e 5022 013f d4d9 0240
000002c0: ba31 303f a12e e13e 1f81 3e3e 0320 cd3e
000002d0: d693 00bd b8d0 70bf 39a5 45be f247 ef3f
000002e0: 2a18 433e b2c7 0d3f 5790 68be 5438 b6bf
000002f0: 7b5d 5cbe 8bfe 9bbe 1007 6fbe 2f69 c1bf
00000300: c6ee f4bd 02c4 24c0 12ae 073f 0be2 d9bf
00000310: d43a 2d3e 0fd6 433e c4a5 78bc f335 9bbf
00000320: 7056 89be 7c8d e0be 24af ae3e 95b0 aa3e
00000330: 495f 863e 980e e53d 2c1b 043e ec80 c03e
00000340: 63e8 8fbd 4fc0 d33c e228 10bf 5d3e d93e
00000350: ba4b 84be 5556 3ebd c094 b7be f0ed 64be
00000360: d517 613d 5436 5abf 8299 5f3f b777 5e3f
00000370: 11ce 48be a8ed b23d 1081 dfbe 1afd 0fbf
00000380: 31f0 f33c 8f41 2b3f 157c a4be b553 0cbf
00000390: b49c d53d 6ac8 c53f be7c b23c bb4f 04c0
000003a0: 2cef cf3e 02e0 2bbe 51db 053f dc38 293e
000003b0: b31e 973e 26a7 303f e4b3 913e 2e67 85bd
000003c0: 8d59 00bf ce08 0440 6ccd 8d3e 9487 093f
000003d0: e0ce e9be 73f8 d23e 8c51 953d dfe4 fcbe
000003e0: 94cd f3be c1f5 39be 4df8 003f 72f7 b03e
000003f0: 665a f0bd 7df2 c2ba 6a51 92be 45d2 22c0

critic.0.bias f4 [64]
-0.007966333 0.21049629 0.39972118 -0.33731008 -0.21927696 0.09502369 0.12529695 -0.26616067
0.29400465 -0.27610493 -0.09636973 0.040107667 0.1577525 0.27575326 -0.10070586 -0.01254268
-0.1475022 0.35843122 0.3897809 0.07310302 0.41386 -0.098252274 0.1405059 0.08647958
-0.12174643 -0.3821562 0.00071979244 0.22806491 -0.43254176 0.15978876 0.005425308 -0.37735373
0.022097189 0.011959533 -0.26170203 0.11147841 -0.32747504 -0.2759241 0.033824597 -0.29843456
-0.010111988 0.057095625 0.011091228 0.24543506 0.11716564 -0.36885884 -0.02262059 0.37582532
0.014045674 -0.071158566 -0.081149794 0.18607557 0.074852176 -0.17709091 -0.003908691 -0.2032903
0.073236875 -0.090883546 -0.20262906 0.16147752 0.3064145 0.24370079 0.4053362 0.09952068
00000000: 3985 02bc 578c 573e 41a8 cc3e e8b3 acbe
00000010: 248a 60be c89b c23d d84d 003e 3646 88be
00000020: c787 963e a05d 8dbe 7e5d c5bd f047 243d
00000030: df89 213e 882f 8d3e e03e cebd d07f 4dbc
00000040: d10a 17be 4c84 b73e 5d91 c73e 09b7 953d
00000050: 75e5 d33e 7d38 c9bd c7e0 0f3e 351c b13d
00000060: 3156 f9bd faa9 c3be 74b0 3c3a d989 693e
00000070: 1d76 ddbe aa9f 233e c8c6 b13b 8234 c1be
00000080: 2a05 b53c ebf1 433c cffd 85be cb4e e43d
00000090: cfaa a7be ec45 8dbe a98b 0a3d 6acc 98be
000000a0: c0ac 25bc 1add 693d fbb7 353c 5453 7b3e
000000b0: 8af4 ef3d 11db bcbe d14e b9bc 2d6c c03e
000000c0: d41f 663c 95bb 91bd dd31 a6bd 988a 3e3e
000000d0: 194c 993d 5257 35be 7a14 80bb 552b 50be
000000e0: 37fd 953d 2721 babd fe7d 4fbe 5d5a 253e
000000f0: 5de2 9c3e b38c 793e 3a88 cf3e 80d1 cb3d

critic.2.weight f4 [64, 64]
1.2530993 -0.12981984 -0.13492526 -0.091680884 0.018402725 -0.028058141 0.14049274 1.794841
-0.1506577 0.05096887 0.04265003 0.09154062 -0.1954417 -0.013325649 0.45659828 -0.074826136
-0.055159524 0.087835796 -0.093461245 0.13474749 -0.068489715 -0.103301406 -0.8002475 -0.021091295
0.8279401 0.0013900846 0.038284734 -0.24440071 0.29394752 -0.3616223 0.034738857 0.030025562
0.8642853 0.083306596 -0.024243414 -0.13914637 2.3322825 -1.0900444 0.08102509 0.2775924
-0.44234136 -0.0637606 -0.062145695 0.013228883 -0.06456418 0.08358653 0.060074173 -0.013066161
0.059748083 -0.033530973 0.20306078 0.054308712 1.9162766 -0.07665455 -0.06598977 0.2584719
-0.21701479 0.019836016 1.3207889 -0.13768727 0.023320891 0.012092965 -0.15774448 -1.7520465
0.57525015 -0.10052112 -0.3010704 -0.08804308 -0.11696465 -0.21776302 0.878945 1.7113543
-0.62378114 -0.044604644 0.2668674 0.10636585 0.57303417 -0.02056156 0.68872756 0.21186128
0.04785344 -0.28974423 -0.49201283 -1.071531 -0.54161334 -0.038684886 -0.30154118 -0.309745
-0.119057976 0.077603474 0.05812783 -0.0045074914 0.7601588 0.5943431 -0.23448493 0.02923904
0.961138 -0.13727073 0.10199484 -0.07452757 1.6002282 -1.3409771 0.24024609 -0.033145912
-0.13319458 -0.07057331 0.40399185 0.07497592 -0.18310435 -0.09018114 0.07177799 -0.3366211
-0.047717027 0.11565459 -0.8237732 -0.5828147 1.8676269 -0.05216132 0.05230187 0.47586787
0.32721522 -0.14660837 0.17848802 0.3883562 -0.22793084 0.32083935 0.01395714 -0.8492614
-0.07732046 0.08444187 0.08356454 0.0973212 0.101889044 -0.05324516 0.01808866 -0.07697509
0.0030916184 -0.08929241 -0.047894564 -0.121763706 0.10820739 -0.12831853 -0.13363439 -0.13320525
-0.06835677 -0.01074118 -0.0012065676 0.121692345 -0.098622546 -0.060572416 -0.037614096 -0.11420768
0.04688476 0.06358597 0.029837742 -0.13398722 0.062378127 0.09830606 0.09375338 -0.12068658
0.09973225 0.07027317 -0.07397796 0.058526214 -0.09106898 0.06065156 -0.12365581 -0.050571248
-0.018713519 -0.10681809 0.030392362 0.043846104 -0.10321144 -0.063570574 -0.10691573 -0.0058643576
-0.02068019 0.03537272 0.05415385 0.021460505 0.08333701 -0.027515277 0.08095165 -0.0767843
-0.0005643666 0.04703574 -0.04657276 0.0341637 -0.1439747 -0.11718368 0.09092963 -0.02150312
1.5524648 -0.08658761 -0.17556514 -0.012112349 -0.0051754117 -0.033483915 0.15159391 1.5911565
-0.05159203 -0.06398608 -0.09656701 0.1289407 -0.10681307 -0.1252417 0.5105854 -0.007208101
-0.014173076 -0.04891054 0.043690447 0.2458174 0.020878425 0.052571945 -0.8695641 0.112350665
0.6829723 -0.00626114 0.006303034 -0.03439169 0.26979995 -0.24036619 0.11383895 0.112090364
1.1384662 -0.06699684 0.10105376 -0.21912959 2.195375 -1.2029165 -0.08747264 0.26228666
-0.38788196 0.05952121 -0.053374697 0.11688673 0.10440521 -0.05405897 0.09398496 -0.14878586
0.08128357 -0.09178252 0.19922297 -0.121013135 1.7752557 -0.11676836 -0.18943207 0.20903914
0.0022154103 -0.11860021 1.648042 -0.08250965 -0.045196507 -0.14520094 -0.2515608 -1.3190695
00000000: 8f65 a03f 7eef 04be d929 0abe 30c3 bbbd
00000010: 50c1 963c 30da e5bc 54dd 0f3e 5abd e53f
00000020: 0346 1abe bcc4 503d ccb1 2e3d a679 bb3d
00000030: de21 48be d353 5abc 40c7 e93e 723e 99bd
00000040: f4ee 61bd 41e3 b33d 9c68 bfbd 3ffb 093e
00000050: 5644 8cbd b08f d3bd 05dd 4cbf a7c7 acbc
00000060: e2f3 533f 8033 b63a 74d0 1c3d 2e44 7abe
00000070: 4a80 963e 8f26 b9be 554a 0e3d 2bf8 f53c
00000080: cd41 5d3f a69c aa3d 209a c6bc 637c 0ebe
00000090: 1e44 1540 9386 8bbf 7bf0 a53d 9720 8e3e
000000a0: 917a e2be eb94 82bd 7c8c 7ebd f5bd 583c
000000b0: 3a3a 84bd 6a2f ab3d 5610 763d 7413 56bc
000000c0: 68ba 743d c657 09bd 2aef 4f3e d072 5e3d
000000d0: 8d48 f53f 10fd 9cbd a525 87bd 6e56 843e
000000e0: 2039 5ebe 247f a23c 9c0f a93f e4fd 0cbe
000000f0: 740b bf3c 9221 463c c587 21be 0f43 e0bf
00000100: 9843 133f 04de cdbd e625 9abe ee4f b4bd
00000110: 2a8b efbd 45fd 5ebe 8a02 613f a80d db3f
00000120: 1fb0 1fbf 5cb3 36bd d8a2 883e 57d6 d93d
00000130: 5eb2 123f b770 a8bc 7350 303f 2af2 583e
00000140: f801 443d 5b59 94be 1be9 fbbe ee27 89bf
00000150: 2ca7 0abf 0b74 1ebd 9b63 9abe e696 9ebe
00000160: abd4 f3bd 92ee 9e3d 7317 6e3d 94b3 93bb
00000170: c499 423f df26 183f d11c 70be b686 ef3c
00000180: 240d 763f b390 0cbe ace2 d03d e9a1 98bd
00000190: 47d4 cc3f 23a5 abbf 1203 763e 02c4 07bd
000001a0: 2964 08be bd88 90bd 05d8 ce3e fa8c 993d
000001b0: b57f 3bbe e4b0 b8bd 5700 933d 9a59 acbe
000001c0: ee72 43bd 50dc ec3d cde2 52bf 5833 15bf
000001d0: 660e ef3f 1ca7 55bd 7c3a 563d f4a4 f33e
000001e0: c188 a73e 8120 16be 90c5 363e a0d6 c63e
000001f0: b466 69be 0e45 a43e 7dac 643c 3269 59bf
00000200: 305a 9ebd dcef ac3d e323 ab3d 5650 c73d
00000210: 34ab d03d 9917 5abd ab2e 943c 1ea5 9dbd
00000220: c09c 4a3b f0de b6bd 172d 44bd 405f f9bd
00000230: d69b dd3d ef65 03be 74d7 08be f566 08be
00000240: a2fe 8bbd c6fb 2fbc b125 9eba d639 f93d
00000250: 9efa c9bd c81a 78bd 3d11 1abd b7e5 e9bd
00000260: 3c0a 403d 5c39 823d 486e f43c f233 09be
00000270: 3580 7f3d b054 c93d c601 c03d 872a f7bd
00000280: 6c40 cc3d 61eb 8f3d c281 97bd 2fb9 6f3d
00000290: 6082 babd c56d 783d 423f fdbd cc23 4fbd
000002a0: 184d 99bc 71c3 dabd 67f9 f83c f997 333d
000002b0: 8560 d3bd 4a31 82bd a2f6 dabd cc29 c0bb
000002c0: 8069 a9bc fce2 103d 6dd0 5d3d f1cd af3c
000002d0: 98ac aa3d b867 e1bc fbc9 a53d 1641 9dbd
000002e0: 00f2 13ba 8ca8 403d 14c3 3ebd 3cef 0b3d
000002f0: 1b6e 13be fffd efbd 5039 ba3d 5027 b0bc
00000300: 2bb7 c63f d854 b1bd 59c7 33be e072 46bc
00000310: 8096 a9bb 6e26 09bd 6f3b 1b3e 04ab cb3f
00000320: 2a52 53bd 220b 83bd edc4 c5bd 0809 043e
00000330: d0c0 dabd 5c3f 00be bab5 023f ef31 ecbb
00000340: 3036 68bc 6b56 48bd c1f4 323d 8eb7 7b3e
00000350: 3b09 ab3c ae55 573d c19b 5ebf 1b18 e63d
00000360: 46d7 2e3f 402a cdbb ae89 ce3b 4dde 0cbd
00000370: 3823 8a3e 8e22 76be 6524 e93d a28f e53d
00000380: 43b9 913f a435 89bd 46f5 ce3d 8263 60be
00000390: 0681 0c40 2bf9 99bf db24 b3bd 704a 863e
000003a0: 7798 c6be 83cc 733d 6d9f 5abd 4f62 ef3d
000003b0: 66d2 d53d f06c 5dbd 307b c03d 525b 18be
000003c0: 0078 a63d 79f8 bbbd 1b01 4c3e bcd5 f7bd
000003d0: 943b e33f 4024 efbd 7bfa 41be 5b0e 563e
000003e0: 6b30 113b abe4 f2bd 0af3 d23f d2fa a8bd
000003f0: f91f 39bd 8eaf 14be 94cc 80be 45d7 a8bf

critic.2.bias f4 [64]
0.10176737 -0.111351475 -0.12535304 0.07281925 -0.075489216 0.0707506 0.18325819 -0.037997413
0.07583242 0.07489086 0.032906085 -0.08447622 0.03279387 -0.013212751 -0.074168295 0.084238425
0.142182 0.069552094 0.023614451 -0.107766554 -0.036888704 0.05300854 -0.039166115 -0.079560645
-0.083933085 -0.028947197 0.12776771 0.12834948 0.03413014 -0.06763422 0.012736909 -0.20345338
0.022054747 0.048023243 -0.005252257 -0.097190246 0.011973165 0.07997432 0.07136087 -0.04533886
-0.023623157 0.02738074 -0.11950562 0.057049252 -0.039139815 0.08524056 -0.023989536 0.064269334
-0.033792343 0.047127813 -0.112416364 -0.10452305 -0.013878875 0.12385728 -0.10419965 0.18579954
0.05168094 0.09919449 0.014392986 -0.11647613 -0.10197644 -0.028723555 0.2615181 -0.019292502
00000000: 696b d03d 3e0c e4bd 8c5c 00be 4222 953d
00000010: 179a 9abd b1e5 903d 09a8 3b3e 2da3 1bbd
00000020: 074e 9b3d 6160 993d 88c8 063d de01 adbd
00000030: dd52 063d 4b7a 58bc 8ce5 97bd 3285 ac3d
00000040: 2998 113e 5471 8e3d 1873 c13c b6b4 dcbd
00000050: 9c18 17bd 7c1f 593d a66c 20bd b1f0 a2bd
00000060: 1ce5 abbd ac22 edbc 8ad5 023e 0c6e 033e
00000070: 0ccc 0b3d cf83 8abd 78ae 503c 1556 50be
00000080: 28ac b43c 05b4 443d 201b acbb ae0b c7bd
00000090: 182b 443c 94c9 a33d a625 923d 3eb5 39bd
000000a0: 5a85 c1bc 934d e03c 5dbf f4bd 7aac 693d
000000b0: 1251 20bd 9a92 ae3d b485 c4bc a49f 833d
000000c0: d769 0abd 1809 413d 8d3a e6bd 2e10 d6bd
000000d0: 3964 63bc e3a8 fd3d a066 d5bd 3c42 3e3e
000000e0: 65af 533d 7b26 cb3d 8fd0 6b3c 0a8b eebd
000000f0: 06d9 d0bd a94d ebbc b3e5 853e 4f0b 9ebc

critic.4.weight f4 [1, 64]
1.0274725 2.7876036 -0.0044996366 1.0165539 1.3010601 -0.36615607 -0.3239419 0.7154152
1.0630666 -0.83185506 0.067910105 0.08754319 0.27615902 0.4584973 -0.64106005 1.0052714
0.62604165 -0.064485 1.8782952 -0.07848878 1.7649001 1.6879908 -0.0426438 0.07887527
-0.037016086 1.668486 -0.39197147 2.061708 1.3786839 0.076898076 0.8417936 2.2623405
0.7508093 1.0425164 0.123417005 -0.018195342 1.011599 1.4307033 -8.1654925e-06 0.9676986
-1.274384 0.9137039 -0.0738916 1.1443154 1.8819522 0.08503124 2.8325255 0.31814983
-0.03775969 2.4697206 0.48993468 -0.11929174 1.4550666 2.415528 -1.1568369 -0.32712984
2.0823982 1.6449575 -0.1074894 0.08658005 -0.034996897 0.70124406 -0.7895986 0.82744616
00000000: 3884 833f 1968 3240 b071 93bb 701e 823f
00000010: 2389 a63f cf78 bbbe b6db a5be 7325 373f
00000020: 9112 883f 74f4 54bf 7414 8b3d d849 b33d
00000030: b764 8d3e 28c0 ea3e 831c 24bf bcac 803f
00000040: 4444 203f b610 84bd fa6b f03f babe a0bd
00000050: 3fe8 e13f 1510 d83f 44ab 2ebd 5c89 a13d
00000060: 2e9e 17bd f390 d53f 7cb0 c8be 06f3 0340
00000070: b778 b03f bd7c 9d3d c97f 573f 30ca 1040
00000080: 0a35 403f 2d71 853f 0ec2 fc3d 660e 95bc
00000090: 137c 813f 4921 b73f 86fe 08b7 18bb 773f
000000a0: 041f a3bf 80e8 693f 7b54 97bd ed78 923f
000000b0: cfe3 f03f dc24 ae3d 1948 3540 89e4 a23e
000000c0: e8a9 1abd e70f 1e40 b8d8 fa3e 3a4f f4bd
000000d0: 9f3f ba3f 0398 1a40 3b13 94bf 907d a7be
000000e0: 0346 0540 f88d d23f 6723 dcbd e250 b13d
000000f0: e858 0fbd bb84 333f 2223 4abf 83d3 533f
