HAC Baseline/preTrained/MountainCarContinuous-h-v1/2level/HAC_MountainCarContinuous-h-v1_ExplorationTechnique.SURPRISE_solved_level_0_crtic.pth (torch, 20439 bytes, 5 tensors)

critic.0.weight f4 [64, 5]
000000 6d 1c 51 be f0 80 17 40 0c e6 e0 bd 2b 46 98 3d
       -0.20421 2.3672447 -0.10981378 0.074352585
000010 b9 99 d9 bf e1 ea ea 3e d0 ae bc bf 9b 79 e4 bc
       -1.7000037 0.45882323 -1.4740849 -0.027890017
000020 39 b3 0e 3e 1e d9 be 3f 1b e1 d6 3e 69 a0 d4 3f
       0.13935556 1.4910009 0.41968617 1.6611453
000030 48 ef 0f ba dd 10 cc be 7f e3 de bf db 9d e1 be
       -0.0005490673 -0.39856616 -1.7413176 -0.44065747
000040 47 f7 63 be 13 f7 37 3d 61 fb a1 be e5 b3 36 3f
       -0.22262298 0.044913363 -0.316371 0.7136825
000050 9d 54 94 3e a7 a6 51 bf 70 dc 85 bd f6 6a 93 3e
       0.28970805 -0.81894916 -0.06536186 0.28792542
000060 09 47 8a be f7 5a d9 3e c4 fc af 3f fe c0 c3 3c
       -0.2700732 0.42452213 1.3749013 0.023895737
000070 0c b4 4c bd 03 27 9a bf 32 e2 92 bd e9 74 ff be
       -0.049976394 -1.2043155 -0.071720496 -0.49893883
000080 47 be f7 bd 22 63 9a bd e6 98 86 bf d0 16 45 be
       -0.120968394 -0.07538439 -1.0515411 -0.19246984
000090 df d1 96 3f c5 2d 47 bc fd 15 02 3f bc 6b cf 3e
       1.1782798 -0.012156908 0.508148 0.40511882
0000a0 13 41 45 3d 0b 8e 35 c0 57 70 ba bb 67 9b 0e be
       0.048157763 -2.8367946 -0.0056896615 -0.13926469
0000b0 03 89 e0 3f ed 35 31 3f c2 b3 c7 3f 49 1c a6 be
       1.7541813 0.6922291 1.5601733 -0.32443455
0000c0 4b 74 ec bd 4e 27 14 be b1 61 f3 be 8a 99 06 c0
       -0.115456186 -0.14468119 -0.4753547 -2.1031213
0000d0 6a 0b 59 3e 12 74 a2 3e 26 24 69 3f 6e 9a 07 be
       0.2119576 0.3172918 0.91070783 -0.13242504
0000e0 fd 55 e9 bf 73 e7 54 3d c9 d7 ad 3e 7b 27 da 3e
       -1.8229367 0.05197854 0.33953694 0.42608246
0000f0 8f c6 73 be 77 52 4a 3f 0c 46 94 3c 6f 26 c4 3e
       -0.23806213 0.7903208 0.018099807 0.38310573
000100 e9 68 7c bf 4c e8 51 3e 6a 32 ef bf d6 24 bb bc
       -0.9859758 0.2049877 -1.868726 -0.022844713
000110 6a d6 70 3e 25 fc 45 3f 24 5d 9c bd f4 8f 3a 3f
       0.23519292 0.7733787 -0.07634953 0.72875905
000120 c5 09 e9 bd 5c 1e 14 be 50 0c ed bf 60 ae 1b 3e
       -0.113788165 -0.14464706 -1.8519382 0.15203238
000130 a2 98 cf 3f 59 a3 46 3e 25 69 6c 3e 52 e7 8f bf
       1.6218455 0.1939825 0.23086984 -1.1242468
000140 c1 79 0b 3f 43 23 7d 3f 80 7a 1a 3b 57 95 0b bf
       0.54482657 0.9888193 0.002357155 -0.5452475
000150 48 6f a9 be 42 c4 12 3d b1 db 24 40 71 48 e0 3b
       -0.33092713 0.035831697 2.575909 0.006844573
000160 f6 25 0d 3d 7d 2a 2b c0 bc 5a 9f 3e 92 c8 db 3f
       0.03446003 -2.6744683 0.31123912 1.7170584
000170 9a 17 87 3e da 0a b0 be 58 d7 30 bf 55 6d 5d ba
       0.26385194 -0.3438328 -0.6907859 -0.00084467727
000180 b4 00 d2 3f e7 5b 78 bb df cb d2 be da 7e e8 3f
       1.6406465 -0.0037896575 -0.41171166 1.8163712
000190 8d 51 a0 3e bc 07 b8 bf 8a 3d 93 3d bf 63 4a 3f
       0.31312218 -1.437736 0.07189472 0.7905845
0001a0 62 aa 1e 3f 92 05 ab 3d 3e 1e 09 c0 58 40 20 be
       0.61978734 0.08350672 -2.1424708 -0.15649545
0001b0 59 e2 cc bd 82 21 8e 3e 3d f5 07 3f 07 fc 02 40
       -0.1000411 0.2775994 0.5310858 2.0466325
0001c0 5f 35 0d ba f0 1b e8 be a9 5e 09 c0 3e 66 f9 3e
       -0.0005386676 -0.45333815 -2.1464026 0.48710817
0001d0 74 9f d8 3f 38 9d 10 bd 53 82 ca bd 05 81 c4 bf
       1.6923661 -0.035306185 -0.098881386 -1.5351874
0001e0 f1 4f 27 bf ef 10 bc 3f ae bc 0e bc e6 c6 3c be
       -0.65356356 1.4692668 -0.008711977 -0.18435249
0001f0 40 c7 de bf 36 32 5d be 92 01 d8 bf 41 bb 28 bc
       -1.7404556 -0.21601185 -1.6875479 -0.010298551
000200 54 e7 0e 3e 05 6b e3 3f 4d 83 51 3d 1f 26 3f 40
       0.13955432 1.7767035 0.05115061 2.9867017
000210 40 87 96 39 fc 98 50 bd 85 6d 08 c0 16 6a 99 bd
       0.00028711 -0.050927147 -2.1316845 -0.074909374
000220 fb 52 db be b8 86 0d be 93 3f 0a 3e e3 4b ee 3c
       -0.42836747 -0.13820922 0.13500814 0.02908892
000230 d1 ca e5 be a2 fe e8 3f b5 85 ed bb 1d 44 38 3d
       -0.448813 1.8202708 -0.007248605 0.044986833
000240 8a 37 a6 bf 7c 78 0d bd ef 4b 0c c0 03 2b eb 3d
       -1.2985699 -0.03453873 -2.1921346 0.11482813
000250 31 49 ba 3c c1 06 ed 3f e0 7b 89 be a0 1e c2 bf
       0.022739979 1.8517686 -0.26852322 -1.5165596
000260 7e b3 c8 b9 65 bd 56 3e 1c 13 15 3f 70 39 ff 3d
       -0.00038280705 0.20970686 0.58232284 0.12462127
000270 0b ef e4 3f ba 7d 40 3b 41 7f eb 3e 27 31 a2 3f
       1.788545 0.0029371814 0.45995525 1.267125
000280 ba d9 e9 3c bb 8d bd 3f 1e f1 fa 3d 06 8d 2e 3e
       0.028546203 1.4808878 0.12253021 0.17045984
000290 6c b9 06 c0 77 db b4 3d 55 e5 b9 3f 52 ca cf be
       -2.1050673 0.08830922 1.4523112 -0.40584046
0002a0 8a fd 55 3e f3 55 15 bf 03 27 f8 be 46 72 4b 40
       0.20897499 -0.58334273 -0.48467264 3.1788497
0002b0 1d 49 82 3c ec ef b6 3e 5d 19 4f 3f 1e 6f 3a 3f
       0.015904004 0.3572992 0.80898076 0.728258
0002c0 97 3e 31 3f d2 6a 72 be 4c 10 9b be 03 5c 56 bf
       0.6923613 -0.23673561 -0.3028587 -0.8373415
0002d0 46 c0 ae 3e 18 8a cd bd 32 13 88 3d 76 81 56 3e
       0.34131068 -0.10036105 0.06644286 0.20947823
0002e0 b7 ef 92 be ee e2 11 bf f9 18 16 bd 96 43 19 b9
       -0.28698513 -0.5698689 -0.03664491 -0.00014616395
0002f0 70 57 17 3f ec 92 2e bf 16 00 f8 bd 39 b0 db bf
       0.59117794 -0.68192935 -0.121093914 -1.7163154
000300 04 f3 d2 bb 0d 7c b0 3d 47 c3 bc 3f 44 7d 45 3f
       -0.006437661 0.08617411 1.4747094 0.77144265
000310 e6 e9 c1 3f ca 80 2a 3c 60 fe 0a be 2a 09 ec bf
       1.5149505 0.010406682 -0.13573599 -1.8440297
000320 77 9b 07 3d c5 46 57 c0 6e d8 98 bc d0 15 b8 be
       0.033107247 -3.3636944 -0.01865789 -0.35954142
000330 9e 97 50 be a5 e9 04 3e 8c 8c b2 bf 54 59 74 bb
       -0.20370337 0.12979753 -1.3949142 -0.003728469
000340 b0 70 87 3d 9a a1 09 40 d1 79 cf be 54 9a f5 bf
       0.0661329 2.1504884 -0.40522626 -1.9187722
000350 44 18 e6 bc 57 ac 40 be 6d 7d 6d bf 5c de 19 be
       -0.028087743 -0.18815742 -0.9276951 -0.1502623
000360 7e 02 cc 3f a5 25 00 3c 5e 3b 45 3e b3 c0 e9 bf
       1.593826 0.007821475 0.19260928 -1.8261932
000370 2e 45 fc bd b0 2c 88 bf eb f3 3a be df f1 17 3e
       -0.123178825 -1.0638638 -0.1825711 0.1483836
000380 45 35 9a 3f 94 b4 98 be 7e fc 0a c0 31 5a 59 be
       1.2047507 -0.2982527 -2.171661 -0.21225812
000390 f6 99 d6 3d a0 b8 83 3f d6 00 e2 bd f7 cb b0 be
       0.104785845 1.0290718 -0.11035316 -0.34530613
0003a0 d4 26 ed bc f2 4a bb bd b7 3a c2 be 61 b9 e7 3d
       -0.028949179 -0.09145154 -0.3793542 0.11314655
0003b0 20 c4 4c 40 61 b6 a6 3c ac 0b b7 bc 85 62 05 c0
       3.1994705 0.020350637 -0.022344433 -2.0841382
0003c0 36 6a 58 be ad 8f d9 bf bd 07 f1 bc 70 ef c3 3e
       -0.21134266 -1.6996971 -0.029422635 0.38268614
0003d0 8b 8c 0c bf 1f 14 da be ee 57 bb bf 61 3e 6e bb
       -0.5490195 -0.42593476 -1.4636209 -0.0036353099
0003e0 28 e0 c1 3e 7f d0 04 40 9c ce 97 bd 28 ba a2 3f
       0.3786633 2.0752256 -0.074124545 1.271306
0003f0 87 27 8c be cb f6 97 be 33 25 58 bf 8d b4 92 be
       -0.27373907 -0.29680476 -0.8443176 -0.28653374

critic.0.bias f4 [64]
000000 db 92 a5 3d 5b cc c5 3e ce 29 98 3d 0f 87 bb be
       0.08084651 0.38632473 0.074298486 -0.3662648
000010 c5 12 82 3e b5 54 36 3e 06 06 c4 3d c4 d2 39 bd
       0.25404945 0.1780575 0.095714614 -0.045367017
000020 6d 38 42 3d 1f 20 8c be 61 94 bd be ee 0a 9e 3d
       0.047417093 -0.27368256 -0.37027267 0.077169284
000030 e9 53 1a 3e 0d 03 ed 3d 66 90 85 bd 7a 47 40 3e
       0.15071072 0.115728475 -0.065216824 0.18777266
000040 dc 76 0b bc bb 41 fb 3d 49 0e 96 be 12 49 ce be
       -0.008512225 0.122683965 -0.29307774 -0.40290123
000050 79 7e 28 be c2 cb e7 bc 6b 93 01 3e 9e 8b 59 3e
       -0.16454495 -0.028295401 0.12653892 0.21244666
000060 1b 25 6e be e9 03 aa 3c d6 92 a1 3d bc fc 84 be
       -0.23256342 0.020753818 0.07889335 -0.2597407
000070 ad 9a 28 bb 1a e7 12 3e 58 55 fe bd a0 b3 a1 3e
       -0.002572696 0.14345971 -0.12418622 0.31582355
000080 2a ca 89 3e 69 48 86 bd 2d d6 c7 bd 7e 26 64 be
       0.2691205 -0.0655678 -0.09757648 -0.22280309
000090 ce 2c a5 be a1 a3 10 bc a3 45 c8 3c cb 52 4c 3e
       -0.32260746 -0.008828075 0.024447268 0.19953458
0000a0 95 fb 53 bd 8c 3c 8b 3e 77 59 39 be ec b4 c9 3d
       -0.0517536 0.2719463 -0.18100534 0.09848961
0000b0 64 53 06 be c8 13 23 3e 6c 8a 13 3e a9 46 2a 3e
       -0.13117748 0.15925515 0.14408273 0.16628517
0000c0 fb 92 27 bc 27 66 8d 3d aa 13 d7 be 07 d7 05 be
       -0.010227914 0.0690425 -0.4200719 -0.13070308
0000d0 19 20 d2 be f8 a3 a5 3d 0a ce ad bd f4 2d 3c bd
       -0.41040114 0.08087915 -0.084865645 -0.04594226
0000e0 3c 2f cd be 5e 5e 00 be cc e1 4a 3e e5 44 d3 3d
       -0.400751 -0.12535998 0.19812697 0.10315875
0000f0 10 00 09 be 12 e9 5e 3d df 1c 82 3e 34 48 3f 3e
       -0.1337893 0.054421492 0.25412652 0.18679887

critic.2.weight f4 [64, 64]
000000 2b e0 19 bd 41 bf 9c 3b 35 5a a7 3d 23 8c 8a bd
       -0.0375673 0.0047835414 0.081715025 -0.0676501
000010 eb 2e 38 3e 78 44 aa 3e 11 92 23 bd a5 88 31 3e
       0.17986648 0.33255363 -0.03993422 0.17337282
000020 c5 f1 0f 3e 1d 86 7f 3c d3 a5 17 be f2 9d b5 be
       0.14057072 0.01559594 -0.1480935 -0.35472065
000030 53 39 43 3e 1f e3 39 3d 07 b0 0b 3e 37 3a e6 3d
       0.19064836 0.045382615 0.13641368 0.11241572
000040 32 a0 73 bf 68 3f 76 3e b9 80 de bd 15 6f 32 be
       -0.95166314 0.24047625 -0.10864396 -0.17425187
000050 b4 fc 79 3d 58 87 86 3d a7 73 bf 3e e4 c8 41 3e
       0.061032012 0.065687835 0.37392923 0.1892429
000060 bb fe 06 3e 70 06 ca bd d2 9f 3a 3e aa d0 1a 3e
       0.1318311 -0.09864509 0.18225029 0.15118662
000070 64 64 9d 3d 9e e6 be bd e3 75 dd bd 4e a2 b6 3e
       0.076851636 -0.093213305 -0.10813501 0.35670704
000080 90 89 b3 3d 32 67 88 3d 6b 5b 2e 3f 38 6d 8b 3e
       0.08766472 0.06660308 0.6810824 0.27231765
000090 06 39 df bc cc 15 c6 bf 9c 26 74 3d ea 85 f3 3e
       -0.02724887 -1.5475402 0.059607133 0.47563106
0000a0 dd 9d 07 3e 1d bf 15 be 7a 97 22 3e 06 35 52 3e
       0.13243814 -0.14623685 0.15878096 0.2052804
0000b0 2c b2 c2 be 34 30 25 be 58 a4 de 3d 99 b6 5c 3e
       -0.3802656 -0.1613167 0.1087119 0.2155403
0000c0 3a d0 dc be 33 2d 85 be 1d 01 af 3d 28 0b 6c be
       -0.43127614 -0.26011047 0.08545134 -0.23051131
0000d0 5b b7 6e be 1e 3f f6 bd cf 62 03 bf 65 6b 79 be
       -0.23312132 -0.120237574 -0.51322645 -0.24357374
0000e0 2c 13 e8 3d c7 d7 05 3f af 75 bc bd 63 a8 4d 3e
       0.11331782 0.52282375 -0.09202134 0.20083766
0000f0 e1 c5 6d bc 53 71 de bd 75 f6 36 3e af f1 14 3c
       -0.01451251 -0.10861459 0.17867453 0.009090825
000100 b2 58 a3 3e 8c 22 31 be 54 95 30 3e d8 4d 4a be
       0.31903607 -0.17298335 0.17244464 -0.19756258
000110 81 7c 09 3d bc cc e0 3d 50 49 3d 3d 59 5a c8 bd
       0.033566 0.1097655 0.046212494 -0.097828574
000120 5b 90 70 bf da 31 2d 3d e2 4d c3 3e 30 59 2a 3e
       -0.9397027 0.04228387 0.38145357 0.16635585
000130 fc 42 68 3e 6a f6 d2 bd 8e d3 d8 3d a7 b2 1b 3d
       0.22681803 -0.10300906 0.10587226 0.038012173
000140 0f 30 1b 3f de 03 e1 3e 86 43 45 3e a2 8e a0 3e
       0.60620207 0.43948263 0.1926404 0.3135882
000150 c8 67 3f be fc 9d 8b be 2c 13 a8 3e b9 42 0f 3e
       -0.18691933 -0.2726897 0.32827127 0.13990296
000160 e9 e6 e9 3e a0 c2 de be e9 20 bf 3e 50 4e 99 3b
       0.45683983 -0.43507862 0.37329796 0.004678525
000170 6b 90 7d 3e 4a 51 8d be 44 48 59 3e 4b 28 2b be
       0.24762122 -0.2760108 0.21218973 -0.1671459
000180 bc 69 87 3e a3 6e ec 3d 7f 57 a2 be 24 19 1f be
       0.26447856 0.1154454 -0.3170738 -0.15536934
000190 48 01 13 bc 7e a7 15 40 0c f2 14 be b9 a7 00 3e
       -0.008972473 2.338348 -0.14545459 0.12563981
0001a0 30 a5 12 bf a2 b7 8e be d8 bb 87 3e 0f 97 9d 3e
       -0.57283306 -0.27874476 0.265105 0.3077931
0001b0 1f db cd be 0d a2 fc bd 66 1b 51 bd 11 33 b9 3e
       -0.4020624 -0.12335596 -0.05105152 0.36171773
0001c0 fb 57 ca 3d 3d b9 84 bf af 76 a7 3d 48 c1 9d be
       0.09880062 -1.036903 0.08176934 -0.30811524
0001d0 5f e1 a4 3e f8 2d 0d 3e d5 06 cf 3e af 4b 03 be
       0.32203194 0.13787067 0.404349 -0.1282184
0001e0 60 45 17 bd 80 0d c6 be cb b6 84 3e b7 76 29 3e
       -0.036931396 -0.38682175 0.2592071 0.16549192
0001f0 84 38 97 3d dc 2f 0c bf 6f 9d 87 3d 53 a8 92 be
       0.073838264 -0.5476053 0.06621825 -0.28644046
000200 cf 75 f1 bd 17 a3 74 3e a0 9c 6a be ce 08 b2 bd
       -0.11790048 0.23890339 -0.2291131 -0.086930856
000210 5e 6a d3 3d ae 13 ca be ac b9 0e 3e 15 d1 9e bd
       0.10323022 -0.3946814 0.13938016 -0.07754723
000220 50 67 95 3e aa 23 11 3e bd 49 4c 3c 24 68 af 3e
       0.29180384 0.14173761 0.012468752 0.3425914
000230 9c 4e 0e be 97 70 43 3e d7 d0 3a be 0a fc 8e bd
       -0.13897175 0.19085918 -0.18243729 -0.069816664
000240 26 12 c3 3f d5 c1 4d be eb 67 2f be 6c e1 0a 3f
       1.5239913 -0.20093472 -0.17129485 0.54250216
000250 15 36 49 3e 36 bb a0 3d e5 7d cd be 12 c5 0a be
       0.19649537 0.07848208 -0.40135112 -0.13551739
000260 40 76 a6 be b7 5c 02 3e 1b 97 96 be cc 9c 11 bd
       -0.32512093 0.1273068 -0.2941216 -0.035549924
000270 34 4f 00 be 95 55 c8 3c 16 74 85 bc 8f 4d 47 be
       -0.12530214 0.024454871 -0.016290706 -0.1946318
000280 04 49 f3 bd 4f 9c b1 bd 16 f5 5d bf d8 ca 2f bc
       -0.11879161 -0.086723916 -0.86702096 -0.010729514
000290 46 fd 12 3d 84 18 50 3f 7d 57 67 3e 4b d0 e2 be
       0.03588607 0.8128741 0.22591968 -0.4429954
0002a0 0c d8 89 bd c4 bd 44 3e 82 40 94 bd cd f6 6e be
       -0.06730661 0.19213015 -0.072388664 -0.23336335
0002b0 30 72 cd 3d 43 c1 0b 3d dd 5a d7 3d 8f 7d 43 be
       0.10031545 0.034119856 0.10515378 -0.19090866
0002c0 85 6f d5 3e eb b3 c7 3e a6 64 3d 3c fc 4d 86 3d
       0.41686645 0.39004454 0.011559641 0.06557843
0002d0 d7 fe cb 3d 30 99 b0 3a bf d9 56 3f 9c c0 3b 3e
       0.09960716 0.0013473388 0.83926004 0.18335193
0002e0 b0 e9 4d bc 42 ca 85 bc 5c 9e 2b bd 50 76 85 bd
       -0.0125679225 -0.016331796 -0.04189907 -0.06516707
0002f0 11 53 0c 3d 8a e2 34 bd c3 7f 62 bd 7f 19 a4 3d
       0.034258906 -0.044161357 -0.055297624 0.080126755
000300 db e5 e9 be b3 81 42 3e ee 5c fc bd fa da 61 3e
       -0.45683178 0.18994789 -0.123224124 0.22056189
000310 3d ef b4 3d 3d 47 4f be 71 83 12 bc b5 cc a1 be
       0.088346936 -0.20242019 -0.008942471 -0.31601492
000320 42 9a c9 3e f2 6a 18 3d 6d 0b 88 be 9a 81 80 3e
       0.39375502 0.037211366 -0.26571217 0.25098878
000330 ed d1 a1 be e3 cd 03 3f 7f cc 17 bb e2 21 c3 be
       -0.31605473 0.51486033 -0.002316266 -0.38111788
000340 ef 0c 49 3e ac 3b 09 be bb ad 15 be 7a 96 10 3c
       0.1963384 -0.1340167 -0.14617054 0.008824939
000350 e4 41 79 3e 5c 52 7b 3e 36 5d 18 be f6 2b 79 be
       0.24341542 0.24543136 -0.14879307 -0.24333176
000360 fb ba 99 be d6 f0 bc 3e dd 15 34 be 75 4e 47 3d
       -0.30025467 0.36902493 -0.17586465 0.048658807
000370 b3 cc 56 be 55 27 09 3e 41 e2 c4 bd 8a d1 60 3e
       -0.20976524 0.1339391 -0.09613467 0.21954933
000380 dc 36 47 be 8b 9c 53 be f9 cd 3a be 74 87 18 3e
       -0.19454521 -0.20665185 -0.18242635 0.14895421
000390 40 e2 dd 3b 67 dc 8b 3e e3 b8 fb 3c 58 fe 65 be
       0.006771356 0.2731659 0.03072781 -0.22460306
0003a0 52 55 8a bd 10 17 84 bc 92 4d be bc b8 da 6f be
       -0.06754555 -0.016124278 -0.023230348 -0.23423278
0003b0 af 9c ca 3e 51 e3 dc bd 54 db 20 be 89 10 ca be
       0.39572665 -0.10785545 -0.15708667 -0.3946574
0003c0 f3 10 4a 3e 72 20 db 3e 35 50 6a 3d 1b 14 8d 3e
       0.19733028 0.4279819 0.057205398 0.27554402
0003d0 f2 de 72 be 63 ea 62 bd b2 fc a4 bd f3 ab 82 3e
       -0.2371786 -0.05539931 -0.0805601 0.25521812
0003e0 88 e5 93 3c 5b 28 88 bd 49 27 b1 be ec 4e b9 be
       0.018053785 -0.06648322 -0.34600285 -0.36193025
0003f0 53 4f 15 be 6e dc 92 3d 54 36 93 be a5 fd 16 bd
       -0.14581041 0.0717095 -0.28752387 -0.036862988

critic.2.bias f4 [64]
000000 8d 91 0b 3e c3 d5 9d bd ef 93 ff 3d 8f 8c 15 3c
       0.13629742 -0.077067874 0.12479388 0.00912775
000010 d6 64 0c 3c 03 53 99 bd 82 0e e4 bd fe c9 1a bd
       0.008568963 -0.07486536 -0.1113558 -0.03779029
000020 e0 78 2e be 56 4c 42 3d 40 41 fb bc a7 b5 1b bd
       -0.17038298 0.04743608 -0.030670762 -0.038015034
000030 d4 57 da 3c 65 1d fa 3d 78 4c 6e 3d 3b 47 e0 bc
       0.026653208 0.12212638 0.058178395 -0.027377715
000040 8e 69 f1 bd 93 77 d1 3d 2d f1 80 3d 69 2b ad bd
       -0.11787711 0.10227885 0.06296001 -0.084555455
000050 5e a1 2e 3e e8 7c 96 3d cd 38 a4 3d 34 a8 f8 bd
       0.17053744 0.07348043 0.080186464 -0.12141457
000060 3b 96 d9 3d 77 3d 01 3e 98 50 3d 3d 13 18 3d 3e
       0.10624357 0.12621103 0.04621944 0.18466215
000070 04 00 37 3d be 0a eb 3d 1e 9d 90 bc 2c 7b 49 3d
       0.04467775 0.11476658 -0.017653044 0.04918973
000080 ad ee e3 3d b8 41 60 bd 1e 37 f0 bd 98 6d 78 3d
       0.11129508 -0.054750174 -0.11729263 0.06065139
000090 2d 2b b1 bc 66 4b 26 3e 80 27 0a 3e 62 1d f8 bd
       -0.021627033 0.162397 0.1349163 -0.12114979
0000a0 f7 b2 49 3d 48 48 ff 3b 64 ab 84 3d b9 16 f7 bc
       0.04924294 0.007790599 0.06478003 -0.030162202
0000b0 47 b0 03 be 3d d0 47 be 5c cf 14 3e ab 40 54 bc
       -0.12860213 -0.1951303 0.14532226 -0.012954871
0000c0 d9 bb 2d be d3 68 0c bc bb 0e 47 be 2f 11 0e 3e
       -0.1696619 -0.008569914 -0.19439213 0.13873743
0000d0 43 d5 03 be 7f 9d c6 bd c4 44 05 be 81 37 18 3e
       -0.12874322 -0.09698009 -0.13014513 0.14864923
0000e0 81 f9 d7 bc 0b 51 ae 3d 61 b7 0f be 00 84 59 3e
       -0.02636409 0.085115515 -0.14034797 0.2124176
0000f0 5e 39 db bd 8e c2 70 be 0e b2 00 3d 76 75 84 3d
       -0.10704301 -0.23511717 0.031419806 0.064677164

critic.4.weight f4 [1, 64]
000000 f2 a4 9c be e0 48 d2 3f 9d 64 07 3f 05 c6 83 be
       -0.30594593 1.642849 0.528879 -0.25737014
000010 3a de 8a bd 7b db 47 bd ab b8 d0 bd 49 40 17 bd
       -0.067806676 -0.048793297 -0.101914726 -0.03692654
000020 a7 de d4 bf b3 49 50 3f 4d 4a 54 be bc b7 cd 3f
       -1.6630448 0.81362456 -0.20731468 1.6071696
000030 3b c7 72 be 2f 83 b5 be f8 82 4a be 11 b7 36 bc
       -0.23708813 -0.35451648 -0.19776523 -0.011152045
000040 1a bc 8f 3c 7b dd 1c 3f 67 0c 68 3e 2c 25 5e be
       0.017545749 0.6127545 0.22660981 -0.21693867
000050 4c 0c 49 3f 04 3e eb 3e 6a 5d 04 3f ee f8 8b 3e
       0.7853439 0.45945752 0.5170504 0.27338356
000060 42 45 0c 3f 83 15 f2 3e e6 56 c3 3e c2 06 8c 3f
       0.5479318 0.47282037 0.38152236 1.0939562
000070 cd 60 90 3e d9 14 a5 be 64 0d 83 bc b2 b3 98 be
       0.28198853 -0.32242468 -0.015997596 -0.29824597
000080 b1 b3 cc be c0 8b ea 3b 27 00 cb bd 49 1d 6d bd
       -0.39980844 0.007157773 -0.099121384 -0.057889257
000090 b8 d9 07 3e 96 3f be 3e 65 c7 04 3f fb cd 13 bc
       0.13266647 0.37157887 0.5186675 -0.009021278
0000a0 15 da 02 3f 57 95 f4 3e 58 2c 60 be 80 8d 20 3f
       0.51114017 0.47770187 -0.21891916 0.6271591
0000b0 c6 3e c6 be 72 18 90 be d8 f8 73 be 03 3d 74 be
       -0.38719767 -0.2814365 -0.23825395 -0.23851399
0000c0 3c 6c 35 be e8 3f db 3d 7d 1e 58 bf f2 4e 93 be
       -0.1771707 0.107055485 -0.8442152 -0.28771168
0000d0 06 b9 8c 3d d8 52 d5 3d e5 a9 d4 bb 36 9b 57 be
       0.06871228 0.10416192 -0.0064899796 -0.21055302
0000e0 81 df 2e bf 6f e2 5e be b6 e4 e2 bc e8 f5 01 3f
       -0.6830979 -0.21766065 -0.027696948 0.5076585
0000f0 e1 e3 60 bd 39 71 3a bf 2d b1 46 be f0 80 8b be
       -0.054904822 -0.72829014 -0.19403525 -0.2724681
