HAC Baseline/preTrained/MountainCarContinuous-h-v1/2level/HAC_MountainCarContinuous-h-v1_level_0_crtic.pth (torch, 20439 bytes, 5 tensors)

critic.0.weight f4 [64, 5]
00000000: 0600 2e3e af1c a140 a451 253c 85b5 2ebf
00000010: da8b 2a40 f6af d6be a0a2 6640 2dd2 033c
00000020: 2244 973e 6d30 1b40 93f3 713e 137a 99c0
00000030: 7442 43b9 207d 0f3f 00da 3740 7593 ab3e
00000040: 344e e6bf ad58 20ba 8fca 493e 3694 8740
00000050: ce43 e23d 8fcc d5be ccbb 9abe 6676 e53d
00000060: 10c4 653e 20ec 2a3f c278 5a3f 1312 0b3c
00000070: d2d9 4abc a0e1 e3bf 016f 0e3f 709c f2be
00000080: 8412 d8ba 3fec b1be 37c7 23bf 8213 e43d
00000090: 36bd d23d 5c4a 03bb d2a0 79be ac3e 46bf
000000a0: 2e0c a03f 6ab8 3b40 04d9 1e3c 3ebd 6b3d
000000b0: ea18 0c40 d3d9 44bf 9113 33bf 6ae9 16ba
000000c0: 6cc8 203f 6720 4f3f 8b9f 0fbf 3b44 a23e
000000d0: 4ac8 e13b 42e9 b33e 9922 b3be 7d5a d6bd
000000e0: ef97 d5bf 1875 21bc c345 9d3e 2da0 43c0
000000f0: 5cfb 9e3e 0e0f 85c0 67f4 d8bb 8c39 28bf
00000100: 657d fc3f f50b 02bf b685 1240 3bca 323b
00000110: 884d 333f f44d 1f3f 3aa3 54be 2d55 76c0
00000120: b8d1 63ba 48f8 b03e 2d4c 443f cc32 34bf
00000130: c9c7 d93f 6115 c53b f639 583f 8df9 393f
00000140: 66f1 2c3e d4a4 6740 3cf0 8a3b bfff 4a3e
00000150: f9a5 743d b308 96bd ff06 8440 6f5a c83b
00000160: 5e9f 833c d82b 5d40 25bd 35be 99b5 973d
00000170: a5ab b0bc 57fa a83e a865 fd3f a7a5 4d3e
00000180: 620b 92c0 f289 d6b8 4b8c 1b3d 053a 69c0
00000190: 9f22 103f bb2b dfbf 8192 bdbb 5184 703e
000001a0: fa3b 88c0 13c0 f6be 0d9e 31c0 7516 00bd
000001b0: 24f2 ff3e 3bad 9fbf bfa6 1e3e b837 0740
000001c0: 053f 753b c4e5 debe 1dee 1840 52c6 77be
000001d0: b358 023e 3203 f43b 249a 203f 26de ea3f
000001e0: ef3d 6abe e6c4 623f e84c 533b 3d1a cd3e
000001f0: b737 203e 0ebf 873c 28b3 08c0 918d eb3c
00000200: abc4 833e 95a5 31bf 942c e73e f2c1 5dc0
00000210: f86f 1bbb 030d b1bd 8191 53c0 4b02 8f3e
00000220: 742b b43f 8940 b23b 4a30 e3bd 9085 dbbf
00000230: 1fab 163f 3f81 c33f d729 a53e 7e98 fc3d
00000240: f827 853d b69a bc3e 3336 dfbe 3130 c03d
00000250: 6ecd a7be 1fcb c8be 07b3 28bf 810c 84bf
00000260: a52e 313b 0c7d 933d e285 c3bf d51a 3d3e
00000270: 94cf 7d3f ade2 67bb a435 093f ab59 953f
00000280: 21be 37bf 5adb 94bf e3b0 a0ba 2cd3 133f
00000290: 7cc4 b4bf d47c 003e 32de d140 ed69 043c
000002a0: a025 39be 5296 5cc0 dee0 ea3e 0bfb 7c3f
000002b0: 6c47 b43b c7dd cc3e 74c9 573f 1e58 90be
000002c0: 0bc6 e33d 4655 b7ba b8ae 903d cdd8 93c0
000002d0: 0439 373f e610 8f40 f6b9 a13a 4967 2ebc
000002e0: 58c8 28bf 3338 cd3d ba84 403f b714 3cbe
000002f0: 3b8c 773e 6377 183f 82d2 dd3e 5cc2 f53f
00000300: 12e2 573d 1703 14be e3e0 273e 1660 53be
00000310: 918f 4abf 7693 14bc ef55 223f e800 3bc0
00000320: f6b9 a2bd 644e 40bf db4a 4fbc d336 193f
00000330: e68b 0b40 dec5 0abf 470c 2940 fe9e 1cba
00000340: 5153 073f ca8a 4dc0 104e 3c3f ac96 98bf
00000350: f28d 853c 7e16 39be 2094 88bf 1113 223f
00000360: c7be 5ac0 1454 4abb f994 3fbf 168c 01c0
00000370: 19b9 0ebf eb7f a93f 7432 fcbb 6aee 9a3f
00000380: c493 1f3f 9a01 f1bd 2b97 6bc0 b96d 12bc
00000390: f69b 78be 860f 66bf 4805 7ebe 7547 bebf
000003a0: 936b 1dbe cee6 063e 53b5 3ac0 d526 183e
000003b0: 3f70 dbbe 1e39 0dbe e31d 473e 8f2c 933c
000003c0: 03f0 b73c ebb6 443f 0fb5 de3b d2ba e53b
000003d0: 7759 f5be 5fa7 953e aaa8 f8bf 0cc3 47bc
000003e0: 917e 683f 192f 6c3e ae0b 1dba 44f4 28c0
000003f0: c197 1c3b fb4e 883a 4fe2 bdc0 917a 58bf
0.16992196 5.0347514 0.010090265 -0.68245727 2.6647859 -0.41931123 3.6036758 0.008045715
0.2954417 2.4248307 0.23628072 -4.7961516 -0.00018621405 0.560503 2.8726807 0.33510938
-1.7992616 -0.00061167293 0.19706176 4.236842 0.11048089 -0.41757628 -0.30221403 0.11204223
0.22438073 0.6676655 0.8534051 0.008488196 -0.012381034 -1.780323 0.5563813 -0.47384977
-0.001648501 -0.34750554 -0.6397585 0.11136533 0.10289995 -0.0020033335 -0.24377754 -0.7743938
1.2503717 2.9331307 0.009695295 0.057553522 2.1890206 -0.76894873 -0.6995173 -0.00057568273
0.6280582 0.8090882 -0.5610282 0.3169268 0.0068903314 0.351389 -0.34987333 -0.10466478
-1.6686991 -0.0098545775 0.30717286 -3.0566514 0.31051147 -4.1580877 -0.006620932 -0.6571281
1.9725767 -0.50799495 2.289411 0.0027281183 0.7004018 0.6222832 -0.20765391 -3.8489487
-0.00086906133 0.34564424 0.76678735 -0.7039001 1.7014095 0.0060145115 0.8446344 0.7264641
0.16888961 3.6194353 0.004240064 0.19824122 0.059728596 -0.07325878 4.125854 0.006114296
0.016067203 3.455801 -0.17747934 0.07407684 -0.021566221 0.33003494 1.9796648 0.20082723
-4.5638895 -0.000102300095 0.03797559 -3.6441662 0.5630283 -1.743522 -0.005785287 0.23487975
-4.2573214 -0.48193416 -2.7752717 -0.031271417 0.49989426 -1.2474741 0.15493296 2.1127758
0.0037421596 -0.43534672 2.3895333 -0.24196747 0.12729149 0.00744667 0.627352 1.8349044
-0.22875188 0.88581693 0.0032241885 0.4005908 0.15646254 0.016570594 -2.1359348 0.028754028
0.25735983 -0.69393283 0.45151198 -3.4649625 -0.0023717862 -0.0864506 -3.3057559 0.27931437
1.4075761 0.005439822 -0.11093195 -1.7150135 0.5885486 1.5273818 0.32258484 0.12333773
0.06501764 0.36836785 -0.43596038 0.09384192 -0.32773918 -0.3921747 -0.65898174 -1.0316316
0.002703586 0.07201585 -1.5275233 0.18467267 0.99144864 -0.0035382912 0.53597474 1.166799
-0.7177449 -1.1629441 -0.0012259748 0.577441 -1.4122462 0.12547618 6.5583735 0.008081895
-0.18080759 -3.4466748 0.45874685 0.9882056 0.005501678 0.40012953 0.8429177 -0.28192228
0.11121758 -0.0013987205 0.07064575 -4.620215 0.71571374 4.470813 0.0012338746 -0.010644742
-0.659307 0.10020485 0.75202525 -0.18367277 0.24174587 0.5955717 0.43324667 1.9199939
0.05270583 -0.14454304 0.16394381 -0.20642123 -0.79125315 -0.009068361 0.63412374 -2.9219303
-0.079456255 -0.75119615 -0.012652124 0.5984928 2.1804137 -0.5420817 2.6413743 -0.00059746194
0.52861506 -3.211596 0.73556614 -1.1920981 0.016303036 -0.18074986 -1.0670204 0.63310343
-3.4178941 -0.0030872868 -0.7483669 -2.0241752 -0.55751187 1.3242162 -0.007696444 1.2104008
0.6233485 -0.117678836 -3.6811016 -0.008937293 -0.24278244 -0.89867437 -0.24806702 -1.4865557
-0.15373068 0.13173983 -2.9173172 0.14858563 -0.42859074 -0.1379132 0.19444995 0.017965583
0.022453314 0.7684161 0.006796486 0.007010796 -0.4791982 0.29229257 -1.9426472 -0.012192499
0.90818125 0.23064841 -0.0005990815 -2.6399088 0.0023894163 0.0010399515 -5.9338756 -0.8456202

critic.0.bias f4 [64]
00000000: 3b1b b2bd 1637 88bd a0ae 82bd 25bc 713e
00000010: 323a e3be 10f6 b63e 615b c83e 4e26 b6be
00000020: 59a2 9a3d cdb8 223e 7f6f fbbe 3623 a23c
00000030: dfae 8dbe ccd3 d93d 426a b7be 3be7 963d
00000040: 259b a73e 761c 8ebc bdd4 143e 044b a2bd
00000050: 2909 7f3e dbac 96be 0851 b7bd fbfc d13d
00000060: 788e 0abf cfea 99be cc9e 323e be98 adbe
00000070: 5a4c cebe 030a 1ebf 19c7 18bf 55c1 d63e
00000080: 61cf 94be a285 17bd 0f3d 273f 7553 05be
00000090: 65ba 8f3e 44be 66be d58a e4be 6beb acbd
000000a0: 1f4b 9d3e 974e ac3a 6c46 dc3d a5bc 25be
000000b0: 044b e93d 8992 05be 2669 47be 9be9 a7be
000000c0: 2965 d2bd 3dc1 393e 4a43 c0bb 7644 adbe
000000d0: 2327 093e ba74 12bf ffe6 1b3f 22b0 813e
000000e0: f453 73bd b344 55bd dbdf 27be 7d24 edbe
000000f0: 855f d0be d134 34be f44b 21be c1c7 483b
-0.086966 -0.06651132 -0.06380963 0.23606928 -0.44380337 0.35734606 0.39132217 -0.355761
0.075504966 0.15890808 -0.49108502 0.01979218 -0.2767248 0.106361 -0.35823256 0.073683225
0.32735553 -0.017347556 0.14534278 -0.07924464 0.24905838 -0.29428753 -0.08951002 0.1025333
-0.5412364 -0.30061957 0.17443389 -0.33905596 -0.40292627 -0.61734027 -0.596788 0.41944376
-0.29064468 -0.036992677 0.65327543 -0.13020118 0.28071895 -0.22533518 -0.4463717 -0.0844334
0.30721375 0.001314598 0.107556194 -0.16185243 0.11391261 -0.1304418 -0.19473705 -0.32795414
-0.10273201 0.18140121 -0.0058673965 -0.33841294 0.13393836 -0.5720936 0.6089935 0.2532969
-0.059406236 -0.05206747 -0.16393988 -0.463169 -0.40697876 -0.17598273 -0.1575163 0.003063664

critic.2.weight f4 [64, 64]
00000000: 3acf 4ebe 2778 23be c2c0 8c3e 44ea 99bd
00000010: bc0d 4f3d dd8d 38be 7c24 d5bc b1c2 06be
00000020: 8f1a 5bbe 5ce5 cfbd c8c1 6f3c 57cd 983d
00000030: 9ca0 adbd 3491 b03c be93 a5bd f3e2 98bd
00000040: 4de4 eebd 9253 e6bd 37f8 b3bd e5e3 91bd
00000050: a0eb 08bd b52a 763e 8800 82be 4508 2e3d
00000060: 3e10 17be f353 7c3e 3fa1 573d ba79 653d
00000070: eb65 093e 02c4 d7bd 4c16 f7bc 7c02 d7bd
00000080: db5a 00be d8c3 1ebe e230 c4bd 12a4 67bd
00000090: 3d93 47bc 678a 25be 157c fabd 6623 9b3d
000000a0: 62e6 85ba b594 e2bd 03c5 1ebe c91c 6d3d
000000b0: d040 bc3d 3a90 84bc c412 18be 1ff2 dabc
000000c0: 38ed 93bd 25ea 2b3c f066 80bd 3666 6dbe
000000d0: d437 1cbc ee0a 2cbe 7bc8 cbbd 08d4 00bd
000000e0: 0ed6 d23b a47c 2fbd 9b85 0e3d b21b ce3b
000000f0: d4be fabd 3953 3b3e f057 a4bc 94e2 30be
00000100: 1904 09bf f749 1d3f a4a2 8dbf e07c ffbf
00000110: 10c8 923c c6dc 193f 9cbc 17bf 8768 cdbe
00000120: 2ff0 6f3e ac6c 0f3f ed0c 1c3e 0e44 ddbe
00000130: 3185 bdbf ea8d 21bf 00bd f63d b833 92be
00000140: aee9 883d 33b9 b03e de33 2a3d 6e66 6abe
00000150: 9915 463f 2c60 bf3d cd7d 59bf 1088 363e
00000160: 419a 353e 5b1e 1cbf f8cb 1a3e b182 04bf
00000170: 9faf 2a3e dc80 6fbe d621 3a3e a6de 99be
00000180: b31d b23d 9a45 fdbe 1bcc 78be 6d2c 623e
00000190: fb21 df3e bc09 8e3d f3a3 9ebe 776e 4fbf
000001a0: c4a4 203c 7da5 a2bf bbb9 02be 9f05 c2be
000001b0: bc53 6dbf 0fea bcbe e046 3a3d 47cd 133d
000001c0: 0b64 323d 33f0 d63d 3414 3b3f 3504 7a3f
000001d0: ad53 75be 9203 2b3d 5e90 2c3f d092 b7be
000001e0: c2c2 d53e b96f 853f 7b74 afbe c69b c2bd
000001f0: b274 0e3e 8421 48bf cb44 0ebf 8800 46c0
00000200: c42b e6bd b8bb 8d3c 4024 673b 5093 763d
00000210: b80e a2bc a6f7 a13d e0a8 f7bc a25e eabd
00000220: 3874 1bbd 208b ecbc c82d b73d a4b8 4d3d
00000230: 8c69 08bd 5cf4 e9bd 7096 e33c 1681 bdbd
00000240: f077 cabd 0cd5 86bd c041 6b3d e0c3 4ebd
00000250: 841a 8a3d 242c 843d 54ce 27bd 10bc 373c
00000260: 48b4 d6bd 00f6 9ab9 c00e 753c c4dc 353d
00000270: fc29 d73d 341b 123d bcbd c6bd 54d0 a8bd
00000280: 1a77 a93d 2e52 8fbd 8e01 e23d 5c91 d9bd
00000290: b8d4 96bc b0c2 fd3c 4034 f03c 9664 e7bd
000002a0: 00ca e7bb 4019 b4bc 3c97 14bd cc6e 40bd
000002b0: cc1f 9fbd 6a16 abbd b008 46bc b46b 463d
000002c0: 080f 4f3d c0d1 ad3b b06f 8cbc 74ba a7bd
000002d0: 7eb9 9b3d 60e7 dabd d064 7d3c c07c c8bd
000002e0: 4819 ddbd 688e 05bd 9c6f 0cbd cedd 8c3d
000002f0: 605e 0dbc 3c45 2ebd d00a 6cbc 74f0 78bd
00000300: 100f 41be 5ae0 d1bd f0c6 e53d b451 e9bc
00000310: 009d 4dbb 2da9 b4bc 243b e53c 5d38 1c3d
00000320: dcde 40be 11a7 4b3c 156e f0bd 3400 aa3d
00000330: d2fe cf3c 6cfc 2b3d faa6 033d f3b9 3bbe
00000340: d16a 2dbe 7fc0 52bd 39d1 9bbd ab22 ce39
00000350: 595e 2ebe b2bf 203e f6f4 16be ae6d 3d3d
00000360: 1751 813d 6308 6f3e f775 1c3d 6b40 293d
00000370: 2c43 c13c 34c3 3f3d 1991 653c 059e 23be
00000380: 5934 84bd 6ebd 3abe e9d5 73be d88a 24be
00000390: 17b6 2cbe 88ac a5bc 92bf 6e3d 85e5 aebb
000003a0: b071 92bd 9442 24bc 8c38 4cbe 4a80 0d3d
000003b0: 6422 ac3d 76a6 aebc a3bd 31be 587e 2abd
000003c0: ed0d 0fbe 98f2 26be 9bc3 943b f2cb 1abe
000003d0: fdb0 0d3c 7fc6 39bd 71ee 5fbe e361 19be
000003e0: 689f fbbb e87e ad39 af6c 263e ab4f ef3d
000003f0: 29a5 a1bd 637a 4c3e 61d8 d0bd b5c3 8dbe
-0.20196238 -0.15963803 0.27490813 -0.07515386 0.050550207 -0.18022867 -0.026018374 -0.13160206
-0.2139685 -0.10151169 0.014633603 0.074610405 -0.084778994 0.021553613 -0.0808482 -0.07465162
-0.11664639 -0.112464085 -0.087875776 -0.071235456 -0.033427835 0.24039729 -0.2539103 0.042488355
-0.1475229 0.24641399 0.05264401 0.05602429 0.13417785 -0.105354324 -0.030162 -0.10498521
-0.12534659 -0.15504396 -0.09579636 -0.056552954 -0.0121811 -0.16166078 -0.12230698 0.07575111
-0.0010215754 -0.1106352 -0.15504842 0.05788878 0.091920495 -0.016182054 -0.14850909 -0.02672678
-0.0722298 0.010492836 -0.06269634 -0.23183522 -0.009534795 -0.16801044 -0.09950348 -0.03145221
0.0064342087 -0.042843476 0.034795385 0.0062899226 -0.12243429 0.18293466 -0.020061463 -0.17273933
-0.5352188 0.61440986 -1.1065259 -1.9959984 0.017917663 0.601025 -0.5927217 -0.4011881
0.23431467 0.56025195 0.15239306 -0.43215984 -1.4806272 -0.6310717 0.12047768 -0.28555083
0.06685196 0.34516296 0.04155337 -0.22890636 0.77376705 0.09344515 -0.8495758 0.17825341
0.17734624 -0.6098382 0.1511687 -0.5176192 0.16668557 -0.23389 0.1817697 -0.3005268
0.08697071 -0.49467164 -0.2429661 0.2208726 0.43580613 0.069354504 -0.30984458 -0.8102793
0.009804908 -1.2706753 -0.12766163 -0.37894914 -0.92705894 -0.36897323 0.045477748 0.03608444
0.04355244 0.10495033 0.730777 0.9766267 -0.23957701 0.04175145 0.67407787 -0.35854197
0.4175015 1.042472 -0.34268555 -0.09502368 0.13911703 -0.7817614 -0.5557372 -3.0937824
-0.112388164 0.017301425 0.003526941 0.060199082 -0.01978241 0.07908563 -0.030231893 -0.11443831
-0.03795263 -0.028874934 0.08944279 0.050224915 -0.033303782 -0.11423561 0.027781695 -0.09253137
-0.098861575 -0.06583604 0.05743575 -0.05047977 0.06743339 0.06453732 -0.040968254 0.011214271
-0.10483605 -0.00029556453 0.01495713 0.04439999 0.10506055 0.035670474 -0.09704158 -0.082428604
0.0827467 -0.069980964 0.11035453 -0.10623428 -0.01841198 0.030976623 0.02932179 -0.11298482
-0.007073641 -0.021984696 -0.03627704 -0.046980664 -0.07769737 -0.083538845 -0.012087032 0.048442557
0.050551444 0.005304545 -0.0171431 -0.0818986 0.07603739 -0.106886625 0.01546593 -0.09789419
-0.10795838 -0.032606512 -0.034286126 0.068782434 -0.008628458 -0.042546496 -0.014406875 -0.06077619
-0.18853402 -0.1024787 0.11219585 -0.028481342 -0.0031374097 -0.022053326 0.027982302 0.03813969
-0.18835014 0.012429968 -0.117397465 0.0830082 0.025390062 0.041988775 0.032141663 -0.18332653
-0.16935278 -0.05145311 -0.076082654 0.00039317211 -0.17028178 0.15698126 -0.14741883 0.046247177
0.06314295 0.23343043 0.038198438 0.0413212 0.0235916 0.04681702 0.014011645 -0.15978248
-0.06455297 -0.18236324 -0.23812069 -0.1606859 -0.16866337 -0.02022387 0.058288164 -0.0053374195
-0.071505904 -0.010025639 -0.19943446 0.034546174 0.08404997 -0.02131961 -0.17357497 -0.041624397
-0.13970156 -0.1630348 0.0045399196 -0.15116861 0.008648154 -0.045355316 -0.21868302 -0.14978747
-0.007678915 0.00033091684 0.16252397 0.11685117 -0.0789283 0.19968562 -0.10197521 -0.27688375

critic.2.bias f4 [64]
00000000: 50ed 4cbd a194 383e 72fe b3bd dc25 f3bd
00000010: e198 11be 2b3c e73e b8fe 93bd 5688 6d3e
00000020: 3f48 25bf 2e90 e4bd 634e 8dbd aad6 573d
00000030: 474a 16be f281 18bd f0bd 88bd ca63 9b3d
00000040: 60b6 b5bd ad68 41bf 8748 903d 6ba4 eabc
00000050: d05d 1abe 12a1 01be e524 5c3e c64c 003d
00000060: f609 11be 3c57 e4bd 693a 9bbd 8b01 b7bd
00000070: e4f7 953d 666e a0bd 7924 0cbe f013 dcbd
00000080: e983 1ebe 4573 ae3d 0aa9 9abd a33c 913d
00000090: 02bd 34bc c377 e8bd 6250 c4bd 0a5b ad3e
000000a0: 6fbc e1bc b5f4 f3bd a6ee b2bd 9124 053e
000000b0: d5e8 bbbd 3067 203e 075a d63d 8e18 2c3d
000000c0: 5b18 2dbd 4c55 82bd 3dad a0bd 6c18 15be
000000d0: 440b d13d c85f 9abe 5066 fbbd faee abbe
000000e0: 500c 99bc d03c 103e d29e 8f3d 23cf 01bd
000000f0: 14b7 0abe 8720 213a cf05 71be a278 8f3e
-0.050031006 0.18025447 -0.08788766 -0.118724555 -0.14218475 0.45163092 -0.07226318 0.2319654
-0.64563364 -0.111603126 -0.06899717 0.052694954 -0.14676772 -0.0372333 -0.06676853 0.07587393
-0.08872676 -0.7555035 0.070450835 -0.028642854 -0.15074849 -0.126591 0.21498449 0.031323217
-0.14163956 -0.11149451 -0.075795 -0.08935841 0.07322672 -0.07833557 -0.13685788 -0.1074599
-0.15480007 0.0851808 -0.07551773 0.07091644 -0.011031391 -0.11350968 -0.09585644 0.3385852
-0.027555672 -0.119119085 -0.08736925 0.1300223 -0.091752686 0.15664363 0.1046639 0.042015605
-0.042259555 -0.06363925 -0.078455426 -0.14560097 0.10207227 -0.301512 -0.12275374 -0.33580762
-0.018682629 0.14085698 0.070127144 -0.03169168 -0.13546401 0.00061465095 -0.23537372 0.28021723

critic.4.weight f4 [1, 64]
00000000: 4b0e 083e 1838 05c0 ac2e 103d 81b0 a13e
00000010: c63c c43c ffe8 763f a597 b13d 1469 e1bf
00000020: 1d78 84bf e84c 553f 58ec 82bd 98d1 5fbf
00000030: 016b 43bd 1d63 873f d49d 793d bdcf 2b3f
00000040: 21aa bf3f 2563 62bf a559 0cbf e29d 843f
00000050: edd5 1b3e fafd 573e ae1e 153f e4f0 fa3e
00000060: 4ce8 503e 51ad 073d 2fee aa3f 4ff6 c5bd
00000070: caea debe 77fa cc3f e3d9 2e3d 1c30 dc3c
00000080: 5fcd 43bf 2519 313f 7e63 e53f b0e6 17bf
00000090: bc7b 743f 7ed0 fa3f 3696 25bc 6782 6dbf
000000a0: b228 7cbd 4df5 043e 8681 903f 3758 99bf
000000b0: 21d0 5e3f 443f bfbf d774 813f ba19 fd3f
000000c0: ee66 9d3f 3bba c93d 7a28 a03f 4c7d 0d3c
000000d0: 1ac5 91bf 3081 90bf ca6f a1bd 3da3 193f
000000e0: 4940 1d40 464b 81bf 8229 8bbf f598 8abf
000000f0: 3eb8 9e3e 4f19 273f fe41 7f3f 89b3 92bf
0.13286702 -2.0815487 0.03520076 0.31579974 0.02395476 0.96449274 0.08671502 -1.7610192
-1.0349156 0.83320475 -0.06392735 -0.8742919 -0.04770947 1.0577122 0.060941532 0.6711386
1.4973794 -0.8843253 -0.54824287 1.0360682 0.15218325 0.21092978 0.5824994 0.4901191
0.20401114 0.03312427 1.3353938 -0.0966612 -0.43538505 1.6013936 0.04268826 0.02687841
-0.76485246 0.6917899 1.7920988 -0.59336376 0.95501304 1.9594877 -0.010106614 -0.92777103
-0.061562248 0.129842 1.1289527 -1.1980046 0.8703633 -1.4941182 1.0113782 1.9773476
1.2297037 0.09849974 1.2512352 0.00863583 -1.1388276 -1.1289425 -0.0788265 0.60014707
2.4570487 -1.0101097 -1.0872042 -1.0827929 0.3099994 0.6527299 0.9971007 -1.146104
