HAC Baseline/preTrained/MountainCarContinuous-h-v1/2level/HAC_MountainCarContinuous-h-v1_ou_solved_level_1_actor.pth (torch, 20439 bytes, 6 tensors)

actor.0.weight f4 [64, 4]
0	0xbe628709	-0.22121824
1	0xbff315ff	-1.8991088
2	0x3eceb01d	0.4036874
3	0xbe773bd0	-0.2414391
4	0xbd883fd2	-0.06652798
5	0xc02f94cb	-2.7434566
6	0xbe083eea	-0.1330525
7	0x3f328711	0.69737345
8	0xbe88e943	-0.26740465
9	0x3fdf90ba	1.7466042
10	0x3df382be	0.118901715
11	0x3e4e022a	0.20118013
12	0x3e642a06	0.22281656
13	0xc01ba5a2	-2.4319844
14	0xbe9433cd	-0.2894577
15	0x3f5e323d	0.8679541
16	0x3e44349d	0.19160695
17	0x4006396f	2.0972555
18	0x3d799ad4	0.06093867
19	0xbee23383	-0.44179925
20	0xbe2757a6	-0.16342029
21	0xbfb554e9	-1.4166538
22	0xbf059296	-0.521768
23	0x3f824802	1.0178225
24	0xbdbbaca2	-0.091637865
25	0xc02cfd98	-2.7029781
26	0x3d31ff00	0.043456078
27	0x3e27ff0a	0.16405883
28	0xbda60ae1	-0.08107544
29	0x4007bea5	2.121011
30	0xbd346c23	-0.04404844
31	0xbf1d7bce	-0.61517036
32	0xbd8079a8	-0.06273204
33	0xc01e1e3b	-2.4705951
34	0xbeb14a67	-0.34627077
35	0x3f2939e7	0.66103977
36	0x3ee204ca	0.4414428
37	0xc03a495b	-2.9107273
38	0x3ebeefb7	0.37292263
39	0x3e4a3de1	0.19750167
40	0x3ecc882d	0.39947644
41	0xbf77e4d6	-0.9683355
42	0xbf14d143	-0.5813181
43	0xbf03035d	-0.51177007
44	0xbe49d060	-0.19708395
45	0x3f3ecad1	0.74528223
46	0xbe8b752b	-0.2723783
47	0xbf54ec73	-0.8317329
48	0xbd901ea0	-0.07037091
49	0x3febbd58	1.8417158
50	0xbd2faa4c	-0.042887017
51	0xbf36a602	-0.7134706
52	0x3dbea650	0.09309065
53	0x3fd626d8	1.6730604
54	0x3e190883	0.14944653
55	0xbefe9b60	-0.49727917
56	0xbe96ee04	-0.29478467
57	0x400e6d14	2.2254076
58	0xbe663233	-0.22480087
59	0xbe776069	-0.24157871
60	0x3f1ddc01	0.61663824
61	0x3f611c5a	0.87933886
62	0xbe07787b	-0.13229553
63	0x3ed2edf6	0.41197175
64	0xbe89014f	-0.2675881
65	0xbff6a9f5	-1.9270617
66	0xbdcc0308	-0.09961516
67	0xbe35562e	-0.17708656
68	0x3d93b578	0.07212347
69	0xbd0ad980	-0.03389883
70	0xbf4d42a4	-0.8017981
71	0xbe65462d	-0.22390051
72	0xbca2c8f4	-0.019871213
73	0x3fc9b0e1	1.5757104
74	0x3ed9787a	0.4247473
75	0x3d9c4699	0.07630653
76	0x3db4512f	0.08804547
77	0xc039335c	-2.8937597
78	0xbeb57ad5	-0.35445276
79	0xbe3b0bfd	-0.18266292
80	0x3f20756e	0.62679183
81	0x3fc60f91	1.54735
82	0xbe9dc66d	-0.3081545
83	0xbf0e3ae4	-0.5555861
84	0x3e30a010	0.17248559
85	0x3fb569ba	1.417289
86	0xbea25f73	-0.31713447
87	0x3e476e56	0.19475684
88	0xbed70795	-0.41997972
89	0x3eb0467b	0.34428772
90	0xbf9276ae	-1.1442468
91	0xbf768ce9	-0.9630876
92	0x3ee5d230	0.44886923
93	0x3efab782	0.4896813
94	0x3e6010f2	0.21881464
95	0x3dc83760	0.09776187
96	0x3ea039a8	0.31293988
97	0x400b8764	2.1801386
98	0x3e758b5d	0.23978944
99	0xbd5a80cd	-0.05334549
100	0x3e20aa8e	0.15690061
101	0x3fef7ffa	1.871093
102	0xbddbc114	-0.10730186
103	0xbe92530d	-0.28578988
104	0xbead4025	-0.33838
105	0xc004c8e3	-2.0747612
106	0x3f0100ae	0.5039166
107	0xbe002594	-0.12514335
108	0x3ea22072	0.3166538
109	0x400f1585	2.2356884
110	0x3e069ea2	0.13146451
111	0x3e091bfc	0.13389581
112	0xbf13d381	-0.57744604
113	0x3f0f0600	0.5586853
114	0xbf230dbe	-0.63692844
115	0xbe59c9e2	-0.21268418
116	0xbf05d016	-0.5227064
117	0xbf1c4d5f	-0.6105556
118	0xbf5b6a14	-0.8570874
119	0xbf439eb5	-0.7641404
120	0x3e9bb944	0.30414784
121	0x3fd55c03	1.6668705
122	0xbe82b771	-0.2553058
123	0xbdfea2a8	-0.12433368
124	0x3e6d231e	0.23157927
125	0x3e38910a	0.18024078
126	0xbf3e5942	-0.74354947
127	0xbfa022e2	-1.2510645
128	0xbecfe5da	-0.4060505
129	0x401cc2ec	2.449397
130	0xbe216d86	-0.15764436
131	0xbe92f384	-0.28701413
132	0xbdeac341	-0.11463023
133	0xc0499f8e	-3.1503634
134	0x3f01961b	0.5061967
135	0xbe025e8e	-0.12731382
136	0x3e678aa0	0.22611475
137	0x3f984db1	1.189871
138	0x3e40614d	0.18787117
139	0x3eb17b60	0.3466444
140	0xbd985b4f	-0.07439291
141	0xbfbf1ed4	-1.4931283
142	0xbf18d317	-0.596971
143	0xbf3e300c	-0.74292064
144	0x3e6d660a	0.23183456
145	0x3fccc42c	1.5997367
146	0x3e578a2b	0.210488
147	0xbe3e22ed	-0.1856801
148	0x3ef33bcc	0.4750656
149	0x3f84537c	1.0337977
150	0x3dff7a53	0.12474503
151	0xbef960f0	-0.4870677
152	0x3d619520	0.055073857
153	0xbec7f330	-0.39052725
154	0xbc2eb180	-0.0106624365
155	0x3ef698ee	0.4816355
156	0xbeba4b13	-0.36385402
157	0x4014efc2	2.3271337
158	0xbdfb0820	-0.12257409
159	0xbde4334a	-0.11142595
160	0xbd8c05d9	-0.06837053
161	0xc01e8d0d	-2.477359
162	0x3e574430	0.21022105
163	0xbd31a6a9	-0.04337183
164	0x3ed0ea19	0.40803602
165	0x3fa9ebc6	1.3275077
166	0x3e13e1c6	0.14441594
167	0x3df21438	0.11820263
168	0xbec449db	-0.38337597
169	0xbf367efd	-0.7128752
170	0x3e83b702	0.2572556
171	0x3f14a483	0.58063525
172	0xbd2b2cbc	-0.04179071
173	0xbfeb4d94	-1.838305
174	0xbe1ebc30	-0.15501475
175	0x3c8343e7	0.01602359
176	0xbeef90f4	-0.46790278
177	0xbf90bc84	-1.130753
178	0x3afd545c	0.0019327509
179	0x3eb09415	0.34487978
180	0x3e4f8690	0.20266175
181	0x3ffffaad	1.9998375
182	0x3b8f0873	0.004365021
183	0xbf7fccd3	-0.9992191
184	0xbce88e6a	-0.02838822
185	0xbfbc7469	-1.4723026
186	0xbeba0d16	-0.3633811
187	0x3e7f895b	0.2495474
188	0xbbf5a500	-0.007496476
189	0xbd310680	-0.04321909
190	0xbd9a4a50	-0.07533705
191	0x3ee910a8	0.4552052
192	0x3d170793	0.036872458
193	0x3f4f5bab	0.8099925
194	0xbe15ce25	-0.14629419
195	0x3ee16ad1	0.44026807
196	0x3e370ec8	0.17876732
197	0x4000629b	2.0060184
198	0xbea67be8	-0.32516408
199	0xbe1ba47a	-0.15199462
200	0xbd6021fc	-0.05471991
201	0x400ddec7	2.2167222
202	0x3e9bcc89	0.30429485
203	0x3e57fe26	0.21093044
204	0xbda4cecb	-0.08047255
205	0xc02273d0	-2.5383186
206	0x3e7763f3	0.24159221
207	0x3ebbfed8	0.36717868
208	0xbdeb921c	-0.115024775
209	0xc055c338	-3.3400402
210	0x3ec3d826	0.38250846
211	0x3edd0663	0.43168935
212	0x3f197d69	0.59956986
213	0x3fc7096d	1.5549752
214	0xbeb0522e	-0.34437698
215	0x3de13eaa	0.1099828
216	0x3e979bc3	0.29611024
217	0xc04dbd6f	-3.214687
218	0xbe97ab20	-0.29622746
219	0x3d7f2f97	0.062301245
220	0xbdd622cd	-0.104558565
221	0xc03d2d94	-2.9559069
222	0x3ec88a88	0.3916819
223	0x3ec43d56	0.38328046
224	0x3ed4bc76	0.41550034
225	0xbd9a4718	-0.07533091
226	0x3e8958da	0.268256
227	0xbdb2d078	-0.087311685
228	0x3f05f67c	0.5232923
229	0x3fc3a472	1.528456
230	0x3e9d9047	0.30774137
231	0xbe821fca	-0.25414878
232	0x3e5d8e31	0.21636273
233	0x3eb06f52	0.3445993
234	0xbd725f8d	-0.059173156
235	0xbe3df469	-0.18550266
236	0x3e8b75c7	0.27238294
237	0x3fe58810	1.7932148
238	0xbe4a7ca0	-0.19774103
239	0x3db85bb6	0.090018675
240	0x3ea8c30e	0.32961315
241	0xbeecbe85	-0.46239105
242	0xbb664241	-0.0035134705
243	0xbf32e63d	-0.69882566
244	0xbde1a254	-0.1101729
245	0xbf0c52c9	-0.5481382
246	0xbed20e0b	-0.4102634
247	0x3dbb9db4	0.09160939
248	0x3e868121	0.26270393
249	0xc02f5faf	-2.740215
250	0x3e88a326	0.26686972
251	0x3efc0f36	0.49230355
252	0xbeb2084e	-0.3477196
253	0xbfeec1cf	-1.8652896
254	0x3da3d4fc	0.07999608
255	0xbe5ce492	-0.21571568

actor.0.bias f4 [64]
0	0xbcfe44a5	-0.031038592
1	0x3dee47a0	0.11634755
2	0xbe2d4720	-0.16921663
3	0x3e871daf	0.26389834
4	0x3e1a8809	0.15090956
5	0x3e39f581	0.18160059
6	0x3d6b25f5	0.057409246
7	0x3de90b0a	0.11379059
8	0x3e5aad3b	0.21355145
9	0x3de142f3	0.10999098
10	0xbd190383	-0.037356865
11	0x3e8234a9	0.25430802
12	0x3d956bb9	0.07295937
13	0x3df42fd6	0.119231865
14	0x3e0a06ff	0.13479231
15	0x3db53837	0.08848613
16	0xbc5f22fc	-0.013619181
17	0xbd6d9147	-0.057999875
18	0x3de4c370	0.11170089
19	0x3e6071e3	0.21918444
20	0xbc20e091	-0.009819166
21	0x3e92d6ab	0.28679404
22	0x3d8a34b0	0.067483306
23	0xbea3c859	-0.3198879
24	0x3e250f74	0.16119176
25	0x3da385fd	0.079845406
26	0xbe377828	-0.1791693
27	0x3e0f133c	0.13972181
28	0xbe52aad2	-0.20572975
29	0xbe609a19	-0.21933784
30	0x3ef73a34	0.48286593
31	0xbdcdd11f	-0.10049652
32	0xbd8a68c1	-0.067582615
33	0xbe0f5334	-0.13996583
34	0x3dd434bc	0.10361621
35	0x3e9d1f92	0.3068815
36	0x3dd6e15c	0.10492203
37	0xbe364554	-0.17799884
38	0xbe7e211c	-0.24817318
39	0x3e6fe423	0.23426871
40	0xbcd72e9c	-0.026267342
41	0x3e0ab5aa	0.13545862
42	0xbe86e113	-0.26343593
43	0x3df7cafd	0.12099264
44	0xbe1694d1	-0.14705206
45	0x3e59014b	0.211919
46	0x3e4eabdd	0.20182748
47	0xbec7ca22	-0.39021403
48	0x3d4ba2c7	0.049715783
49	0x3ee68e6b	0.4503053
50	0xbe079fe4	-0.13244587
51	0xbd448bc7	-0.047984865
52	0xbdc5a409	-0.09650428
53	0x3dee142e	0.11624943
54	0x3eb309b9	0.34968355
55	0xbdde86c2	-0.10865547
56	0xbefd7fba	-0.4951151
57	0x3c3cd62e	0.011525674
58	0xbe3e1a46	-0.1856471
59	0x3d160187	0.03662255
60	0x3ea754f6	0.32682008
61	0x3e53e1ee	0.20691654
62	0x3d316852	0.04331238
63	0xbd51848d	-0.0511518

actor.2.weight f4 [64, 64]
0	0x3eb26c07	0.34848043
1	0xbc998d45	-0.01874412
2	0x3b737179	0.0037146492
3	0x3d9dc017	0.07702654
4	0xbeab40b4	-0.33447802
5	0xbd877b8b	-0.06615361
6	0x3e84d9f0	0.25947523
7	0x3d801e2a	0.06255753
8	0x3cd06627	0.025439335
9	0x3f039822	0.5140401
10	0xbe1ed5f1	-0.155113
11	0x3e0d175a	0.13778439
12	0x3d79cc6d	0.06098597
13	0xbe37fa49	-0.1796657
14	0x3cc9540e	0.024576213
15	0xbd1a1986	-0.037621997
16	0x3e5054e9	0.2034489
17	0x3e926b4d	0.2859749
18	0x3e6f4cbb	0.23369114
19	0xbe19862a	-0.14992586
20	0xbe9edded	-0.3102869
21	0xbd3146f6	-0.043280564
22	0xbf766e6f	-0.9626226
23	0xbc12f873	-0.008970368
24	0xbe7457b8	-0.23861587
25	0xbdb13762	-0.086531416
26	0x3edf1238	0.43568587
27	0x3dc3df0a	0.09564026
28	0x3e1b438c	0.15162486
29	0xbee9cfd0	-0.4566636
30	0xbdfcef22	-0.123502985
31	0x3ea22801	0.31671146
32	0xbdac886f	-0.0842446
33	0x3ee1b39d	0.44082347
34	0x3dd12c18	0.10213488
35	0xbe503948	-0.20334351
36	0x3d587456	0.05284532
37	0xbbfa65dd	-0.0076415376
38	0xbdd5651a	-0.10419674
39	0x3c03c06b	0.0080414815
40	0x3ecce366	0.4001724
41	0x3e11b4bc	0.14229101
42	0x3eb5bfec	0.35497987
43	0xbbff9f40	-0.0078009665
44	0x3e90c448	0.2827475
45	0x3d7870f7	0.060654607
46	0x3d1a32d2	0.037646122
47	0xbdbffffc	-0.09374997
48	0xbdb606e4	-0.08888033
49	0xbe21300e	-0.15740988
50	0x3d9ac2cf	0.07556688
51	0x3e781051	0.24224974
52	0x3ef462cb	0.47731623
53	0xbe616dcf	-0.22014545
54	0x3eadd52f	0.3395171
55	0x3f0d8f6d	0.55296975
56	0x3d87db42	0.06633617
57	0xbf367fa2	-0.712885
58	0x3d6dbc28	0.058040768
59	0xbe35879c	-0.17727512
60	0x3e65566f	0.22396253
61	0xbcb1c0c4	-0.021698363
62	0x3ec22bdb	0.37924084
63	0x3e8ab630	0.27092123
64	0x3cc0d28d	0.023537898
65	0x3eb92b8a	0.3616603
66	0xbf8d4b2d	-1.1038567
67	0x3f14fc62	0.58197606
68	0xbea3f8bb	-0.32025704
69	0xbd2fbbb2	-0.04290361
70	0x3d263002	0.040573128
71	0xbf1c2d8f	-0.61007017
72	0x3dfb55d3	0.12272229
73	0x3f6249d9	0.8839393
74	0xbe5ab916	-0.21359667
75	0xbe118c8a	-0.14213768
76	0xbed478a7	-0.414983
77	0xbe387809	-0.1801454
78	0xbe992147	-0.299082
79	0x3e73ea56	0.23819861
80	0x3e08e581	0.13368799
81	0x3eb5a052	0.35473877
82	0xbd9d1b9b	-0.07671281
83	0x3df295eb	0.11845001
84	0xbec7c164	-0.39014733
85	0xbe2fa748	-0.17153656
86	0x3e04727c	0.12934297
87	0x3dec4938	0.11537403
88	0xbeaf3f7a	-0.34228116
89	0xbeb24aa7	-0.3482258
90	0x3e1b8df4	0.1519087
91	0x3cb7dfa8	0.022445515
92	0xbf5cf0d4	-0.86304975
93	0x3e100f67	0.14068376
94	0xbd96a62b	-0.07355913
95	0xbe8f737c	-0.28017795
96	0xbf31b35d	-0.6941431
97	0x3ec7b48d	0.39004937
98	0xbc5fc001	-0.013656617
99	0xbcb1f0a8	-0.0217212
100	0x3d8e2171	0.06939972
101	0xbee8a2f6	-0.4543683
102	0xbb1068c0	-0.0022035092
103	0xbeb5ab9c	-0.3548249
104	0x3ed79be2	0.42111117
105	0x3d21cc34	0.039501384
106	0xbe31493f	-0.17313097
107	0xbd0d895b	-0.03455482
108	0xbdacc09b	-0.08435174
109	0xbe64a391	-0.2232802
110	0xbd55c40a	-0.05218891
111	0xbbf7ee60	-0.0075662583
112	0xbe2cba24	-0.16867882
113	0xbe9e1304	-0.30873883
114	0xbef9d5d9	-0.48795965
115	0x3ea6c387	0.3257105
116	0x3f3d39de	0.73916423
117	0xbebbc0a6	-0.36670417
118	0x3f22a285	0.63529235
119	0x3f27c995	0.65541965
120	0xbc20a650	-0.009805277
121	0xbd82cf0f	-0.063871495
122	0x3d16910f	0.036759432
123	0xbf04dd16	-0.5189985
124	0x3ce70975	0.028202752
125	0xbda5e65b	-0.081005774
126	0x3f1827b4	0.5943558
127	0x3dc3f022	0.09567286
128	0x3e497dbe	0.19676873
129	0x3d8ec797	0.069716625
130	0x3ed2fdba	0.41209203
131	0xbfe69f0a	-1.8017285
132	0xbe00dde8	-0.1258465
133	0xbb8aa2b9	-0.004230824
134	0x3dc06d0d	0.093958
135	0x3a77b533	0.0009449303
136	0x3dd435b2	0.10361804
137	0xbfa3782d	-1.277105
138	0xbe411793	-0.18856649
139	0x3da2a41a	0.07941456
140	0xbe36b610	-0.17842889
141	0xbe1f0b52	-0.15531662
142	0x3e6d4455	0.23170598
143	0xbf071fe1	-0.5278302
144	0x3d738fc2	0.05946327
145	0xbfcf281c	-1.6184115
146	0x3e60314e	0.21893808
147	0xbf26819c	-0.6504152
148	0x3d72512f	0.059159454
149	0xbe4a095d	-0.19730134
150	0x3ee8eb04	0.45491803
151	0x3e36eb9f	0.1786332
152	0x3db0793f	0.08616876
153	0x3e7759c5	0.24155338
154	0x3e9e4194	0.30909407
155	0xbe3457b0	-0.17611575
156	0xbe63a5b7	-0.22231184
157	0xbe100edf	-0.14068173
158	0xbda44c9a	-0.08022423
159	0xbf134195	-0.57521945
160	0x3e706a5f	0.23478077
161	0x3dadc7c5	0.08485369
162	0x3d52e293	0.05148561
163	0xbefe2b4e	-0.49642414
164	0x3c8a5df1	0.016890498
165	0x3d77b43e	0.060474627
166	0xbc528cb0	-0.012850925
167	0x3e2bbb30	0.16770625
168	0xbdcbd448	-0.09952599
169	0x3b6712f4	0.00352591
170	0x3e3f7fde	0.18701121
171	0xbd3e925b	-0.046526294
172	0x3db661d9	0.08905382
173	0xbe01c13e	-0.12671372
174	0xbe05575d	-0.13021608
175	0x3cb22c90	0.021749765
176	0xbe3261e3	-0.17420153
177	0xbd1e43f1	-0.038639013
178	0x3e244bae	0.16044495
179	0x3dc3bf07	0.0955792
180	0xbd9d90c9	-0.07693631
181	0xbe37a649	-0.17934527
182	0xbff91499	-1.9459411
183	0xbd6e2a76	-0.058145963
184	0x3d836f50	0.064177155
185	0xbf56f133	-0.8396179
186	0xbdb6cb5a	-0.08925505
187	0xbe207c7c	-0.15672487
188	0xbec6aed4	-0.38805258
189	0x3e227fb2	0.15869024
190	0xbf7cc1ba	-0.98733103
191	0x3d23da99	0.040003393
192	0x3d1329bb	0.03592847
193	0x3d6b1694	0.05739458
194	0xbd491560	-0.04909265
195	0x3f23f9d4	0.6405308
196	0xbf4871eb	-0.78298825
197	0x3d8175bb	0.063212834
198	0x3e223bde	0.1584315
199	0xbd913a17	-0.07091158
200	0x3d010ac9	0.031504426
201	0x3f02500f	0.5090341
202	0x3e13c3ca	0.14430156
203	0xbd58f27e	-0.052965634
204	0xbd8b73b2	-0.068091765
205	0xbe77db2c	-0.24204701
206	0xbdc1950f	-0.09452259
207	0x3d897603	0.06711962
208	0x3e7ec4cb	0.24879758
209	0xbdd2daae	-0.10295616
210	0xbd23d151	-0.03999454
211	0x3f149a54	0.58047986
212	0x3d9bd07d	0.07608125
213	0xbeeda4fe	-0.46414942
214	0xbf51a72f	-0.81895727
215	0xbccc0593	-0.024905002
216	0xbed26fc6	-0.411009
217	0xbe77a57b	-0.2418422
218	0x3e9849c6	0.29743785
219	0xbeefe4bd	-0.468542
220	0xbeb7361a	-0.35783464
221	0xbf89c798	-1.0764036
222	0xbe65c0da	-0.22436848
223	0xbf65b53a	-0.89729655
224	0x3da739c1	0.081653126
225	0x3e17b8ad	0.14816542
226	0xbe5710f8	-0.21002567
227	0x3eca3d01	0.39499667
228	0xbed33026	-0.41247672
229	0xbe40eebc	-0.1884107
230	0x3c88a6a0	0.016681015
231	0xbc4561af	-0.012047215
232	0x3d9fa3f4	0.077949435
233	0xbe03d9a3	-0.1287599
234	0x3cdc2035	0.026870826
235	0x3e7602c9	0.240245
236	0x3e5ca389	0.21546759
237	0xbee023bd	-0.43777266
238	0x3e1401fc	0.14453882
239	0x3d43eb20	0.047831655
240	0xbea2ff61	-0.31835464
241	0xbda3efce	-0.080047235
242	0xbe955111	-0.2916341
243	0x3c8b6605	0.01701642
244	0x3e8ef244	0.2791921
245	0xbeb9eb01	-0.36312106
246	0x3f10280d	0.5631111
247	0x3e89d633	0.26921234
248	0x3be0b760	0.0068577975
249	0x3e9e5a57	0.309283
250	0xbce08910	-0.027409106
251	0xbe19629b	-0.14979021
252	0xbbfe8f30	-0.007768534
253	0x3d95ff3d	0.073240735
254	0x3ecf4168	0.40479589
255	0x3e9899e1	0.298049

actor.2.bias f4 [64]
0	0xbd471433	-0.048603248
1	0xbd467885	-0.04845478
2	0x3cfa66b6	0.030566555
3	0xbddc049d	-0.107430674
4	0xbcfb8b91	-0.030706199
5	0x3d2cc6fa	0.042181946
6	0x3b1c6b4d	0.0023867667
7	0xbdfd0a64	-0.123554975
8	0xbd318d5f	-0.043347713
9	0x3cc14859	0.023594068
10	0xbe56a87b	-0.20962708
11	0x3dce40bd	0.100709416
12	0x3d94e3b3	0.07269993
13	0xbc05edf3	-0.008174407
14	0x3d5d7fb7	0.054076876
15	0xbc42ad01	-0.011882068
16	0xbbdbee02	-0.0067117224
17	0xbd637f9c	-0.05554162
18	0xbd323494	-0.043507174
19	0xbc45d8df	-0.012075632
20	0xbd927108	-0.07150465
21	0x3e134710	0.14382577
22	0xbdefb148	-0.117037356
23	0x3d6d7a96	0.057978235
24	0x3d0273aa	0.031848587
25	0xbe08c8d3	-0.13357858
26	0xbcceeddb	-0.025259903
27	0xbce9d6c8	-0.028544798
28	0xbdf229e4	-0.11824396
29	0x3c4c114f	0.012455299
30	0x3e1c8cf4	0.15288144
31	0xbcf3dfcc	-0.0297698
32	0x3e1c1041	0.15240575
33	0xbd8c90f5	-0.06863586
34	0xbd8e7390	-0.069556355
35	0x3c786d24	0.01516274
36	0xbd0a2dbf	-0.033735033
37	0x3c9f19c5	0.019421468
38	0xbbef1aaf	-0.007296882
39	0xbdee79a8	-0.11644298
40	0xbe088fde	-0.13336131
41	0xbd4f1e0a	-0.050565757
42	0x3d1d544d	0.038410474
43	0x3d82e162	0.063906446
44	0x3dfc030e	0.1230527
45	0x3de8851b	0.11353513
46	0x3e04a12d	0.12952109
47	0x3d65490c	0.055977866
48	0xbe0518fb	-0.1299781
49	0x3e067eac	0.13134259
50	0xbdac9872	-0.08427514
51	0x3e523ae5	0.20530279
52	0x3c6e5108	0.014545687
53	0xbe1020f7	-0.14075075
54	0x3deb3adc	0.11485836
55	0x3e698100	0.22803116
56	0xbdefad9a	-0.11703034
57	0xbea0b572	-0.31388432
58	0xbdfd0495	-0.123543896
59	0xbddea603	-0.10871508
60	0xbdb5bd40	-0.08873987
61	0x3d96a5d0	0.07355845
62	0xbe115c64	-0.141954
63	0xbcf0decf	-0.029403118

actor.4.weight f4 [2, 64]
0	0xbee143f0	-0.43997145
1	0xbed880bb	-0.42285714
2	0x3e8c4824	0.2739879
3	0xbf115661	-0.5677243
4	0x3d80d0d6	0.06289832
5	0x3cf075e0	0.029353082
6	0x3daa492d	0.083147384
7	0xbdcb4a3b	-0.09926268
8	0x3d74c79e	0.059760682
9	0x3db46ac4	0.088094264
10	0x3e807637	0.2509019
11	0x3d73225d	0.059358943
12	0x3f41af3f	0.7565803
13	0x3deecd42	0.116602436
14	0xc0476b4d	-3.1159241
15	0x3c91116d	0.017708505
16	0x3c65bce6	0.014022088
17	0x3e20ee17	0.15715824
18	0xbcb5e8f3	-0.022205805
19	0x3dbfd3f4	0.09366599
20	0x3d9cd19c	0.07657167
21	0xbdc42424	-0.09577206
22	0x3d0e1c32	0.034694858
23	0xbd7a54a2	-0.06111587
24	0xbdccbd3d	-0.09997032
25	0x3dbf3e8a	0.093381
26	0x3e6e5da1	0.23277904
27	0x3e9e429c	0.30910194
28	0x3d064af8	0.03278634
29	0x3dc221b8	0.094790876
30	0x3ed91450	0.4239831
31	0xbef2de41	-0.4743519
32	0xbcf5085e	-0.029911216
33	0xbf21e582	-0.63240826
34	0x3c871ed2	0.016494188
35	0x3d716473	0.058933686
36	0x3c126ad4	0.008936603
37	0x3ecac0e8	0.396003
38	0x3e2e5c44	0.17027384
39	0x3cbe93a7	0.023263765
40	0xbdb37bdc	-0.08763859
41	0xbdbad5ec	-0.091228336
42	0xbc4c1b5e	-0.012457697
43	0xbd4cf558	-0.050038666
44	0x3e9a380c	0.30120885
45	0x3e884414	0.2661444
46	0xbd8dd816	-0.06925981
47	0x3d483e3b	0.048887473
48	0xbdcc5e12	-0.0997888
49	0xbe06821b	-0.13135569
50	0xbd948e54	-0.072537094
51	0x3e6d716a	0.23187795
52	0xbd99863e	-0.07496308
53	0xbda34a80	-0.07973194
54	0xbe35423d	-0.17701049
55	0x3e169567	0.1470543
56	0xbd48321a	-0.048875906
57	0xbf0317bf	-0.5120811
58	0xbc6e2c83	-0.01453698
59	0xbe298157	-0.16553245
60	0xbd3ff4a7	-0.046864178
61	0xbd223b2e	-0.03960722
62	0xbcc24882	-0.023716215
63	0xbc1fc86f	-0.009752377
64	0x3eed306b	0.46326002
65	0xbf02ce59	-0.5109611
66	0x3d992943	0.07478573
67	0xbd9ac98a	-0.07557972
68	0x3c426651	0.011865214
69	0xbe07cec8	-0.13262475
70	0xbe04c2ec	-0.12964982
71	0x3d633f0a	0.05548004
72	0x3d0e8d20	0.034802556
73	0x3e4e6883	0.20157056
74	0xbfd5e202	-1.6709597
75	0x3f117ff9	0.56835896
76	0x3f34caad	0.7062176
77	0xbe9d0bda	-0.30673105
78	0x3edbaa7d	0.4290351
79	0x3cb127fd	0.021625513
80	0xbdaa5174	-0.08316317
81	0xbcb7ca04	-0.022435196
82	0x3db2f1e8	0.08737546
83	0x3eb6e3b5	0.35720602
84	0xbdc29918	-0.095018566
85	0xbe8659d9	-0.26240423
86	0x3dfff8e9	0.12498648
87	0x3d367de5	0.044553656
88	0x3d84eaa9	0.064900704
89	0xbdcbf269	-0.099583454
90	0x3d7ede38	0.062223643
91	0x3f42c51e	0.76082027
92	0x3d905a9c	0.07048532
93	0x3d946de1	0.0724752
94	0x3f1b5491	0.60675913
95	0x3df8c8cf	0.12147676
96	0x3e9663e9	0.293731
97	0xbdfba866	-0.12287979
98	0x3d922925	0.07136754
99	0xbe0644fc	-0.13112253
100	0xbd751b32	-0.05984039
101	0xbf2605a6	-0.6485237
102	0x3d0b0a47	0.033945348
103	0x3debdfe9	0.11517317
104	0xbd9044ff	-0.0704441
105	0x3bfbbcd3	0.0076824217
106	0xbec84ae0	-0.39119625
107	0x3c074575	0.008256306
108	0x3d9c1720	0.07621598
109	0x3d41f593	0.04735334
110	0xbf046069	-0.5170961
111	0x3d3edd68	0.04659787
112	0x3dd6b282	0.104832664
113	0xbedda435	-0.43289343
114	0xbd97fd43	-0.07421353
115	0x3e1f605b	0.155641
116	0x3cb6c516	0.022310775
117	0xbd27e159	-0.040986393
118	0x3dafe8ee	0.0858935
119	0xbed73b1a	-0.42037278
120	0xbd963439	-0.073341794
121	0xbff4e982	-1.9133761
122	0x3f0d53b2	0.55205834
123	0x3f38a1f2	0.7212211
124	0xbdd41262	-0.10355069
125	0x3f379e54	0.71725965
126	0x3cf16685	0.02946783
127	0xbe279597	-0.16365658

actor.4.bias f4 [2]
0	0xbc6ad655	-0.014333327
1	0xbe95fdc2	-0.29295164
