HAC-Baseline/preTrained/MountainCarContinuous-h-v1/2level/HAC_MountainCarContinuous-h-v1_ou_sync_level_0_crtic.pth (torch, 20439 bytes, 5 tensors)

critic.0.weight f4 [64, 5]
0	0xbf160246	-0.5859722
1	0x3f9987a2	1.1994517
2	0x397ed706	0.0002430343
3	0x3e7b92bf	0.24567698
4	0xc03cafd7	-2.9482324
5	0x3ef94405	0.48684707
6	0xbf3999cd	-0.72500306
7	0x3c10b0b2	0.00883119
8	0x3ee3611b	0.44410023
9	0x3ff0479a	1.8771851
10	0x3eac9bb8	0.33712554
11	0x402302d9	2.5470488
12	0xbb00c882	-0.0019650762
13	0x3e1d1172	0.15338686
14	0xc04a6dfc	-3.162963
15	0x3ee8f9ab	0.45502982
16	0xbfdd6191	-1.72954
17	0x3c36c566	0.011155462
18	0xbf81fe6a	-1.0155766
19	0x3e920ce5	0.28525463
20	0xbe811066	-0.25207824
21	0xbfa34865	-1.2756468
22	0xbbdcaed1	-0.006734707
23	0x3e9e6aa8	0.30940747
24	0x4021e2e7	2.529474
25	0xbdbfbeb0	-0.09362543
26	0x40474b00	3.1139526
27	0xbada1ed8	-0.0016641272
28	0xbd17af8e	-0.037032656
29	0xc03625cb	-2.8460567
30	0x3f75b766	0.9598297
31	0xbff74f58	-1.9321089
32	0xbc167fad	-0.009185714
33	0xbed12ff3	-0.40856895
34	0xbf9be886	-1.2180336
35	0xbe5e69d2	-0.21720055
36	0xbf2dca9a	-0.6788727
37	0x3c4f86c2	0.012666406
38	0xbe79ee01	-0.24407198
39	0x404dfa6e	3.21841
40	0x3f0da7a0	0.553339
41	0xbf27a113	-0.65480155
42	0x3b1a6320	0.0023557618
43	0xbefa1462	-0.48843676
44	0x40548626	3.3206878
45	0x3f5e08cb	0.86732167
46	0x409f7442	4.9829416
47	0x3c3a9eec	0.011390429
48	0x3ee19ef9	0.440666
49	0x3f5a403a	0.8525425
50	0xbc8bc665	-0.017062375
51	0xc0853070	-4.162163
52	0x3e933115	0.28748384
53	0xbd8ae7c9	-0.06782491
54	0x3f87bf62	1.060528
55	0xbe10535e	-0.14094302
56	0xbf6606e7	-0.8985428
57	0x3b2a7090	0.0026007034
58	0x3fbc1d89	1.4696513
59	0x3f672507	0.90290874
60	0xbec5b415	-0.38613954
61	0x3d986d10	0.07442677
62	0xbaa30b86	-0.0012439347
63	0x3f9a57cd	1.2058045
64	0xbfe61975	-1.7976519
65	0x3e542c4b	0.20720021
66	0xc0340d20	-2.813301
67	0xbd947feb	-0.07250961
68	0xbe00a43c	-0.1256265
69	0x3f9b590b	1.2136549
70	0x3f676413	0.90387076
71	0xbeac454e	-0.33646625
72	0xbb196026	-0.0023403256
73	0xbf6bbcb6	-0.92084825
74	0x3c7d439f	0.015458017
75	0xbf64fca2	-0.8944799
76	0x401064e5	2.256158
77	0x3c84fa28	0.016232565
78	0x3f49cb6c	0.7882602
79	0x3f4e6164	0.80617356
80	0x3edffafe	0.4374618
81	0x404263bf	3.037338
82	0xbbab1b04	-0.0052217264
83	0xbeb4c6fb	-0.3530806
84	0xc0458cd1	-3.0867198
85	0x3c5b4658	0.0133834705
86	0x4049c307	3.1525285
87	0x3b7989c6	0.0038076504
88	0xbd5e97cc	-0.054343984
89	0xc0668b66	-3.6022582
90	0x3f8693ba	1.0513833
91	0x3fc9e25f	1.5772208
92	0x3d4e91f6	0.050432168
93	0xbeced84c	-0.40399396
94	0xbf424b5f	-0.7589626
95	0xbd914621	-0.07093454
96	0x3f03b61e	0.51449764
97	0xbc5f046e	-0.013611896
98	0xbf41f040	-0.7575722
99	0xbf705e18	-0.93893576
100	0xbf73839b	-0.9512269
101	0xc043a6b2	-3.0570493
102	0x3cb35685	0.021891842
103	0x3efced7f	0.49399945
104	0xbeaa16ff	-0.3322067
105	0xbd7cd06f	-0.061722215
106	0xbf17b952	-0.5926715
107	0xbdbd1bee	-0.09233843
108	0x3d29e86c	0.04148142
109	0xc02d02f0	-2.7033043
110	0x3d49290e	0.04911142
111	0x406c714c	3.694415
112	0x3aa8afeb	0.001286981
113	0xbe30a183	-0.17249112
114	0xc013d96d	-2.3101456
115	0x3e7ab728	0.24483931
116	0x40674fb7	3.6142404
117	0xbac841d2	-0.0015278405
118	0xbe9c1839	-0.3048723
119	0xbfef5829	-1.8698779
120	0x3e19588d	0.14975186
121	0xbfefd828	-1.8737841
122	0xbc374482	-0.011185767
123	0xbee23289	-0.4417918
124	0xc06b06de	-3.6722941
125	0x3e682e31	0.2267387
126	0xc0375161	-2.864342
127	0x3cbc748e	0.023004796
128	0xbe68db7a	-0.22739974
129	0x402290f8	2.5400982
130	0xbe8d3a56	-0.2758357
131	0x402c43b4	2.6916323
132	0x3a618b97	0.00086038694
133	0x3e68c48a	0.22731224
134	0xc058067f	-3.3753965
135	0x3f71bcaf	0.94428533
136	0xbebf4c12	-0.37362725
137	0xbbbe3797	-0.0058049667
138	0x3db3df3f	0.08782815
139	0xc035d7bc	-2.8412924
140	0xbdf90446	-0.12159018
141	0xbd5d3854	-0.054008797
142	0x3c380200	0.011230946
143	0xbe87a384	-0.2649194
144	0xc06c8390	-3.69553
145	0x3f1e2b01	0.6178437
146	0xc04cd4cb	-3.2004879
147	0xbc544ff5	-0.012958516
148	0xbefec9d1	-0.4976335
149	0x3fbb2322	1.4620097
150	0x3eb1c81e	0.3472299
151	0xc0484c35	-3.1296513
152	0xb9ed3369	-0.00045242466
153	0xbeb58f79	-0.35461023
154	0xbf804369	-1.0020572
155	0xbe25c8cd	-0.1618988
156	0x4018f1b6	2.3897529
157	0xbaed8c81	-0.0018123538
158	0x3e840cc7	0.25790998
159	0x40846917	4.1378284
160	0x3f529ad2	0.8226749
161	0x3fea8c49	1.8324062
162	0x3b447908	0.0029979367
163	0xbdae27ad	-0.08503661
164	0x3f8582df	1.0430564
165	0xbf26b1d4	-0.65115094
166	0x3ffcef6b	1.9760565
167	0x3bab6e4a	0.0052316533
168	0x3fccc95c	1.599895
169	0xbd944b1c	-0.072408885
170	0x3ea9bf9c	0.33154
171	0xc047233c	-3.1115255
172	0xbb71cb68	-0.0036894921
173	0xbf3d71fd	-0.7400206
174	0x3f0c16d3	0.54722327
175	0x3eab69f8	0.33479285
176	0x3fd3ce68	1.6547365
177	0xbe753961	-0.2394767
178	0xbe9ea3af	-0.30984256
179	0xbffaae5a	-1.9584458
180	0xbf6c0f77	-0.922111
181	0xbd81f1a6	-0.06344919
182	0xbc54a500	-0.012978792
183	0x3d88e38a	0.06684025
184	0xbf3a40ab	-0.72754925
185	0xbf55768b	-0.8338401
186	0xbf422189	-0.7583242
187	0x3b2273bd	0.0024788224
188	0x3f55d070	0.83521175
189	0xbdcc0d9b	-0.099635325
190	0x3d8c2c7f	0.068444245
191	0xc0192d9b	-2.3934085
192	0xbc393ad3	-0.011305529
193	0x3d155f66	0.036467932
194	0xc07bdb23	-3.93525
195	0x3f2375fc	0.63851905
196	0x401b9368	2.430872
197	0x3bfaf2b9	0.0076583293
198	0xbf1ea67d	-0.6197279
199	0xc0020461	-2.0315173
200	0x3efa6919	0.48908308
201	0xbfe217f4	-1.766356
202	0xbc88c4a2	-0.016695324
203	0xbf291f59	-0.6606346
204	0x40444e3d	3.0672753
205	0xbf1a9412	-0.6038219
206	0xbf22813e	-0.6347846
207	0xbc82f677	-0.015986664
208	0x3d57b893	0.052666258
209	0x40561c95	3.3454945
210	0x3edb48c6	0.4282896
211	0xc0a167f1	-5.043938
212	0xbc030168	-0.007995941
213	0xbe5dbec4	-0.21654803
214	0xc00f3370	-2.2375145
215	0x3ec2551f	0.37955567
216	0x3fcc8f30	1.5981197
217	0x3ca9f166	0.02074499
218	0x3e72196b	0.23642509
219	0xc0050352	-2.0783277
220	0x3f1fa6d6	0.62363946
221	0xbff2ab80	-1.8958588
222	0xbbcebe87	-0.0063093337
223	0xbed5aec5	-0.417349
224	0xbf2b3068	-0.6687074
225	0x3c7395aa	0.014867226
226	0xc05e07b0	-3.4692192
227	0x3b8b892b	0.004258295
228	0x3e388ba6	0.18022022
229	0x400ac497	2.168249
230	0xbeb61d18	-0.35569072
231	0xbfdfe444	-1.7491536
232	0xbc221e76	-0.009894958
233	0x3e239c47	0.15977584
234	0xc0462067	-3.0957277
235	0xbf208a1d	-0.62710744
236	0x400b6a4f	2.1783636
237	0x3abf7ec4	0.0014609923
238	0x3eb2d06c	0.34924638
239	0xbf05ea65	-0.5231078
240	0x3e95e24b	0.2927421
241	0xbffc3cd6	-1.9706066
242	0x3c25bf11	0.010116355
243	0x3e5ef9fc	0.21775049
244	0xc02b0e9d	-2.672767
245	0xbe4f0283	-0.20215802
246	0xc03f00f8	-2.9844341
247	0xbca293b7	-0.019845827
248	0x3e1d97ae	0.15389892
249	0x3f84e524	1.0382428
250	0x3fb3508d	1.4008957
251	0x40a377f6	5.1083937
252	0x3c62072d	0.013795656
253	0xbf374c1c	-0.7160051
254	0x3ff0f5ec	1.8825049
255	0x3caf71fd	0.021416659

critic.0.bias f4 [64]
0	0x3db858b8	0.09001297
1	0x3ed44e4b	0.41465983
2	0x3e10f196	0.14154658
3	0xbd89dddf	-0.06731772
4	0x3d8325de	0.06403707
5	0x3d830af8	0.063985765
6	0x3db25d8e	0.087092504
7	0xbdf9cdca	-0.12197454
8	0x3e5278aa	0.20553842
9	0x3dd78047	0.10522514
10	0xbec7e150	-0.39039087
11	0xbd898d6f	-0.067164294
12	0x3ecf26f8	0.40459418
13	0xbd6011dc	-0.054704532
14	0x3d4a26d3	0.049353432
15	0x3d13f134	0.0361187
16	0x3dc0a868	0.09407121
17	0x3d9e3a8c	0.07726011
18	0xbe6fe4f8	-0.23427188
19	0xbeb27074	-0.3485142
20	0xbf446bdf	-0.767271
21	0xbe37d5c8	-0.17952645
22	0x3d5e8327	0.054324295
23	0x3d54c661	0.051947
24	0xbdb572a3	-0.08859756
25	0x3d955c7d	0.07293031
26	0x3d93faf1	0.07225598
27	0x3f2b2945	0.6685985
28	0xbe0c7710	-0.13717294
29	0x3d9f7b31	0.07787169
30	0xbc0ff8e4	-0.0087873675
31	0x3d2889ff	0.04114723
32	0x3e8fcd19	0.28086165
33	0xbe0e3479	-0.13887204
34	0xbe170d5a	-0.14751187
35	0xbe8036b4	-0.25041735
36	0xbe3b5aa8	-0.18296301
37	0xbb2a172f	-0.002595376
38	0x3de3d109	0.11123855
39	0x3d151e9d	0.03640615
40	0xbbe963ab	-0.007122477
41	0x3dfdd821	0.12394739
42	0x3e17c243	0.14820199
43	0x3e5092cb	0.20368497
44	0xbde91e55	-0.113827385
45	0x3e4abd27	0.19798718
46	0x3ca007ea	0.019535024
47	0xbe86d65f	-0.26335427
48	0xbe022053	-0.12707643
49	0x3da9dac4	0.08293679
50	0xbd6eabad	-0.05826919
51	0xbe142c93	-0.14470129
52	0xbd459cee	-0.048245363
53	0x3c87ed02	0.016592506
54	0xbe71ebe1	-0.23625137
55	0xbddafbe8	-0.106925786
56	0xbed8f7f3	-0.4237667
57	0x3bff6ade	0.007794722
58	0x3dd185ab	0.10230573
59	0xbebcc572	-0.3686939
60	0xbc5ecc75	-0.013598551
61	0x3e812c03	0.2522889
62	0xbb481543	-0.003053025
63	0x3e89f6d0	0.26946115

critic.2.weight f4 [64, 64]
0	0xbf744c53	-0.9542896
1	0x3d19330a	0.03740219
2	0xbc97ef84	-0.018546827
3	0xbebf93e2	-0.37417513
4	0x3daf77d1	0.08567775
5	0xbd84c913	-0.06483664
6	0xbe41b9a1	-0.18918468
7	0x3f00bda0	0.50289345
8	0x3ec7912a	0.3897794
9	0x3f69e48e	0.9136437
10	0xbe955190	-0.2916379
11	0xbf27b403	-0.6550905
12	0xbfc0af1a	-1.5053437
13	0xbe9b90d8	-0.30383945
14	0x3ea949b2	0.33064038
15	0xbebcd867	-0.36883852
16	0xbcd005d3	-0.025393402
17	0x3e2344f5	0.15944274
18	0xbdad4870	-0.08461082
19	0xbec98f15	-0.39366975
20	0xbe493b7f	-0.19651602
21	0xbf56d942	-0.8392526
22	0x3e20931a	0.15681115
23	0x3e41c36c	0.18922204
24	0xbf2d1989	-0.6761709
25	0xbf02983c	-0.5101354
26	0xbeafd5ef	-0.34342906
27	0xbe39e280	-0.18152809
28	0xbd757f88	-0.059936076
29	0x3e67f4e8	0.22652018
30	0xbe9605be	-0.29301256
31	0x3ecf1c48	0.40451264
32	0x3ec89459	0.3917568
33	0xbf13443d	-0.57526
34	0xbed1bb45	-0.40963188
35	0x3e66e260	0.22547293
36	0xbcddae0a	-0.027060527
37	0xbf8d78c6	-1.1052482
38	0xbfaafed0	-1.3359013
39	0x3e694ecb	0.22783963
40	0x3e91cec7	0.2847807
41	0x3c9b2cad	0.018942202
42	0xbfc2d19e	-1.522022
43	0x3e3fd9e0	0.18735456
44	0xbf5a13b6	-0.85186327
45	0xbf360bab	-0.71111554
46	0xbf36e750	-0.71446705
47	0xbdccb15a	-0.099947646
48	0xbf46d9a3	-0.7767584
49	0xbf39976e	-0.7249669
50	0x3f0a627f	0.54056543
51	0xbdcd8fe0	-0.100372076
52	0xbf0ba9ea	-0.54556143
53	0xbf0c5c4a	-0.5482832
54	0x3ebb8ab7	0.3662927
55	0xbf1e46e1	-0.618269
56	0x3de8132c	0.11331782
57	0x3f277ac1	0.6542168
58	0xbf549848	-0.8304486
59	0x3e47d52e	0.19514915
60	0xbe188b81	-0.14896967
61	0xbf00c6bc	-0.50303245
62	0x3eac5458	0.336581
63	0x3e05c4d5	0.13063367
64	0x3e3e324c	0.18573874
65	0x3eae7855	0.3407618
66	0x3edbe359	0.4294689
67	0x3e3c17a9	0.183684
68	0xbf078aae	-0.52945983
69	0x3e3a0979	0.18167676
70	0x3def49f3	0.116840266
71	0xbf0d2095	-0.5512784
72	0xbf7a3d17	-0.97749466
73	0xbeabcc22	-0.33554178
74	0x3e67aed0	0.2262528
75	0xbfa80249	-1.3125697
76	0x3f4553fa	0.77081263
77	0x3d0586e4	0.032599345
78	0xbf032a37	-0.5123629
79	0xbf313e3b	-0.6923558
80	0xbe510742	-0.20412925
81	0x3e9b20db	0.30298504
82	0x3d9982b5	0.074956335
83	0x3ed34b73	0.412685
84	0xc035e844	-2.8423014
85	0x3ea705b5	0.32621542
86	0xbebe9c4f	-0.3722863
87	0xbd7f6981	-0.062356476
88	0x3ea19130	0.31556082
89	0xbe903219	-0.2816322
90	0x3d124603	0.0357113
91	0x3da551a4	0.08072212
92	0x3e8d9425	0.27652088
93	0xbee5f06a	-0.44909984
94	0x3dec7d88	0.11547381
95	0xbeb74b80	-0.3579979
96	0xbdc2a83b	-0.09504744
97	0xbfac3df1	-1.3456403
98	0x3ebdd953	0.37079868
99	0xbe1db5aa	-0.1540133
100	0xbeedf01e	-0.46472257
101	0x40685258	3.6300259
102	0x3f0902af	0.5351972
103	0xbeb56fe9	-0.35436943
104	0xbeec3c62	-0.46139818
105	0xc04c01c6	-3.1876082
106	0x3e901a19	0.2814491
107	0x3e9c3a29	0.30513123
108	0x3e81ddd6	0.2536456
109	0xbe4bb62e	-0.19893715
110	0x3d67871c	0.056525335
111	0xbf99d54c	-1.2018218
112	0x3f7cafb9	0.9870563
113	0x3eb2dd62	0.34934527
114	0x3f49d4e6	0.7884048
115	0xc0063954	-2.097249
116	0xbf458187	-0.7715077
117	0x3e6cb088	0.23114216
118	0xbf995f1e	-1.1982152
119	0xbe747506	-0.23872766
120	0xbd174560	-0.036931396
121	0xbf9c025b	-1.2188219
122	0x3e9a7f45	0.30175224
123	0xbea02ad2	-0.3128267
124	0x3e56a99f	0.20963143
125	0xbe4755c9	-0.19466318
126	0xbf346b92	-0.7047664
127	0xbe9b8fc4	-0.30383122
128	0xbd3d2a5f	-0.046182986
129	0x3e9d1ec4	0.30687535
130	0x3ecad717	0.39617226
131	0xbf9e990b	-1.2390455
132	0x3e8b6a3d	0.2722949
133	0xbe159f17	-0.14611469
134	0x3e15f075	0.14642508
135	0xbf2c23b3	-0.6724197
136	0xbe9687c0	-0.29400444
137	0x3f34038b	0.70317906
138	0x3dbe2bf6	0.09285729
139	0x3f44f751	0.76939875
140	0x3ebe286d	0.37140217
141	0x3e4323bc	0.190566
142	0x3ded2f47	0.11581283
143	0xbe529524	-0.20564705
144	0x3ebb4464	0.36575615
145	0x3e5ca612	0.21547726
146	0x3e538dbb	0.20659535
147	0xbecaa55f	-0.39579293
148	0xbec64d7f	-0.38731
149	0xbe3e336f	-0.18574308
150	0xbecd4a92	-0.40095955
151	0xbe15dc62	-0.1463485
152	0xbf9b2ee0	-1.212368
153	0xbf2bcc95	-0.6710904
154	0xbd0b61c5	-0.034028787
155	0xbe1367db	-0.14395086
156	0xbf49843e	-0.7871741
157	0x3dc2fe3c	0.095211476
158	0x3e61253f	0.21986865
159	0x3e10c58b	0.14137857
160	0x3e1cfb88	0.15330327
161	0x3f02da90	0.5111475
162	0xbf7618fc	-0.96131873
163	0x3e29a9bc	0.16568655
164	0xbf0db53b	-0.5535466
165	0x3f75baff	0.9598846
166	0x3e7a6137	0.24451147
167	0xbca9f605	-0.020747194
168	0xbd993a63	-0.074818395
169	0xb98b5264	-0.00026573532
170	0xbf579c87	-0.84223217
171	0x3f095f41	0.5366097
172	0xbec3adda	-0.38218576
173	0xbea1e4f5	-0.31619993
174	0xbe99574f	-0.29949424
175	0x3e21a955	0.15787251
176	0x3f7777f9	0.9666744
177	0xbead6622	-0.33866984
178	0x3ed9b70f	0.42522475
179	0xbfa97dc5	-1.3241507
180	0x3f40f947	0.7538037
181	0xbe4ff3ba	-0.20307818
182	0x3f12e278	0.57376814
183	0xbc90ff95	-0.017699996
184	0xbc4de9b0	-0.0125679225
185	0x3ec22fc0	0.37927055
186	0xbeb5992c	-0.35468423
187	0x3e0ec163	0.13940959
188	0xbe96767c	-0.2938727
189	0xbe816fa4	-0.25280488
190	0x3cd28424	0.025697775
191	0xbebe4d0f	-0.37168166
192	0xbf5788be	-0.84193027
193	0x3dde99dd	0.10869191
194	0xbef1bb4f	-0.47213218
195	0xbfc3708c	-1.5268722
196	0x3db03a14	0.086048275
197	0xbf547970	-0.829978
198	0x3f04817c	0.5176008
199	0x3cac1723	0.021007126
200	0x3eb6135c	0.35561645
201	0xbfb11151	-1.383341
202	0xbf38ca59	-0.7218376
203	0xbf425808	-0.75915575
204	0xbe8db7d7	-0.2767932
205	0xbc3d7918	-0.0115645155
206	0x3ecb305f	0.39685342
207	0x3e853a79	0.26021174
208	0xbf7405c7	-0.95321316
209	0xbf82f00f	-1.022951
210	0xbf997e75	-1.1991717
211	0xbed3f57b	-0.41398224
212	0xbd1d723c	-0.03843902
213	0x3d11e5a2	0.035619386
214	0xbf28f914	-0.66005063
215	0xbf17a00f	-0.59228605
216	0x3dffb0ed	0.12484918
217	0xbd9ce216	-0.0766031
218	0xbf7e0e9f	-0.9924106
219	0x3e88f085	0.26746002
220	0xbeb83704	-0.35979474
221	0xbe81b65f	-0.2533445
222	0x3e89fcab	0.26950583
223	0x3ec65410	0.3873601
224	0xbeac0304	-0.3359605
225	0xbd31c5d3	-0.04340155
226	0xc047eeed	-3.1239579
227	0x3e53655d	0.20644136
228	0xbf944059	-1.1582137
229	0x3f4b39ef	0.79385275
230	0xbd211e40	-0.03933549
231	0xbfa4810e	-1.2851884
232	0x3ed08950	0.4072976
233	0x3ec89524	0.39176285
234	0xbf586a7a	-0.8453747
235	0xbda1391e	-0.07872222
236	0x3eb5e0a8	0.35522962
237	0xbe60041c	-0.21876568
238	0xbf365a6b	-0.71231717
239	0x3e9eec3e	0.31039613
240	0x3f3779af	0.7167005
241	0x3ea4a1f1	0.321548
242	0xbf8b765d	-1.0895497
243	0xc06511f7	-3.5792215
244	0xc021f7a1	-2.530739
245	0x3e005a15	0.12534364
246	0x3ea1914a	0.3155616
247	0xbeeacfbc	-0.45861614
248	0x3c93e588	0.018053785
249	0xbf32d5b4	-0.69857335
250	0xbe66a3ca	-0.22523418
251	0x3db40527	0.08790045
252	0x3eb7eafe	0.35921472
253	0x3a5377ac	0.0008066844
254	0xbea22f96	-0.3167693
255	0x3d067c31	0.032833282

critic.2.bias f4 [64]
0	0xbe253b36	-0.16135868
1	0xbe93048d	-0.2871441
2	0xbe20daac	-0.15708417
3	0x3d77f410	0.06053549
4	0xbddcba7b	-0.10777756
5	0xbd84466c	-0.064587444
6	0xbe932759	-0.28740957
7	0xbe686fa9	-0.22698845
8	0x3d0ff021	0.035141114
9	0xbda853b9	-0.08219094
10	0xbd8e2a7f	-0.06941699
11	0xbe13358f	-0.143759
12	0xbca89ac4	-0.02058161
13	0x3e2d1312	0.16901806
14	0x3d96f209	0.07370383
15	0xbd208246	-0.03918674
16	0xbe0b0973	-0.13577823
17	0x3e8bc5dd	0.27299395
18	0xbcda53f3	-0.026651358
19	0xbe140f00	-0.14458847
20	0x3ed3776d	0.41302052
21	0x3d997125	0.07492284
22	0x3e92315b	0.2855328
23	0x3e1b6074	0.15173513
24	0x3d97e37c	0.07416436
25	0x3d8ca09f	0.068665735
26	0x3cfd48a3	0.030918425
27	0x3cadac2c	0.021200262
28	0x3e1cd1c0	0.15314388
29	0x3ce17a30	0.027524084
30	0xbcd13e4f	-0.025542406
31	0xbd27e1e4	-0.04098691
32	0x3d44d617	0.048055734
33	0xbda9abe0	-0.08284736
34	0xbf4d3d91	-0.8017207
35	0x3d0422bf	0.0322597
36	0xbcdff4f6	-0.027338486
37	0x3e86df92	0.26342446
38	0x3e89d5fe	0.26921076
39	0xbe07958f	-0.13240646
40	0x3e2dc293	0.16968755
41	0x3df25fe1	0.11834694
42	0xbc15c0b7	-0.009140185
43	0x3e72939f	0.23689125
44	0xbdd8bfa8	-0.105834305
45	0x3e90c1e6	0.28272933
46	0x3e01a667	0.12661134
47	0xbe8e84bb	-0.2783564
48	0xbd10e388	-0.03537324
49	0xbe0ee4c3	-0.13954453
50	0xbde3eaf8	-0.11128801
51	0x3d99f900	0.07518196
52	0x3de75378	0.11295217
53	0x3e867f36	0.2626893
54	0x3d2bb482	0.041920193
55	0x3da82c88	0.08211619
56	0x3dc00a55	0.09376971
57	0xbe924d15	-0.28574434
58	0xbe100fa9	-0.14068474
59	0x3eb03dd5	0.34422174
60	0xbdc76c6f	-0.09737479
61	0xbdb61cc7	-0.088922076
62	0x3ce3f42e	0.027826395
63	0x3cc9cfc5	0.024635205

critic.4.weight f4 [1, 64]
0	0xbf89bdd1	-1.0761052
1	0x4000eed9	2.014578
2	0x3f580561	0.8438321
3	0x40066271	2.0997584
4	0xbee5b3a1	-0.44863608
5	0xbd3bf048	-0.045883447
6	0xbf34a129	-0.7055841
7	0xbfbfc668	-1.4982424
8	0x3c658453	0.014008599
9	0xbf1b532a	-0.60673773
10	0xbcf16964	-0.0294692
11	0x3ff24bc3	1.8929371
12	0xbdc86944	-0.09785703
13	0xbf54cd79	-0.83126026
14	0xbf39ef74	-0.72631
15	0x3c3daa21	0.011576206
16	0x3ed102ba	0.40822393
17	0x3f3c4abc	0.73551536
18	0x3dd87882	0.1056986
19	0xbc9b66af	-0.018969862
20	0x3fadb66a	1.3571293
21	0x402ad9f4	2.6695528
22	0x3f7cb997	0.9872069
23	0x3ff53c90	1.9159107
24	0x3eff8c70	0.49911833
25	0x408f7dc9	4.4841046
26	0x3fa84d94	1.3148675
27	0x3fc8b190	1.5679188
28	0x3f934d57	1.1507977
29	0xbd0b086a	-0.03394357
30	0xbc0faf67	-0.0087698465
31	0x3beb4dd6	0.0071809096
32	0xbc770939	-0.015077882
33	0xbcab6e97	-0.020926757
34	0xbff9f879	-1.9528953
35	0xbc9bb979	-0.019009339
36	0x3f72b75a	0.9481102
37	0x4039df71	2.9042628
38	0x3fd4497f	1.6584929
39	0xbecfa9b3	-0.40559158
40	0x401d5357	2.4582117
41	0x3f6bfd96	0.92183816
42	0xbd6f4303	-0.058413517
43	0x3f5ea371	0.8696814
44	0xbd862dec	-0.06551728
45	0x3f4c4327	0.79789966
46	0xbfb795ff	-1.434265
47	0xbf0c62a9	-0.54838043
48	0xbf0ad66d	-0.5423344
49	0x3efc4a78	0.49275565
50	0x3fe160b9	1.7607642
51	0xbf216c89	-0.63056237
52	0x40126a60	2.2877426
53	0x40a6276e	5.192313
54	0xbf115991	-0.5677729
55	0xbebfac94	-0.37436354
56	0xbf11930e	-0.5686501
57	0xbe81b27c	-0.25331485
58	0xbcea0b4f	-0.028569845
59	0x3f8df53d	1.1090466
60	0xbda4f928	-0.08055335
61	0xc00338fc	-2.050353
62	0xbd4800dd	-0.04882895
63	0xbf5359dd	-0.82558995
