HAC-Baseline/preTrained/MountainCarContinuous-h-v1/2level/HAC_MountainCarContinuous-h-v1_ou_async_level_0_actor.pth (torch, 20183 bytes, 5 tensors)

actor.0.weight f4 [64, 4]
000000 a1 02 ef 3e 92 43 43 40 cb c4 14 bf d2 6f ff 3e
       0.46681693 3.0509992 -0.5811278 0.4989
000010 9b a2 67 bd ff 66 ce 3d c5 e9 41 be f3 44 88 3e
       -0.056551557 0.10078239 -0.18936832 0.26615104
000020 cb b0 5b 3f 43 5d c1 bd 3d e4 2e 3f cf 43 86 3f
       0.8581664 -0.094416164 0.68317014 1.0489444
000030 f1 d4 cb 3d 3a 2a 77 40 24 b7 b2 bd a2 46 00 40
       0.09952725 3.8619523 -0.087263376 2.004311
000040 d5 ab 46 3f 2c 0e e5 3f 45 b3 65 be e0 95 01 c0
       0.77605945 1.789495 -0.22431667 -2.0247726
000050 56 77 bb be 85 bd 5c be 1f 35 8e 3d b6 9b 9b 3f
       -0.36614484 -0.21556671 0.06943726 1.2156894
000060 c8 3b f8 be 60 3b e6 3f ac 49 ea 3e 32 ba 3f c0
       -0.4848311 1.798687 0.45759332 -2.9957395
000070 5b c2 47 bf 19 78 65 c0 02 82 8c 3f 30 9b 1d bf
       -0.7803094 -3.5854552 1.0977175 -0.6156492
000080 bb e0 29 3f a1 b4 19 40 1a cf 77 be a2 b6 fd bf
       0.66358536 2.4016497 -0.24200097 -1.982136
000090 11 95 83 3c 4d e6 29 40 13 6f ae 3d ca a4 3a c0
       0.016062291 2.6546814 0.085172795 -2.916308
0000a0 52 f2 b6 3d 97 cf b8 bf a6 e9 31 3f 9d b9 73 bf
       0.08932938 -1.4438351 0.69497144 -0.952051
0000b0 33 ff ff 3e 77 b9 c2 3f 84 14 ef 3e 3c 4c 3b bf
       0.4999939 1.5212849 0.4669534 -0.731632
0000c0 de 14 43 3f d1 b1 2b 40 1f cb 00 bf 0b bc 0e c0
       0.76203716 2.682728 -0.5030994 -2.2302272
0000d0 b5 7b 32 bf 6d 9b 07 c0 e4 1f 0e 3f 1a 84 52 3f
       -0.6972001 -2.1188614 0.5551741 0.8223282
0000e0 ba 48 b1 3e 99 3b cb 3d 03 5b 5a 3e 9e 2a 1c 3e
       0.34625798 0.09923477 0.2132378 0.15250632
0000f0 20 f3 00 3d f4 ba ae be 50 e0 1d 3e e0 52 30 be
       0.031481862 -0.3412701 0.154176 -0.17219114
000100 0b a1 a7 3e 30 05 a6 3e a0 3b 8c 3e 61 42 c4 3d
       0.32740054 0.32425833 0.2738924 0.09582973
000110 f1 b0 cd be 0f 51 7c c0 a6 b4 c1 3e 11 ac cf 3e
       -0.40174058 -3.9424474 0.37833136 0.40560964
000120 c9 c9 67 3f cc 92 d7 3f 67 79 03 bf 18 b7 5c c0
       0.90542275 1.6841674 -0.5135712 -3.4486752
000130 61 0f c6 be 8e 1a 01 c0 1b 5f 21 3f de 69 31 40
       -0.38683608 -2.0172458 0.63035744 2.7720866
000140 74 34 84 be aa 84 ae be f8 d3 87 3e e4 f3 4e be
       -0.2582127 -0.3408559 0.26528907 -0.20210224
000150 b6 c6 c1 3e c7 7b ef bd d7 02 2b 3e 70 96 19 3e
       0.37846917 -0.116935305 0.16700302 0.14998794
000160 8b 66 29 bf 08 7c 55 3f 8c 28 78 3f 3c f8 16 bf
       -0.66172093 0.8339238 0.9693687 -0.58972526
000170 12 2d b9 3f 6f f2 f4 be d2 f1 75 be 35 56 4c bf
       1.4466879 -0.47841212 -0.24018028 -0.7981904
000180 c1 6c 13 3f f9 f9 43 3f 42 c1 67 bf e0 55 a5 bf
       0.5758782 0.76553303 -0.90529263 -1.2916832
000190 d5 57 6d be de 02 11 3e d8 4d 36 bc 28 5a c8 be
       -0.23178037 0.1416125 -0.011126958 -0.39131284
0001a0 49 0e c3 3e 78 00 f3 3f 85 cb da be d3 c0 3e c0
       0.38096836 1.8984518 -0.42733398 -2.980519
0001b0 a9 d4 74 bf f9 01 1a c0 19 7e 6a 3f 95 3b a6 3f
       -0.95636994 -2.4063704 0.9159866 1.2986933
0001c0 67 1b 9b 3e cb d0 71 3f 95 63 57 bf ec 56 53 bf
       0.30294344 0.9445922 -0.84136325 -0.8255451
0001d0 24 fe 0a 3f 87 3f 76 40 ea fe 91 be 22 5a d1 bf
       0.5429404 3.8476274 -0.28514796 -1.6355631
0001e0 00 9e b5 3a 50 84 3e be f0 ea 0d bd 24 79 ad be
       0.0013856292 -0.1860516 -0.034647882 -0.33881485
0001f0 cd 51 72 be 49 c0 07 c0 1e c8 f2 3e ae 93 d1 bf
       -0.23664017 -2.1211112 0.47418302 -1.6373193
000200 30 80 2a 3f 48 62 9b 40 21 f7 ae 3d 15 e4 f8 3e
       0.6660185 4.855747 0.0854323 0.48611513
000210 92 96 a6 be 65 fc 03 3f ab 64 0a 3e 9d 27 61 3d
       -0.3253675 0.51557 0.13514964 0.05496942
000220 31 16 a5 be a4 46 2f c0 5f 19 07 3f 0c 8c f6 bf
       -0.32243493 -2.7386866 0.5277309 -1.9261489
000230 27 fb ee 3e 10 fe ad bf 77 84 64 3e b8 47 d4 bf
       0.4667599 -1.3593159 0.22316156 -1.6584387
000240 48 d1 b0 bd f0 e1 d5 3d 14 29 84 3e e4 ab ce 3e
       -0.08633667 0.10443485 0.2581259 0.40365517
000250 a0 34 e9 3e f2 fc ca be 88 da 00 3e 78 39 5c be
       0.45547962 -0.39646107 0.12583363 -0.21506298
000260 a1 21 ac be ea e0 33 c0 55 e0 61 3f 15 04 80 3e
       -0.33619407 -2.8106027 0.8823293 0.25003114
000270 cc d1 88 3e e4 ef 33 3e a0 60 26 3e ca 67 8a be
       0.26722562 0.1757198 0.16247797 -0.2703231
000280 0c b1 e8 3e 40 06 e1 3d 38 ba 83 3d ea 99 e1 be
       0.45447576 0.1098752 0.06432003 -0.4406274
000290 f8 8a 04 3f c7 8c 14 40 f9 0f 59 be 87 fb 48 40
       0.5177455 2.3210924 -0.211975 3.140352
0002a0 c4 8c fe 3e 45 b7 18 40 04 c4 cb be d7 30 8d bf
       0.4971677 2.386186 -0.39797986 -1.103053
0002b0 36 e1 1d 3f e4 46 1b 40 5b 4b 05 bf 41 0d a0 bf
       0.6167177 2.4262018 -0.5206811 -1.2504045
0002c0 40 6d 03 bf 04 de 42 c0 c2 ed 0f 3f c7 6c a2 bf
       -0.5133858 -3.0448008 0.56222165 -1.2689446
0002d0 38 05 f9 3c ae d2 7c 3f b2 4b 4a 3e e2 d6 3b b8
       0.030397996 0.9875897 0.19755438 -4.47844e-05
0002e0 2f 12 67 3e d4 e1 68 3e f1 eb 19 3e 13 bf 08 be
       0.2256553 0.22742397 0.15031411 -0.13354139
0002f0 99 31 e3 bd 45 49 94 3d 9b eb 88 bd 94 8c 25 be
       -0.110934444 0.072405376 -0.06685563 -0.16166908
000300 10 a3 a3 3e 9c 01 dc 3e 20 bf 4a bd 38 45 e5 bd
       0.31960344 0.42969978 -0.049498677 -0.11194843
000310 ca 82 c0 be 6f fc 66 40 ac cc 15 3e ba a8 a9 bd
       -0.37599784 3.6091573 0.14628857 -0.08284135
000320 45 9d 6c bf 37 58 b9 bf b2 f8 5f 3f f4 47 0a 40
       -0.92427474 -1.4480046 0.87488854 2.1606417
000330 80 a0 bc 3e 15 9f 68 40 2d d2 2e be 77 0d 6f c0
       0.36841202 3.6347096 -0.17072363 -3.7351968
000340 56 72 42 bf 63 19 7f bf b7 68 35 3f 01 79 1a 40
       -0.7595571 -0.9964811 0.7086291 2.4136355
000350 d1 a7 c1 be 0f fa 4d bf dc 7f 87 3e dd 18 3f 3f
       -0.37823346 -0.80459684 0.26464736 0.74647313
000360 cf cc a9 3e 40 ce 3c 40 aa d3 0c 3f 49 7c 71 3f
       0.3316407 2.9500885 0.55010474 0.9433027
000370 22 31 a4 be d8 01 c0 40 28 7d 84 bc b3 1a ea 3d
       -0.32068735 6.000225 -0.01617296 0.11430874
000380 66 17 6a bf 50 ff 75 bf 27 b8 4f 3f 7e e2 f8 3f
       -0.91441953 -0.960927 0.8114037 1.944412
000390 e8 27 f2 bd 61 a5 c5 3e 4c 5b dd be ab cb c3 3f
       -0.11824018 0.38602737 -0.43233716 1.529653
0003a0 1a 66 2d 3f bb 96 8d 40 86 ab cb 3d 0e 65 c5 3f
       0.6773392 4.4246497 0.09944825 1.5421464
0003b0 76 4e e5 3e 55 d3 2c 40 fe 7d bc be c8 ef 4e c0
       0.44786423 2.7003987 -0.36814874 -3.233385
0003c0 56 95 d4 3d 42 33 e8 3f bf 13 d5 be a2 59 28 c0
       0.10380046 1.8140643 -0.41616628 -2.6304708
0003d0 ba 1c 9a ba ac da a1 40 01 a2 2c be 05 fe 70 be
       -0.0011757829 5.0579433 -0.16858675 -0.23534401
0003e0 42 fe ad bd 1b 46 fa 3e e8 30 fa bc ba 44 76 bf
       -0.084957615 0.4888161 -0.030540898 -0.9619862
0003f0 e8 c4 3e 3d 2b 9e 68 40 96 c5 37 be 5e 28 79 c0
       0.046574503 3.6346538 -0.17946467 -3.8930888

actor.0.bias f4 [64]
000000 39 86 52 3e 25 55 cd be 27 80 b6 3e e0 7f f7 3d
       0.20559014 -0.40104023 0.35644647 0.12084937
000010 94 09 d0 3e af b3 f8 be 7d 6d 30 be 75 b3 22 3e
       0.40632308 -0.48574588 -0.17229266 0.1588877
000020 1e 80 97 3e b6 3d f0 3d 7d 1b 85 3e 41 58 c6 3e
       0.29589933 0.117305204 0.25997534 0.38739207
000030 a8 33 37 3d 06 72 6d be bf f6 9f be c2 22 fe be
       0.044726998 -0.23188028 -0.3124294 -0.49635893
000040 23 fc a1 be f9 cc fb 3e 7f 28 9c 3e 1d 29 26 be
       -0.31637678 0.4917982 0.30499646 -0.16226621
000050 20 57 d2 be 26 44 85 be 14 7b 0d bd 17 68 fa bd
       -0.41082096 -0.26028556 -0.034541205 -0.12226885
000060 7e 2f 49 3e 35 94 b5 be 79 4a 26 be 23 59 3a 3d
       0.19647023 -0.35464635 -0.16239347 0.045495164
000070 c0 bf 18 be ec a0 d5 bd 20 47 f3 be da af 9a 3e
       -0.14916897 -0.10431084 -0.47515202 0.3021229
000080 d3 59 a1 3d 1c 63 b3 be 95 60 f9 bd d9 7f 20 3e
       0.07878461 -0.35036552 -0.12176625 0.1567377
000090 20 2f e7 be fe 1f f9 be f4 bb bd 3e 4a 8e 8c be
       -0.4515314 -0.4865722 0.3705746 -0.27452308
0000a0 96 93 a4 be 99 72 df 3d 8e 64 70 bd 1e 61 b2 bc
       -0.3214385 0.1091053 -0.058689646 -0.021774825
0000b0 4e 5b 47 3e 0f 66 1e be b3 1f 57 be ef 8f 85 be
       0.19468424 -0.1546862 -0.21008186 -0.26086375
0000c0 fe 56 d0 be cc 40 83 bb ef 69 28 3d 29 80 fa bd
       -0.4069137 -0.004005527 0.04111665 -0.12231476
0000d0 6a c4 1f 3d 0f 1b 9c be a1 0a e1 3c 69 d5 70 bd
       0.039005674 -0.30489394 0.027470889 -0.058797274
0000e0 33 28 2e ba 50 9c 43 be 04 5f f7 3d fa 42 a6 3d
       -0.00066435634 -0.19102597 0.1207867 0.081182435
0000f0 e4 a2 b5 3d 40 e3 2c 3d 0d a9 54 be cd bc 80 be
       0.088689595 0.04220891 -0.20767613 -0.25144044

actor.2.weight f4 [64, 64]
000000 21 67 5d be b7 9f f0 bc 36 66 33 be 9c 7d 25 be
       -0.21621372 -0.029373033 -0.17519459 -0.16161197
000010 8f fc d2 bd 58 02 3c bd 73 74 79 bd 2f 1f 00 be
       -0.10302078 -0.045900673 -0.06090207 -0.12511896
000020 80 3a 16 be 74 fd 15 bd fd 27 3d 3e be f6 d4 3d
       -0.14670753 -0.036618665 0.18472286 0.10398625
000030 d9 75 df be e7 93 d8 be 01 79 12 bc 62 6c be bd
       -0.43644598 -0.4230034 -0.008939982 -0.09298016
000040 ce 16 a9 bd 40 c5 58 3d 2e 6b 88 bd 20 46 39 be
       -0.08256303 0.052922487 -0.06661068 -0.18093157
000050 60 44 32 bc d6 7b 22 be 06 69 3e bd 4e 35 e4 bd
       -0.01088056 -0.15867552 -0.046486877 -0.111429796
000060 7a 77 34 be 6c 12 c0 bd d5 45 23 3e 7d 26 13 bf
       -0.17623702 -0.09378514 0.15944608 -0.57480603
000070 8d ce 15 bf 03 d2 d0 be cc 1c 0d 3d 6f 49 b2 3d
       -0.58518296 -0.40785226 0.03445129 0.087054126
000080 d4 8e 6d bb 33 f0 f2 3d d6 b8 9e bd 60 a2 35 3c
       -0.0036248462 0.118622206 -0.077500984 0.0110860765
000090 a2 12 9b 3d 90 49 3d bc 75 59 3e be 14 0e f4 3d
       0.07571913 -0.011553183 -0.18588813 0.11916748
0000a0 94 80 3f bd e2 e7 35 be 0a 22 c6 be f8 6e e5 be
       -0.04675348 -0.17764238 -0.38697845 -0.44811225
0000b0 b0 cb 9a 3d f0 ac e2 3c e8 7e ca 3c 9a 3e a2 bd
       0.075583816 0.027670354 0.024718717 -0.079220966
0000c0 3c 13 ef bd 91 b2 22 bb 49 c7 c7 be 8a bd b6 3d
       -0.116735905 -0.0024825672 -0.3901923 0.089228705
0000d0 52 3f 17 bf 99 a6 97 3c 7d d5 e1 bd 3c 95 0e bd
       -0.59080994 0.018512057 -0.11027048 -0.03481029
0000e0 b6 ac cd be 37 b8 c1 3d e3 f1 96 3d 96 e5 ab bd
       -0.4017083 0.09458964 0.07370355 -0.083933994
0000f0 0b 8a 8d 3d 4b da 9b bd 46 5a b4 3d 10 74 00 3e
       0.06911095 -0.076099955 0.08806281 0.12544274
000100 8f 7f fc 3e 3b f7 cb 3d cf f8 a2 bf 8c 95 b6 be
       0.4931607 0.09959265 -1.273218 -0.3566097
000110 8a 48 f6 3e d0 3f a8 3e ad be c7 bf 4e 55 3d bf
       0.48102218 0.32861185 -1.5605065 -0.7395829
000120 75 dd 0b 3f 9a e8 01 3e 10 40 bf be bd 46 1d bf
       0.5463479 0.12686387 -0.37353563 -0.61436063
000130 0a 27 b7 bd b0 2f 2b bf 3a a0 c6 3d 80 65 6c bd
       -0.08942993 -0.6686964 0.096985295 -0.057713985
000140 66 46 2e bc 29 90 02 3f 1b 72 c0 3e 2d 7e 46 bf
       -0.0106369015 0.5100122 0.37587056 -0.7753628
000150 c8 01 fc bc 65 f0 8a be d6 81 f2 be 3b 0d ef be
       -0.030762568 -0.2713653 -0.47364682 -0.46689782
000160 5d 0f f8 3e fb ca 42 3c 40 c6 d0 3e 64 cd c8 bf
       0.4844922 0.011889215 0.40776253 -1.568768
000170 aa 90 e8 3e cc f6 a0 be c4 80 b6 3d d7 1a e5 3e
       0.4542287 -0.3143829 0.08911279 0.4474704
000180 c8 43 74 bf af 2e 8b 3e 7a 7f 06 bf a9 2a 1b bf
       -0.95415926 0.27184054 -0.52538264 -0.6061197
000190 e0 d5 c5 bb fc 44 3b bd c0 88 01 bf 44 d9 97 3d
       -0.006037459 -0.045720086 -0.5059929 0.07414487
0001a0 9e dd cd 3d 76 f8 bc be 6c a4 12 be 2b 27 54 be
       0.10052036 -0.3690831 -0.14320534 -0.20718066
0001b0 04 fe 1f bf fd 51 ae bd 17 a1 02 3d 03 fc 23 3b
       -0.6249697 -0.08511732 0.03189191 0.0025022037
0001c0 b0 6b 4a bd f5 b1 04 3f 04 ee d7 bf 0e 18 70 be
       -0.049419105 0.5183404 -1.6869512 -0.23446676
0001d0 e7 ed e9 bf 42 5d 76 3e b7 00 1b be bc 76 0c bf
       -1.8275727 0.24059013 -0.15136991 -0.54868674
0001e0 39 9d 99 bf 76 a9 9a 3e 8b e8 86 bf a1 7d 85 3e
       -1.2001106 0.30207413 -1.0539716 0.2607241
0001f0 eb 36 a8 3e 13 f4 a9 bd 2d d7 05 bd 27 bd 11 bf
       0.328544 -0.082985066 -0.03267591 -0.5692925
000200 14 94 90 3d d6 77 c3 bd 9a 82 bb bd 91 4b 31 be
       0.07059494 -0.09544341 -0.0915577 -0.17313983
000210 7b 07 86 be 36 90 c5 3c 2d 5e ad bd 37 9f 85 3b
       -0.26177582 0.024116617 -0.08465228 0.004077818
000220 ce 67 26 be d2 f0 c6 3d f8 88 8c 3c c6 db c3 bd
       -0.16250536 0.097139016 0.017155156 -0.09563403
000230 c3 38 cf bc 83 ef 05 3c 18 2e cd 3c 40 03 b5 bd
       -0.02529562 0.00817478 0.025046393 -0.088385105
000240 f7 20 e6 3c b7 4b c0 bd 8d e9 24 be 65 a7 8a bd
       0.02809189 -0.093894415 -0.16104718 -0.06770209
000250 88 e3 f6 3d 24 3b b3 3d 0e 9d bf 3d 14 b6 0e 3e
       0.12055117 0.087515146 0.09356128 0.13936645
000260 f0 00 ce 3d e8 0f 89 bc 77 ce 77 bd 31 ce 1e 3d
       0.100587726 -0.016731218 -0.060499635 0.03877086
000270 1f cd 43 bd b4 5b ec bd c0 7f 23 bd 89 e3 a2 bd
       -0.04780304 -0.115409285 -0.039916754 -0.07953555
000280 99 32 3c 3d 67 4f 87 bd 11 29 bf bd 87 38 8a 3c
       0.04594669 -0.06606942 -0.09334005 0.016872657
000290 18 e5 96 bd f6 ab a6 bd e1 8f 4f 3d 28 04 ac bc
       -0.07367915 -0.08138268 0.050674323 -0.020998076
0002a0 d0 ed e9 3d 5e 74 cd 3d 82 78 8a 3c 06 f9 e2 3c
       0.11422312 0.10031961 0.016903166 0.027706634
0002b0 b1 64 13 bd 40 4b 00 3b c0 f4 14 bc 00 2f e1 3a
       -0.0359847 0.0019576102 -0.009091556 0.0017180145
0002c0 88 31 3f 3d 00 3d c8 3d a2 6b 3b bd f8 49 60 be
       0.046678096 0.0977726 -0.045756944 -0.21903217
0002d0 0d 14 23 bd 53 f9 a0 bd da c7 30 3b b6 f9 85 3d
       -0.039814044 -0.07860055 0.002697459 0.06541769
0002e0 50 d8 5d 3d c1 c0 cd bd 93 dd a8 bd 49 57 e8 bd
       0.05416137 -0.100465305 -0.08245387 -0.11344773
0002f0 42 5b 3a be 20 a7 28 be 06 68 c3 bb 75 8d 99 be
       -0.18198875 -0.16470003 -0.0059633283 -0.29990736
000300 56 26 b2 be 6a 94 a8 bd 66 81 75 3e ba 1a 21 3f
       -0.34794873 -0.08231433 0.23975143 0.62931406
000310 2b b4 6e be 0b 25 7c 3e bc d4 a8 3f 20 40 b9 3f
       -0.23310916 0.24623506 1.3189921 1.4472694
000320 ba 2a ac be dd e9 5f 3d b2 28 21 bf bd 43 98 be
       -0.33626348 0.05466639 -0.6295272 -0.2973918
000330 f3 45 9a bf ac eb e3 be 56 53 12 bc 48 4f c1 3c
       -1.2052597 -0.4451574 -0.008931002 0.023597375
000340 ed de 35 bb 13 b0 fa 3e ea 73 1f bf 93 a9 e6 be
       -0.0027751282 0.4896246 -0.62286246 -0.4505125
000350 00 03 83 bc 40 88 82 3d da 0e 91 3f 83 6b a6 bc
       -0.015992641 0.06373644 1.1332657 -0.020314937
000360 7d 09 96 bf c0 84 b3 3b 18 6a fe be 68 2e aa 3f
       -1.1721646 0.0054784715 -0.49690318 1.3295412
000370 a6 b9 85 bf 10 0c ef bc f0 44 e3 bc d7 bc 26 3f
       -1.044728 -0.029180557 -0.027742833 0.65131897
000380 2d 08 91 3e 05 dc 49 3e 9f 4d 79 3f af f7 13 be
       0.2832655 0.19712837 0.97384065 -0.14449953
000390 f2 ab ce 3d e8 d1 30 bd de 2f f2 3e 8c c0 76 3d
       0.1009139 -0.043168932 0.47302145 0.06024222
0003a0 50 b5 0b bd cc 7f f8 be ac 68 9b be 58 15 2f bf
       -0.03410846 -0.48535 -0.30353296 -0.6839194
0003b0 36 59 25 3f 1d bb 70 3e 1a b7 58 3d 1a 55 fe 3d
       0.6458925 0.23508878 0.052908994 0.124185756
0003c0 96 c7 ae 3d 9d 8a 9f 3f 02 6a a6 3f 26 3f 3a 3f
       0.08534162 1.2464176 1.3001101 0.72752607
0003d0 3a 46 64 3f ae a0 1d 3b 72 6f df 3e 04 00 a1 be
       0.8916966 0.0024052071 0.43639714 -0.31445324
0003e0 25 0f 10 bf 14 72 41 bf d7 a9 d0 3e 6f 1c a7 bf
       -0.5627311 -0.75564694 0.40754578 -1.3055552
0003f0 28 86 31 3e 49 b4 f1 3e c7 5e 19 3e a2 45 17 3f
       0.17336333 0.4720786 0.14977561 0.59090626

actor.2.bias f4 [64]
000000 31 29 96 3d 4e 06 46 3d da 43 b3 bd ca 1a 03 3e
       0.073320754 0.048345856 -0.08753176 0.12803188
000010 ae b4 f8 bd 27 56 3b 3e 48 58 bf be 0b 69 18 be
       -0.12143837 0.18294583 -0.3737204 -0.1488382
000020 81 b1 24 3b 6f d0 7c bd 2f bd 9e bc bc 36 19 be
       0.0025130215 -0.061722215 -0.01937732 -0.14962286
000030 1e 90 0a be c7 ef 60 3d 14 20 27 be 4b 7b 9b 3e
       -0.13531539 0.05491617 -0.1632083 0.30367503
000040 f4 47 a1 bd d3 3b 5b bd d5 06 02 be 42 2e 60 3d
       -0.07875052 -0.05352385 -0.12697919 0.054731615
000050 40 62 59 be 49 96 d1 bd ec af 4f 3e 4d 86 80 3d
       -0.21228886 -0.10233743 0.20281953 0.06275616
000060 a4 f4 e4 bd ae b4 04 3f 70 c4 0b bd db d0 15 3e
       -0.11179474 0.51838195 -0.034122884 0.14630453
000070 a8 57 fc 3e 5c 84 8a bd bb a6 9e 3d f9 f5 80 3d
       0.49285626 -0.06763527 0.07746645 0.062969156
000080 3c 7a c1 bd e8 8d ac be 3b 87 ef 3c ea 83 07 be
       -0.094471425 -0.33702016 0.029239288 -0.13233915
000090 81 54 70 3e 57 fd de bd 3c c7 e3 bd 00 6c 39 be
       0.23469736 -0.108881645 -0.11121985 -0.18107605
0000a0 ee ba f7 bd a2 2f 1b bd e3 bd 09 3f 7c 3c aa 3d
       -0.12096201 -0.037887223 0.5380537 0.08312318
0000b0 e6 35 bb bd 8b 8b a2 bd dc a8 8c bd 16 94 a4 bd
       -0.0914114 -0.07936772 -0.06868145 -0.08036058
0000c0 6c e9 05 be 0a 7f eb 3d e6 2f 16 be 0f 3a 8f 3e
       -0.13077325 0.1149884 -0.1466671 0.27973983
0000d0 6e df 10 bd 67 28 c6 3d 09 d4 5a bd 07 da e4 bd
       -0.03536933 0.09675675 -0.05342487 -0.11174398
0000e0 51 b9 85 bd 74 93 10 be 42 7d ca 3e 00 b9 96 bd
       -0.06529487 -0.14118749 0.3954869 -0.07359505
0000f0 c1 16 da bd 48 a9 09 be 3b de 02 bd 29 94 1a 3e
       -0.10648871 -0.13443482 -0.031950217 0.15095581

actor.4.weight f4 [1, 64]
000000 55 6f 0d be 77 d1 e4 bf 67 b0 d0 3c 63 80 09 40
       -0.13812001 -1.7876424 0.02547474 2.148461
000010 bc 57 9a bd 8c 0c 54 3f d9 15 fe bf 84 2c b1 bf
       -0.07536265 0.82831645 -1.9850417 -1.384171
000020 43 63 5a be e9 cb 50 3d 3a fb 8e bd fe aa c0 3c
       -0.21326928 0.050975714 -0.069815114 0.023519035
000030 b8 db 02 bd cc 89 e2 3f 0d c0 7a 3f 84 38 07 c0
       -0.03194782 1.7698302 0.97949296 -2.1128244
000040 a8 ee a3 bd f6 f1 41 be 93 1f b9 ba c3 8a a4 3f
       -0.080045044 -0.18939957 -0.001412379 1.2854847
000050 eb 6a 2c 3f 21 36 96 bb 67 35 70 3f f7 f8 9a bd
       0.67350644 -0.0045840894 0.93831486 -0.075670175
000060 d7 0e 20 bc c8 33 03 c0 91 1e 6d bc a2 29 35 bf
       -0.009769163 -2.0500355 -0.01447262 -0.7076665
000070 92 e1 0e c0 65 53 94 3b 1c 4c b7 bd f9 52 c8 bd
       -2.2325177 0.004526543 -0.089500636 -0.09781451
000080 ce dd f8 3b d0 10 be 3e a7 4f 43 bf 91 3b 97 bf
       0.0075948006 0.37122202 -0.76293415 -1.1815053
000090 f3 e2 4d bf 07 85 d1 bf fa 5f 3a bd 73 96 a3 3d
       -0.8042442 -1.6368722 -0.045501687 0.0798768
0000a0 22 a4 a9 bd 97 c4 68 bf 65 2a 0b c0 96 a0 0d be
       -0.08283259 -0.9092497 -2.1744626 -0.1383079
0000b0 27 9e 36 ba 14 ea 4d bd a4 8c 89 ba ab d8 81 bc
       -0.00069663156 -0.050272062 -0.0010494185 -0.015850386
0000c0 32 7d 71 bc ac 82 84 3f 7c 2c fc 3f cf 91 a8 3f
       -0.014739322 1.0352378 1.9701076 1.3169497
0000d0 c5 2b a2 3c 66 75 de 3f 3f da a7 3e b0 06 f2 3c
       0.019796262 1.7379577 0.32783696 0.029544204
0000e0 a2 52 9a 3f 50 44 52 3f 0c e1 3e bf dc 99 44 3d
       1.2056468 0.82135487 -0.74562144 0.047998294
0000f0 70 b1 66 3c 85 5d d2 3d 43 b2 02 be f4 1c e4 bf
       0.01408039 0.10271744 -0.12763314 -1.7821336
