HAC-Baseline/preTrained/MountainCarContinuous-h-v1/2level/HAC_MountainCarContinuous-h-v1_ExplorationTechnique.SURPRISE_level_1_crtic.pth (torch, 20695 bytes, 5 tensors)

critic.0.weight f4 [64, 6]
0.06430174 0.02854848 -0.14326438 -0.10685543 -0.11264813 -0.82671267 -0.023888726 0.15159068
0.3200988 -0.3243106 0.11012161 -0.014141021 0.08646094 -1.8721344 0.4312553 -0.086006634
0.35927555 0.48872268 0.13656582 1.3498719 -0.2194874 0.2470865 -0.10071233 -0.28413683
0.46685135 -0.35555312 0.20323718 -1.1678122 -0.041758046 -0.9392688 0.50296223 -2.7615397
0.308567 -0.77809983 0.41832334 0.21247841 0.26097494 1.9829644 -0.1445179 3.1461344
0.5667135 1.0429689 0.17564997 2.4154682 -0.09659391 0.7170584 0.021864733 -0.44855466
-0.02885422 -2.7980356 0.11841297 -1.0499606 0.43537074 0.325356 0.13468829 -0.20084298
0.011506628 0.27827606 -0.13835889 0.32960707 -0.06951132 3.0212467 -0.29990456 -0.21894966
0.63730043 0.47090816 -0.48887056 0.767216 -0.49510854 0.40263388 -0.25701186 0.07203375
0.16168761 0.70726 0.19407475 -0.5390059 -0.24022147 0.2741085 0.04422687 -2.9497514
0.4057249 -0.6507082 0.34560525 0.40576208 0.19296992 1.9773602 -0.23397985 0.29929852
-0.28603315 -0.037057307 -0.39058125 -1.2597289 0.364007 0.5753594 0.08469446 0.5148256
-0.30056202 -1.860612 0.6038962 0.045810077 -0.10243374 0.24460943 0.3826227 -2.492687
0.2017039 -1.1173232 0.20652144 0.156602 0.43440774 0.056173973 0.061827842 -0.45362762
0.030429998 0.058934834 0.05617801 -2.4995272 0.5429664 0.033826116 0.5214341 0.57298666
0.2886257 -0.25382683 0.021467483 -0.7215912 0.47894964 -0.6074757 -0.044286754 -1.941642
0.7038118 -0.12757583 0.206185 0.7840418 0.40528855 -0.70495534 -0.16488655 -0.74994284
0.18395814 -1.2760488 -0.12144192 0.2402143 -0.07676383 0.3659314 0.21787727 0.24042688
0.21306196 0.18060496 -0.48083532 0.062278416 -0.28215647 -0.059999894 -0.32857344 -1.4511845
0.39178956 -1.3274837 0.3153676 0.48611432 -0.57164603 2.0741472 -0.0236141 0.38112584
-0.23671538 -0.023665112 -0.07286157 0.90625775 -0.0067846146 0.645733 -0.12929533 -0.080384076
-0.17118524 1.5164523 -0.040881105 0.5645586 -0.4620579 -0.0765432 -0.211058 2.045034
0.38840312 0.8060687 -0.6442907 -0.38542953 0.2013198 -2.1084065 0.44743586 -0.67083824
0.38973236 0.7777931 0.16383988 -1.8313746 0.14650285 -1.0418068 0.47055143 0.456284
-0.06348992 -1.9110692 0.33938783 -1.7153165 0.40604538 0.52131486 0.08888625 -2.5581753
-0.06441411 -0.1802527 0.14750288 -0.34128943 0.14494818 -1.2017189 0.054235086 -0.6526524
0.54062194 0.42542988 0.17902657 -1.6345261 0.031241216 -0.47129023 0.52831995 0.63098705
-0.20264584 -2.092309 0.18645869 -3.025136 0.084478706 0.6607477 -0.14884159 -1.9542692
0.3175831 -0.31655785 0.031947 0.20115818 0.28265563 1.1886381 -0.24833837 0.39135656
0.013987433 0.082386024 -0.34441105 -2.5873277 0.45287204 -0.16060932 0.4344774 0.2838534
0.44275928 -0.3128478 -0.33205983 -0.05409452 0.13415311 -0.45091823 -0.01542502 0.7813623
0.23826621 0.16726872 -0.2456678 0.7215254 0.1613083 0.43777093 -0.22944398 0.6098348
00000000: a1b0 833d 80de e93c e6b3 12be 05d7 dabd
00000010: 10b4 e6bd 71a3 53bf 4ab2 c3bc 963a 1b3e
00000020: fde3 a33e 0a0c a6be 7087 e13d beaf 67bc
00000030: 6f12 b13d 1aa2 efbf 7fcd dc3e 3f24 b0bd
00000040: f7f2 b73e dc39 fa3e e9d7 0b3e 9ac8 ac3f
00000050: 4ec1 60be 3e04 7d3e 4442 cebd 627a 91be
00000060: 2407 ef3e 0f0b b6be 681d 503e df7a 95bf
00000070: 7c0a 2bbd ec73 70bf 22c2 003f 11bd 30c0
00000080: 7efc 9d3e 8d31 47bf 7a2e d63e f193 593e
00000090: 829e 853e c7d1 fd3f 80fc 13be 445a 4940
000000a0: 2314 113f 0180 853f 96dd 333e 0897 1a40
000000b0: 07d3 c5bd 2491 373f ab1d b33c f5a8 e5be
000000c0: af5f ecbc 0413 33c0 8082 f23d 1c65 86bf
000000d0: eae8 de3e 1095 a63e baeb 093e c8a9 4dbe
000000e0: 4c86 3c3c 337a 8e3e f4ad 0dbe 42c2 a83e
000000f0: f35b 8ebd 1b5c 4140 178d 99be 5734 60be
00000100: 1f26 233f e01a f13e 3e4d fabe 4568 443f
00000110: de7e fdbe 0726 ce3e 0f97 83be 6e86 933d
00000120: 7091 253e fe0e 353f 88bb 463e 4afc 09bf
00000130: 9efc 75be f357 8c3e 3c27 353d bac8 3cc0
00000140: 2dbb cf3e d094 26bf 2cf3 b03e 0cc0 cf3e
00000150: e899 453e 241a fd3f 6a98 6fbe a83d 993e
00000160: f072 92be 67c9 17bd 44fa c7be cc3e a1bf
00000170: 205f ba3e c14a 133f 4a74 ad3d 9ccb 033f
00000180: 44e3 99be 8928 eebf f198 1a3f 59a3 3b3d
00000190: c8c8 d1bd e57a 7a3e 1fe7 c33e 2f88 1fc0
000001a0: 788b 4e3e 7204 8fbf 5b7a 533e 465c 203e
000001b0: b16a de3e ae16 663d 313f 7d3d e141 e8be
000001c0: 5548 f93c a765 713d ea1a 663d 41f8 1fc0
000001d0: d9ff 0a3f 418d 0a3d b57c 053f 41af 123f
000001e0: bfc6 933e 97f5 81be 93dc af3c 33ba 38bf
000001f0: e338 f53e 8783 1bbf 0766 35bd ba87 f8bf
00000200: 032d 343f 3da3 02be 2922 533e f7b6 483f
00000210: fb81 cf3e f477 34bf 05d8 28be 41fc 3fbf
00000220: 865f 3c3e 9155 a3bf 8bb6 f8bd bdfa 753e
00000230: 5b36 9dbd 5c5b bb3e 381b 5f3e 7732 763e
00000240: ea2c 5a3e 82f0 383e 0c30 f6be a717 7f3d
00000250: d076 90be 73c2 75bd c73a a8be 6ac0 b9bf
00000260: a498 c83e fcea a9bf dd77 a13e fae3 f83e
00000270: 6557 12bf d4be 0440 5b72 c1bc ed22 c33e
00000280: 8465 72be 56dd c1bc 7238 95bd 8200 683f
00000290: 7951 debb c24e 253f ff65 04be 68a0 a4bd
000002a0: 2f4b 2fbe 1c1b c23f f272 27bd ea86 103f
000002b0: da92 ecbe aec2 9cbd 971f 58be d6e1 0240
000002c0: c6dc c63e 855a 4e3f 3cf0 24bf 0557 c5be
000002d0: c726 4e3e 22f0 06c0 5016 e53e 0ebc 2bbf
000002e0: 008b c73e 731d 473f a4c5 273e 7c6a eabf
000002f0: d804 163e ed59 85bf 1eec f03e 0e9e e93e
00000300: 0107 82bd ea9d f4bf 3ec4 ad3e 7e8f dbbf
00000310: 2ee5 cf3e e474 053f ff09 b63d 25b9 23c0
00000320: 8beb 83bd 2a94 38be ff0a 173e 7dbd aebe
00000330: 4c6d 143e edd1 99bf 9c25 5e3d 3a14 27bf
00000340: 3366 0a3f f2d1 d93e be52 373e 2738 d1bf
00000350: 94ed ff3c f44c f1be fa3f 073f 5e88 213f
00000360: 6482 4fbe 64e8 05c0 07ef 3e3e d49b 41c0
00000370: 2c03 ad3d c326 293f ee69 18be 7e25 fabf
00000380: 419a a23e df13 a2be dcda 023d 69fc 4d3e
00000390: 3db8 903e 4b25 983f 6a4c 7ebe e35f c83e
000003a0: 8c2b 653c 01ba a83d a556 b0be c796 25c0
000003b0: d8de e73e c576 24be d273 de3e 3c55 913e
000003c0: 58b1 e23e 962d a0be bf03 aabe 3792 5dbd
000003d0: 6f5f 093e c1de e6be 39b9 7cbc 5c07 483f
000003e0: 0ffc 733e 7e48 2b3e 5790 7bbe e3b5 383f
000003f0: 012e 253e 8323 e03e 5df3 6abe 221e 1c3f

critic.0.bias f4 [64]
0.14022537 -0.27252 -0.029761849 0.29740152 0.46611652 0.25056452 -0.27119693 0.24630816
-0.107415065 -0.24507172 -0.31214547 0.03490621 0.27291542 0.27821672 0.10152038 -0.10739936
0.16168982 0.28591168 0.048326604 -0.14571382 0.13513005 0.046191912 0.072940685 -0.38967857
-0.014302164 -0.19179133 -0.11520694 -0.21294127 0.12907991 0.2405175 0.23738372 0.05984645
0.02399592 -0.16996013 0.00602958 0.0049904636 -0.079408325 0.23329628 0.0008422982 -0.22306044
-0.19832808 -0.21721986 0.14384349 0.27428928 0.1855159 -0.078097746 -0.12664485 0.40144995
0.098737024 0.165911 0.36159778 0.054036256 0.37300035 -0.2377485 -0.02213103 -0.049145572
0.15154581 -0.39362845 -0.3843035 0.12354249 0.11157201 -0.35784885 -0.2860016 -0.2567555
00000000: 3d97 0f3e be87 8bbe 1fcf f3bc 0345 983e
00000010: d3a6 ee3e fe49 803e 53da 8abe 3538 7c3e
00000020: 6efc dbbd 15f4 7abe 88d1 9fbe d0f9 0e3d
00000030: 92bb 8b3e 6c72 8e3e ebe9 cf3d 32f4 dbbd
00000040: 0492 253e 0463 923e 1ef2 453d 0136 15be
00000050: 885f 0a3e bb33 3d3d ed61 953d f383 c7be
00000060: a053 6abc f264 44be 9ef1 ebbd 470d 5abe
00000070: 862d 043e 384a 763e b814 733e 8d21 753d
00000080: 1793 c43c 070a 2ebe c893 c53b 0b87 a33b
00000090: d5a0 a2bd 38e5 6e3e adcd 5c3a f569 64be
000000a0: 8416 4bbe e26e 5ebe b54b 133e a56f 8c3e
000000b0: e1f7 3d3e b6f1 9fbd 30af 01be d98a cd3e
000000c0: a336 ca3d 93e4 293e 5823 b93e 1f55 5d3d
000000d0: e7f9 be3e 5874 73be 224c b5bc de4c 49bd
000000e0: d32e 1b3e ab89 c9be 6ec3 c4be d803 fd3d
000000f0: de7f e43d f737 b7be cd6e 92be 7575 83be

critic.2.weight f4 [64, 64]
-0.13577437 -0.064638615 0.2539602 -0.24542582 0.028914427 0.3083556 0.5136061 -0.34542063
0.33882818 -0.054130018 -0.57227486 -0.21771793 -0.17804787 0.20101172 -0.075992234 0.47638735
0.17606314 0.54508984 -0.06994065 0.6591365 0.042228386 0.5240916 0.15333553 0.029055776
-0.19321392 0.60046285 -0.43391603 -0.06513042 -0.637637 -0.4735726 0.16739167 0.31232178
0.52543217 0.52584577 0.1078606 0.20839241 1.379134 0.11956075 -0.23081803 0.3878225
-0.29734477 0.09816947 -0.19307208 0.1766774 0.10607035 -0.40828246 0.025830595 -1.4880725
-0.6451053 -0.36378354 -0.20387083 0.30115992 -0.5207668 0.10188894 -0.02600891 0.45378155
-0.84736675 -0.04995601 0.7831438 -0.01201295 0.10561027 0.011724174 -0.04440677 0.14440097
-0.10932271 -0.017501988 -0.100863695 -0.1331468 -0.10933839 0.049889255 0.049144533 -0.007751355
-0.11620321 -0.040827304 0.069318384 0.07900195 0.10663233 0.00029380963 -0.12310324 -0.040469494
0.077069156 -0.1506907 -0.12338958 -0.06431775 -0.038515974 0.021639353 -0.15802062 -0.028460994
-0.13088536 0.027357398 0.008432971 -0.08622826 -0.059358463 0.06459225 0.037761915 -0.17660998
-0.13118587 0.003071358 -0.022588069 -0.14586541 -0.032808285 -0.044336665 -0.13234541 -0.12030161
-0.0012170821 0.043734748 0.01987946 -0.000978963 0.038121346 0.0793623 -0.12013046 -0.07531468
-0.12324139 0.061157055 -0.16980676 -0.10309174 -0.06272269 -0.032825656 -0.066658765 0.0219684
-0.10114016 0.07525149 -0.077739455 -0.018112822 -0.12748806 0.034411326 0.09792839 0.036247317
0.04936029 -0.032557815 -0.18335862 0.095690854 0.041161716 -0.27991492 -1.2054019 0.15202236
0.005779203 0.08565174 -0.59771997 0.16602422 0.082581185 -0.13190259 0.046793148 0.13200185
0.19143866 -0.45818818 0.014578991 -0.28638282 0.025507554 -0.14413725 0.088890776 0.044802055
0.20989595 0.6419915 0.16321376 0.025883235 -0.28192043 0.0841763 -0.21080157 -0.21481942
-0.28464445 -0.16132033 -0.27157873 -0.22467962 -0.8778075 0.0898313 -0.13892607 -0.1529255
-0.91494536 0.17914917 0.13265388 0.11938517 -0.00062939205 0.2513448 -0.5293273 0.107930444
-0.0053754295 -0.2931384 0.19066873 -0.07766717 -0.3261219 0.21853326 -0.26046422 -0.058794007
-0.624747 0.09070642 0.07550718 0.19795083 -0.006668207 0.075133055 0.048079863 0.41140568
0.03616714 -0.09775619 0.18647248 -0.1128935 -0.19429241 0.17172849 2.093558 0.07094569
0.15243538 -0.053867847 0.25574997 -0.23373254 -0.1297966 0.14905173 -0.04492992 0.22658955
0.093408786 0.1415765 0.1170062 0.24093212 0.008663525 0.1601632 0.05432666 0.013493028
-0.16288354 0.37075078 -0.044563845 -0.03492178 0.071454845 -0.59573853 0.28598925 0.17404039
0.26356533 -0.013014975 0.15057358 0.03346017 1.1230367 -0.017048113 0.20447718 0.13756359
-0.26673818 -0.013212017 -0.2527489 -0.05023919 -0.06795661 -0.028107125 0.6277269 -0.7721655
-0.51217294 0.39526585 -0.37589684 0.15819888 -0.5277525 0.28080058 -0.022388933 0.1471497
-1.4191744 0.056120396 -0.865777 0.06125283 0.104443304 0.09501661 -0.06681335 -0.068430334
00000000: 7008 0bbe 4061 84bd 1207 823e e850 7bbe
00000010: f3dd ec3c c9e0 9d3e b07b 033f f9da b0be
00000020: e37a ad3e 70b7 5dbd 9b80 12bf 73f1 5ebe
00000030: 2e52 36be 04d6 4d3e d1a1 9bbd 0be9 f33e
00000040: e549 343e 028b 0b3f 0b3d 8fbd 2bbd 283f
00000050: acf7 2c3d de2a 063f fd03 1d3e 6106 ee3c
00000060: dfd9 45be efb7 193f 3e2a debe 1963 85bd
00000070: 2e3c 23bf 1c78 f2be b968 2b3e a4e8 9f3e
00000080: b982 063f d49d 063f 05e6 dc3d d264 553e
00000090: 7787 b03f 44dc f43d 905b 6cbe ac90 c63e
000000a0: 933d 98be 130d c93d b0b4 45be ecea 343e
000000b0: 693b d93d 660a d1be af9a d33c 2979 bebf
000000c0: 9f25 25bf d641 babe 84c3 50be a231 9a3e
000000d0: f950 05bf 26ab d03d a310 d5bc 0e56 e83e
000000e0: 07ed 58bf ac9e 4cbd 1d7c 483f f7d1 44bc
000000f0: 324a d83d c016 403c e0e3 35bd d9dd 133e
00000100: 96e4 dfbd 5460 8fbc a091 cebd a257 08be
00000110: ceec dfbd ad58 4c3d c74b 493d 14ff fdbb
00000120: f3fb edbd 883a 27bd ccf6 8d3d c6cb a13d
00000130: 0d62 da3d 760a 9a39 8d1d fcbd 57c3 25bd
00000140: 6fd6 9d3d aa4e 1abe adb3 fcbd 06b9 83bd
00000150: edc2 1dbd 0345 b13c 28d0 21be 0827 e9bc
00000160: d006 06be 9f1c e03c 722a 0a3c 7198 b0bd
00000170: dc21 73bd f148 843d 3dac 1a3d 3fd9 34be
00000180: 9755 06be d648 493b 9d0a b9bc be5d 15be
00000190: fb61 06bd 5d9a 35bd 8e85 07be b160 f6bd
000001a0: 8086 9fba 3523 333d 40da a23c 8c50 80ba
000001b0: 2125 1c3d b488 a23d f506 f6bd 953e 9abd
000001c0: fb65 fcbd d27f 7a3d d3e1 2dbe c321 d3bd
000001d0: c174 80bd 3274 06bd 6484 88bd 13f7 b33c
000001e0: 9222 cfbd 741d 9a3d dd35 9fbd 5761 94bc
000001f0: 3b8c 02be e4f2 0c3d ae8e c83d 1178 143d
00000200: 042e 4a3d 585b 05bd 5dc2 3bbe 91f9 c33d
00000210: 3099 283d 0251 8fbe 9c4a 9abf c0ab 1b3e
00000220: 785f bd3b 2e6a af3d 2d04 19bf 4102 2a3e
00000230: 5320 a93d 7911 07be 2caa 3f3d 7e2b 073e
00000240: 7f08 443e a497 eabe b8dc 6e3c c5a0 92be
00000250: 38f5 d03c b798 13be 5e0c b63d 5c82 373d
00000260: f7ee 563e 8e59 243f 8221 273e 1409 d43c
00000270: e057 90be a064 ac3d 5edc 57be 9ff9 5bbe
00000280: ebbc 91be 2831 25be 5e0c 8bbe 6a12 66be
00000290: feb7 60bf 79f9 b73d a342 0ebe 8198 1cbe
000002a0: dc39 6abf e172 373e 6bd6 073e 3680 f43d
000002b0: c9fd 24ba 44b0 803e fe81 07bf a30a dd3d
000002c0: 5f24 b0bb 3d16 96be aa3e 433e f70f 9fbd
000002d0: 73f9 a6be 2fc7 5f3e 915b 85be fcd1 70bd
000002e0: 6bef 1fbf 4ac4 b93d 82a3 9a3d 9fb3 4a3e
000002f0: f980 dabb 5cdf 993d 64ef 443d c4a3 d23e
00000300: ff23 143d 6634 c8bd a4f2 3e3e b534 e7bd
00000310: 97f4 46be 98d9 2f3e dbfc 0540 f94b 913d
00000320: 0518 1c3e 88a4 5cbd a9f1 823e 9557 6fbe
00000330: 66e9 04be 04a1 183e 7008 38bd 1707 683e
00000340: 1b4d bf3d 6ef9 103e f2a0 ef3d e9b6 763e
00000350: 75f1 0d3c d201 243e a285 5e3d dc11 5d3c
00000360: f1ca 26be 0cd3 bd3e 9488 36bd 240a 0fbd
00000370: eb56 923d 5282 18bf 2f6d 923e a537 323e
00000380: 09f2 863e c33c 55bc f62f 1a3e 880d 093d
00000390: abbf 8f3f 7ca8 8bbc 7762 513e 78dd 0c3e
000003a0: e891 88be 3777 58bc 4e68 81be 9cc7 4dbd
000003b0: d62c 8bbd ea40 e6bc b6b2 203f a3ac 45bf
000003c0: c41d 03bf 4960 ca3e 8d75 c0be e3fe 213e
000003d0: ca1a 07bf 18c5 8f3e ff68 b7bc 69ae 163e
000003e0: 82a7 b5bf 80de 653d 90a3 5dbf 3fe4 7a3d
000003f0: 5fe6 d53d 1298 c23d 70d5 88bd 3425 8cbd

critic.2.bias f4 [64]
-0.06046577 -0.06349901 0.06715842 0.11662977 0.29508975 -0.048094872 0.054380693 -0.112345815
0.26778802 -0.04152787 0.18075176 0.07811696 0.023579681 0.10340054 0.13006124 0.084028244
0.074322365 0.06256691 0.006173592 -0.110912085 0.09219351 -0.051265355 -0.115477145 0.13647088
-0.013473655 0.18148902 -0.1343032 -0.09701497 -0.06556649 0.08610803 0.09788831 -0.13831608
0.17844059 0.0675466 0.13083605 0.18798895 -0.1514283 -0.07728451 -0.022349484 -0.10911581
-0.124713905 0.03257256 -0.05533132 0.24254744 0.0049040406 -0.1219774 -0.087598674 -0.08758281
-0.09514458 -0.11773689 -0.028648738 -0.09440076 0.10708382 -0.090194955 -0.045526776 0.13258445
-0.09800092 -0.039642498 -0.112216495 -0.1267397 0.003652838 0.056429174 -0.005723083 0.26012355
00000000: f5aa 77bd c50b 82bd 5b8a 893d 97db ee3d
00000010: 0116 973e 21ff 44bd 4abe 5e3d 9015 e6bd
00000020: 831b 893e 2119 2abd fd16 393e c9fb 9f3d
00000030: 2d2a c13c aac3 d33d c62e 053e 0017 ac3d
00000040: 5336 983d 1523 803d d84b ca3b e025 e3bd
00000050: f3cf bc3d 9ffb 51bd 487f ecbd 06bf 0b3e
00000060: 9bc0 5cbc 42d8 393e c786 09be c9af c6bd
00000070: b947 86bd 6859 b03d ab79 c83d bba2 0dbe
00000080: 21b9 363e df55 8a3d e3f9 053e 2d80 403e
00000090: 0510 1bbe 5747 9ebd 4416 b7bc 1c78 dfbd
000000a0: 016a ffbd ce6a 053d 18a3 62bd 5b5e 783e
000000b0: 13b2 a03b 49cf f9bd ef66 b3bd 9e5e b3bd
000000c0: 29db c2bd 0a20 f1bd c2b0 eabc 3055 c1bd
000000d0: c34e db3d 22b8 b8bd 497a 3abd 38c4 073e
000000e0: b5b4 c8bd 2c60 22bd c3d1 e5bd 0dc8 01be
000000f0: 7464 6f3b 4722 673d b388 bbbb ea2e 853e

critic.4.weight f4 [1, 64]
0.76930285 -0.12796213 -0.30980316 0.21218951 -0.43319154 1.8644954 0.63456756 0.63461137
-0.31989354 -0.02694504 -0.224422 0.36404005 -0.087965816 0.47500157 -0.28658992 -0.057259966
-0.0761521 -0.32199287 0.3182336 -0.10454954 -0.19661902 0.29418975 0.059668347 -0.20076807
0.014852713 0.75320923 -0.08677444 1.0963556 -0.080765344 0.24461071 -0.2849735 -0.02894963
-0.2601865 -0.3508572 0.28926048 -0.25005755 0.70675373 -0.017960928 0.9177614 0.021790091
-0.031403318 -0.019853977 0.8011225 -0.8542585 0.2941744 -0.08053515 -0.048501506 0.056161463
0.0354901 -0.12564766 -0.10297698 0.057114415 0.7042585 0.9028033 -0.104145646 0.25582156
-0.111177355 0.04212162 -0.032059126 -0.00740394 -0.009416909 0.21639998 -0.041122537 -0.33101407
00000000: 08f1 443f 8108 03be 859e 9ebe 3548 593e
00000010: 48cb ddbe c9a7 ee3f 0573 223f e475 223f
00000020: 16c9 a3be d8bb dcbc e1ce 65be 7563 ba3e
00000030: 6c27 b4bd 6833 f33e eabb 92be 6d89 6abd
00000040: a2f5 9bbd 40dc a4be 84ef a23e 121e d6bd
00000050: 7f56 49be 0aa0 963e cc66 743d 2596 4dbe
00000060: cb58 733c 52d2 403f ccb6 b1bd 6155 8c3f
00000070: 4d68 a5bd 3b7b 7a3e 0ce8 91be c627 edbc
00000080: 2a37 85be 8ea3 b3be f319 943e 8b07 80be
00000090: d0ed 343f cc22 93bc 69f2 6a3f 2281 b23c
000000a0: c4a0 00bd cfa4 a2bc 5d16 4d3f afb0 5abf
000000b0: 079e 963e 9def a4bd 84a9 46bd 9009 663d
000000c0: 115e 113d c8a9 00be 98e5 d2bd cef0 693d
000000d0: 494a 343f 1e1e 673f 504a d5bd 0bfb 823e
000000e0: f4b0 e3bd b887 2c3d 6e50 03bd c09c f2bb
000000f0: 6149 1abc f597 5d3e 1b70 28bd ad7a a9be
