HAC-Baseline/preTrained/MountainCarContinuous-h-v1/2level/HAC_MountainCarContinuous-h-v1_surprise_sync_level_0_crtic.pth (torch, 20439 bytes, 5 tensors)

critic.0.weight f4 [64, 5]
00000000: 19f5 01bf e64d 52c0 13ce a4bb 950d 873e
00000010: bf38 b73e 0a23 e3be 1779 533f 9b59 4dbd
00000020: 3e73 0d3f cb83 433f fe39 833f 629c 7040
00000030: a24d a03b fa74 f3bd 807c 1f3f 31cc 403f
00000040: 0348 aebf dbed 32bc f2e8 45bf 8c60 4040
00000050: 74b7 bfbe 41b6 8cc0 2ab6 7bbb 3b25 103e
00000060: 78ca 993f 3cf9 8ebe 9b51 8d40 e91a 88bb
00000070: 2149 c4bc 777f 0c3e 4ab0 f23e d57a 5440
00000080: 3e72 493c d7c8 a53e e0fb 57bf 8137 f83e
00000090: af79 bf3f 0494 003c bbcf ec3d 88d4 bdbf
000000a0: fd29 823e e657 4dbf a8bd 18bc c906 fb3d
000000b0: 5be5 5740 77ca cc3e 32c0 c240 1007 593c
000000c0: 7f86 aabd fbe0 b63e 650b 51be b957 35c0
000000d0: 3af1 bb3c 01da 89be bd9e adbf ada2 583e
000000e0: d728 50c0 b488 50bb c456 103e e121 a5bf
000000f0: 02bf 7abe 6ebe 3a40 5f97 803c 537f 003f
00000100: 8c50 ffbf 91ce a73e 5ff4 3dc0 b22e aabb
00000110: 1f09 0f3f 02d0 b23f b3c0 843e 66ef 0abf
00000120: 84f8 53be de3e 573d 14a1 3abf f5ee 3ebe
00000130: f354 3a40 2623 50bc 257a 3c3f 76b5 31bf
00000140: 41d9 b03e 9b37 6840 f925 57bb 073e d8be
00000150: 8876 aabc 9b16 88be 1802 b13e 933b 2f39
00000160: 852d 1dbe ba9b 5fc0 ce7a 913f 68a1 8040
00000170: bfc0 8e3c 8d51 36bd be69 ef3e 8322 eabb
00000180: f8c4 a43e e475 e4bb 6c5c 3dbf da56 c33e
00000190: fd99 1cbe 005e 8dc0 c450 72bb 59cd 963e
000001a0: 41f9 a3bf 1224 d93d 82ae 5bbf 6db9 13be
000001b0: dc02 d13d f113 86bd 84df b0be 46a1 8340
000001c0: 5c1a cbb8 d375 94bc 6a4f aabe e5b4 a2bd
000001d0: d22d 7e40 d9e9 063b feee 893e 0093 403f
000001e0: 7d0a 0a3d f51a 0dc0 a89f 2dbb 4c7d 34bf
000001f0: 50c9 a0c0 3fd2 9f3e a6f7 b4bf 596c 963a
00000200: 033e aa3e a7a7 3c40 f7ca a4bc 0d02 b03f
00000210: 283e 013c e1cf fabd 93d8 f73e 0491 f8bc
00000220: 0ddd 2bbe 35d1 cebd 8e9a 343e 03b3 31be
00000230: a45e f93c 57a2 91bf abcb a7bc 0cdb e7be
00000240: c534 893e 007e 19bf 99c7 47c0 edd8 d6ba
00000250: dc37 293e 1065 9f3f 16ef a1bd 54d1 883e
00000260: 9a51 8cbd bfeb fe3d 66ae d63d dbbd b5be
00000270: 5654 62be 2597 9c3b 6b5b 543e 4e33 5c40
00000280: 4b2a a2be 7a57 c9bf 06ba f8b9 5f79 6c3e
00000290: b247 d0bf bcd2 39be c7f5 893f e0f6 a1bd
000002a0: 453b 3b3f f756 7abf c7fb 123f aa73 8cbf
000002b0: cdbd 8ebc 8f9a ad3d 0353 3340 d46c 0e3e
000002c0: 8877 dd3f 9411 80be 19fc 6b3a 8dc3 743f
000002d0: 5de3 a73e 4c8a d2bd 2dce 533d 9d99 453e
000002e0: deee 84be 5045 48bd 95e6 bebf 976b 22bd
000002f0: eebe df3e e7b4 bc3e e42a af3c 8274 f5be
00000300: 4e22 13bd d852 0e3e 8a37 a4be 15eb e4bd
00000310: 347c 9340 57ee d43b 7fdd 9fbe 4172 86be
00000320: 5f40 0fbe 95c7 d7be 8f59 0fbd 8946 a13d
00000330: c237 7f3e 9a2d 58bf dd89 e6bf 8794 52bc
00000340: 5ada 873e 341b 1840 3286 323f a98c 5fc0
00000350: 2c3b 5dbc f9b0 f4be 9b6d 34c0 5d39 3e3f
00000360: 2896 afbf 030f 923b a01c fbbc 6277 2bc0
00000370: bafc 61bd e82d babe f95a 9dbd b747 443e
00000380: 956b bc3e bb01 9cbe 65fa c3bf 4109 eabc
00000390: ea24 8d3e b065 9d3f 7d89 343d d38f 3c3f
000003a0: 36cd 60bd d99b f73d 8917 b4be 30ca 18bf
000003b0: d563 1e40 38da b43a ec0d 183f 18df 40c0
000003c0: 8310 fc3d 7f4e 7cc0 e020 38bc 5ab7 dbbd
000003d0: 0131 9f3e b941 90bd 5c99 82c0 4b09 a63b
000003e0: 543a 983e df42 55be 834d 9c3f 6469 c2bf
000003f0: a61d a93c 630c 33be 724d aebf 907f d93e
-0.50764614 -3.2860045 -0.005029449 0.2637755 0.3578548 -0.4436267 0.82606643 -0.050134283
0.5525397 0.76372975 1.0252073 3.7595448 0.004892067 -0.11887546 0.62299347 0.7531157
-1.3615726 -0.010920967 -0.7730857 3.0058928 -0.3744465 -4.397248 -0.0038408139 0.14076702
1.2014914 -0.27924526 4.4162116 -0.0041535986 -0.023960652 0.13720499 0.47400123 3.319997
0.012295304 0.3237979 -0.84368706 0.48479846 1.495901 0.00784779 0.11563059 -1.4830484
0.2542266 -0.8021225 -0.009322561 0.122571535 3.3733737 0.39998218 6.0859613 0.013246313
-0.08326434 0.3571852 -0.20414503 -2.8334792 0.022942174 -0.26924136 -1.3564068 0.21155806
-3.2524927 -0.0031819763 0.14095598 -1.2900964 -0.24486926 2.917873 0.01569718 0.5019428
-1.9946456 0.32774785 -2.9680402 -0.005193555 0.5587329 1.3969729 0.25928268 -0.54271543
-0.2070027 0.05255019 -0.72902036 -0.18645842 2.911435 -0.012703693 0.7362388 -0.6941751
0.34540752 3.628394 -0.003282903 -0.42234823 -0.020808473 -0.26579747 0.3457191 0.00016711494
-0.15349396 -3.4938798 1.1365602 4.019703 0.017425893 -0.044511367 0.46760362 -0.0071452274
0.32181525 -0.0069720615 -0.7396915 0.381522 -0.15293117 -4.4177246 -0.003697441 0.29453543
-1.2810441 0.10602583 -0.8581315 -0.14426203 0.102056235 -0.06546772 -0.3454553 4.1134367
-9.684704e-05 -0.01812259 -0.33263713 -0.07944659 3.9715466 0.0020586161 0.2694015 0.75224304
0.03370141 -2.2047703 -0.0026492868 -0.7050369 -5.0245743 0.31215093 -1.4138076 0.0011476382
0.33250436 2.9477327 -0.020116312 1.3750626 0.007888354 -0.12246681 0.4840742 -0.030342586
-0.16783543 -0.10098497 0.17637083 -0.17353444 0.030440636 -1.1377667 -0.020482859 -0.45284307
0.26798072 -0.59957886 -3.1215575 -0.0016391553 0.16525215 1.2452717 -0.0790693 0.26722205
-0.06851502 0.12447309 0.104824826 -0.3549641 -0.22102484 0.00477876 0.20737998 3.4406314
-0.31672892 -1.5729821 -0.00047440844 0.23093174 -1.627188 -0.18146795 1.077813 -0.07908416
0.73137313 -0.9778895 0.5741543 -1.0972798 -0.017424488 0.08476745 2.8019416 0.13908702
1.7302103 -0.2501341 0.0009002104 0.95610887 0.32790652 -0.10280284 0.051710296 0.1929688
-0.2596349 -0.048894227 -1.4914118 -0.039653387 0.43700355 0.36856768 0.021382757 -0.4794045
-0.035921387 0.1389879 -0.32073623 -0.11177651 4.6089115 0.006498139 -0.31223676 -0.26259044
-0.139894 -0.42144457 -0.03499752 0.07874782 0.24923614 -0.8444458 -1.8010823 -0.0128527945
0.26533777 2.3766603 0.69736016 -3.4929602 -0.013502877 -0.4779127 -2.8191898 0.7430628
-1.3717699 0.004457356 -0.030653298 -2.6791615 -0.05517266 -0.3636315 -0.07683367 0.19167982
0.3680083 -0.3047007 -1.5310789 -0.028568866 0.27567226 1.2296658 0.04407643 0.7365696
-0.054883204 0.120902725 -0.35174206 -0.59683514 2.4748433 0.0013797944 0.59396243 -3.0136166
0.12307837 -3.942291 -0.011238307 -0.10728331 0.31092075 -0.070437856 -4.0812206 0.005067026
0.29732 -0.2082629 1.2211155 -1.5188413 0.02064402 -0.17485194 -1.3617384 0.42480135

critic.0.bias f4 [64]
00000000: 2dc0 aabe 40a5 a9be 3ed6 34be 320b 2bbe
00000010: ba70 fcbd 11f2 45be 3f00 663e 805c a23e
00000020: 18eb 0e3e f866 41bc f71e abbe d0b8 ee3d
00000030: 8a6a 263e 1170 a43e aac5 b8be aec1 163e
00000040: 1bfb f7bd bdb2 6fbe e919 173e d3db c7be
00000050: 1959 fb3d c836 68be cb68 4ebe e901 443d
00000060: c787 a5be cd9e 3e3e 5065 91be 99d6 a9be
00000070: e5aa cebe 077b 8bbe aa67 83be f7a2 33be
00000080: 1d2d 7cbe 4ba9 3dbf 0365 5c3e e963 f5be
00000090: 18c2 acbe a502 edbe ddb8 1cbe 1db0 c2be
000000a0: 27cd 8cbe 68f4 d4bd 7ddf 0d3e 2c77 073e
000000b0: 6fe9 9ebe e54e 37bf 3e61 6cbe a444 52bc
000000c0: 8264 f3bc 9027 b03d c610 cc3d 62c3 453d
000000d0: 8998 94be 07f1 fbbe 7190 2dbd 642c d8bc
000000e0: d670 ddbe 25df dabe aa75 08be db3a a2bc
000000f0: 4961 23bd 9957 1abf 88d4 44bd 5e3c 13bf
-0.33349743 -0.33133888 -0.17659852 -0.1670349 -0.123261884 -0.19330622 0.22461031 0.31711197
0.13956869 -0.011804335 -0.33422062 0.11656344 0.16251579 0.3211675 -0.36088306 0.1472232
-0.121084414 -0.23408027 0.14755978 -0.390349 0.122728534 -0.22677147 -0.20157163 0.047853384
-0.32330152 0.18615265 -0.28397608 -0.33171538 -0.40364757 -0.272423 -0.25665027 -0.17542635
-0.24626584 -0.74086446 0.21522908 -0.47927788 -0.33741832 -0.4629108 -0.15304895 -0.3802499
-0.2750027 -0.10398179 0.13854785 0.13229054 -0.3103747 -0.7160476 -0.2308397 -0.012833748
-0.029711012 0.08601296 0.09964137 0.048282035 -0.29022625 -0.49207327 -0.04237408 -0.026388355
-0.4325015 -0.4274837 -0.13326135 -0.019803455 -0.0398877 -0.60289913 -0.048054248 -0.5751399

critic.2.weight f4 [64, 64]
00000000: 1d6c 9c3e 26ad 52bd 43c2 843f b1d1 dd3d
00000010: f3e4 9ebe b29e 3fbe 59d0 6ebd 61bb 91bd
00000020: 320a c3be ebbe ec3e 8f39 51bf 62c7 5dbe
00000030: e0d0 8a3e 43fd 52be 6344 923d 89c5 5dbe
00000040: cef3 3b3f 1782 9a3e 1bae 283f 73ca 123f
00000050: 333f 9dbe 3f3f 9abd 606e 943d 5a4f dfbd
00000060: 7c71 03bf 0b5d 74bf 9e49 12be c842 793d
00000070: 40ad 533f 9005 40be 74c0 a5bd 2d60 07be
00000080: aadd ae3e 8711 08be 0f96 873e c66a e23c
00000090: 7693 8fbd 89e5 c2be 5fbb 113d 21ed 3a3f
000000a0: fb8a bbbd 1e74 17be 1e64 9dbe d3c3 f53e
000000b0: e86d edbd 680e dcbe 86a8 993d da0e 413f
000000c0: 433c c5bf 3af0 9abe 3812 823d 1401 eabf
000000d0: e12c a03e b7d8 503e f52d f0bc 5682 73bf
000000e0: 3570 ac3d 3699 5c3e b168 333f 7dbc 363e
000000f0: 9756 9ebd 7f53 dcbe 911e ae3d ea79 97be
00000100: 907c 26bf d209 073f 5824 37bf fc94 7fbe
00000110: a299 8ebf f7cb 3abe abaf a93d 8df1 7d3e
00000120: 9b9d d33d 37fe bfbf 5ff4 7b3b c543 3f3f
00000130: 8cce 203e 5fc6 2d3f 9955 adbd 1455 c33e
00000140: 36f9 9dbe ffe2 093f 1ced 12bf 1526 e03e
00000150: 11ea 1d3f 7f63 813c b198 cdbf 7c12 3a3e
00000160: db41 0b3f 1b43 babe 7bf6 d03e fed4 783d
00000170: 8273 0f3f 7b5f 01bf 8d37 8f3c 555b 393e
00000180: 82ed 2abf 6c07 a2be ba32 7bbf 97ca ca3d
00000190: 68c8 a83b fdaf 4ebf 31a7 9e3d 3e84 34bf
000001a0: 0210 c9bb 7faf fabd b26c 70bc 9821 5c3e
000001b0: ab74 d23d 1cbf 4fbe 70a3 023d d2f6 243f
000001c0: 141c 2abf 70dd c8be 268a fc3c e104 9bbf
000001d0: 7364 a83e 176f e83d 5df4 f73e 345c e8bd
000001e0: 947a 23bc 4d55 9cbf 769b 573e 19d8 debd
000001f0: 84ab 04c0 ac04 18bf 765c c7be f020 6f3c
00000200: b6e3 25c0 d0cd 4b3e 31f3 3bbf d556 98bf
00000210: 09b4 abbf b9de 4ebf f5e9 b6be 5815 35bf
00000220: e441 bb3f 095b 02bf 307b 08be f6bf 683f
00000230: 106d 93bf 3a1b 9d3f 33c3 70be e0fd a3be
00000240: 528c 47be c0d8 c6bf 0698 6abf 39a6 013f
00000250: a870 3c3f 4db9 063e ed15 443f b134 90be
00000260: 0529 eebb 134f c93f 678e 74bd a8e0 dcbd
00000270: 1350 983e 37ab 86bf e442 223d 626a 103f
00000280: 0761 92bf 77f5 debc ec74 753e 90ac 653c
00000290: 0b9f 573d b9a7 9ebe e4c4 073d 9e0b ebbf
000002a0: bf8e e4bd 8688 073e 4ed5 eebb 8d12 c1bf
000002b0: 25ab 46bd e91a a2be 0c25 283e ff63 e4bd
000002c0: c30c e83c c22d 64be 11fc 0dbf cf20 95be
000002d0: 2fb4 963c ae6d 4dbf 5dbb ad3f 3135 3c3f
000002e0: b0e9 4dbc 0d95 1b3c 34c9 62bf a0e1 20be
000002f0: 6230 c5be b2ce a3be 7896 4bbf 0c88 5cbe
00000300: 8708 92bf 8112 db3e d26b d7bd c551 85bd
00000310: d5cc 58bf 5784 98be 6120 863e 2a96 0ebe
00000320: 5014 7b3f 1ed8 133e ec7d 93be ecf7 953f
00000330: 2290 9abe 50cf 9d3f b974 aabe 0f8d 0ebd
00000340: 7280 dcbe 512a bf3f 31d6 4cbf 0ec1 683f
00000350: 016d 8a3e bacc 973e ba52 ab3e 20a3 d43e
00000360: 2faf 6d3f 1a1e 173f e5d9 4e3f dcaf cc3b
00000370: e657 2e3f 2fe2 90bf 3b8d 8cbd c741 013e
00000380: f536 593e 0a4d e6be 3e1a 41bf 26c2 943e
00000390: 7585 36bd d478 403f ecc7 14bd 2356 0f3e
000003a0: a096 81be a0c1 2cbf f034 6d3b 623c 1cbf
000003b0: 367c 273e ce80 6abf e738 97bd 6c8b 91be
000003c0: 677d 373f ac16 913c ab97 cdbe 618b 7b3e
000003d0: eebb 203e ae1d 19bf 0882 1c3d 65d4 463f
000003e0: 88e5 933c 9f6d 193f 2acc 0c3f db09 0ebf
000003f0: 51fb c13d db3c 6a3e 518b 56be b9e4 b2be
0.30551234 -0.05143466 1.0371784 0.10831011 -0.3103405 -0.18712881 -0.058304165 -0.07115818
-0.38093716 0.4623941 -0.8172845 -0.2165809 0.27112484 -0.20604424 0.0714195 -0.21657385
0.7341889 0.30177376 0.65890664 0.57340163 -0.3071228 -0.075315945 0.07247615 -0.10903807
-0.5134504 -0.9545447 -0.14285895 0.060854703 0.82686234 -0.18752122 -0.08093348 -0.13220282
0.3415349 -0.13287936 0.26481673 0.027638804 -0.07010548 -0.38065746 0.03557908 0.7301808
-0.09157368 -0.14790389 -0.30740446 0.48000965 -0.115932286 -0.4297974 0.075028464 0.75413287
-1.5409015 -0.30261403 0.06351131 -1.8281579 0.3128424 0.2039517 -0.029318789 -0.9512075
0.08419839 0.2154282 0.7008162 0.1784534 -0.077313595 -0.43032452 0.08501924 -0.295852
-0.6503382 0.5274936 -0.7153983 -0.24959177 -1.1140635 -0.18241869 0.08285459 0.24799176
0.10332795 -1.4999455 0.0038445217 0.74712783 0.15703791 0.67880815 -0.08463592 0.38150847
-0.30854195 0.53861994 -0.5739305 0.43779054 0.6168528 0.015794514 -1.6062223 0.18171114
0.5439736 -0.36379322 0.4081305 0.06075 0.56035626 -0.50536317 0.017482543 0.18101247
-0.6676866 -0.31646287 -0.9812428 0.09901922 0.0051508434 -0.80737287 0.07746733 -0.70514286
-0.0061359415 -0.122405045 -0.0146743525 0.2149719 0.10276159 -0.20287746 0.031894147 0.6443912
-0.66449094 -0.39231443 0.030827593 -1.2110864 0.32889137 0.11349314 0.48428622 -0.11345711
-0.009977955 -1.2213532 0.21055397 -0.10881061 -2.0729685 -0.5938213 -0.3893773 0.014595255
-2.5920234 0.1990273 -0.73417956 -1.1901499 -1.3414317 -0.808086 -0.3572537 -0.7073569
1.4629483 -0.5092016 -0.13328242 0.9091791 -1.1517658 1.2273934 -0.23511963 -0.3202963
-0.19487122 -1.5534897 -0.9163822 0.5064426 0.736094 0.13156624 0.76595956 -0.281652
-0.0072680735 1.5727257 -0.059706118 -0.10785037 0.29748592 -1.0521001 0.039614573 0.5641233
-1.143586 -0.027216656 0.23970383 0.014018193 0.05264191 -0.30987337 0.033146754 -1.836292
-0.11160039 0.13235673 -0.0072886115 -1.5083786 -0.04850306 -0.31661156 0.16420382 -0.11151885
0.028326398 -0.2228308 -0.5546275 -0.29126593 0.018396465 -0.8024548 1.3572804 0.73518664
-0.0125679225 0.009495986 -0.8858826 -0.15711069 -0.38513476 -0.31993634 -0.7952647 -0.21536273
-1.1408852 0.42787555 -0.10518612 -0.06509737 -0.8468755 -0.29788467 0.26196578 -0.1392447
0.9807787 0.14437911 -0.28807008 1.1716285 -0.3018809 1.2328892 -0.33292177 -0.034802493
-0.43066746 1.4934789 -0.8001433 0.9091958 0.27036288 0.2964838 0.33461553 0.41530704
0.92845434 0.59030306 0.8080123 0.00624655 0.6810287 -1.1319026 -0.06862875 0.12622748
0.2121237 -0.4498065 -0.7543067 0.29054374 -0.04456087 0.7518437 -0.036323473 0.13997702
-0.2531023 -0.6748295 0.0036194883 -0.61029637 0.16355976 -0.9160279 -0.073839 -0.28426683
0.71675724 0.017711006 -0.40154776 0.24564888 0.1569669 -0.5981091 0.038209945 0.7766784
0.018053785 0.59932894 0.5499903 -0.5548379 0.09471763 0.22874777 -0.20951582 -0.34940127

critic.2.bias f4 [64]
00000000: 194f 61be 784f 34be 3e21 0ebe a021 cf3d
00000010: 31d1 51be dc82 98bd d53a 15be 22d6 a0bd
00000020: 32c1 f23e 29bb a43e 42a5 9abd c32f fdbd
00000030: 2d46 8a3e 200b 803e fc5b 4fbe 8625 bfbd
00000040: 16b3 a83e 7ab5 eabd 36c0 49be 6cd8 16be
00000050: 12c0 cbbd e58c 82be 714e 803e 17fa 60bd
00000060: 235e 173e 3244 c93c 1c13 d2be 5929 823e
00000070: b401 c33c 2706 8f3d 0a67 9bbd c2bd 92bd
00000080: 9bdf 893e aa52 ecbd b57e c4be 75ca 363e
00000090: 35b1 33bd f7d4 0f3e 4183 2cbe e183 ebbe
000000a0: f322 6fbe c889 0dbe 6dc1 763e ddee 2e3e
000000b0: 0626 0abe c2be a9bd c4b5 d83e 1144 2abe
000000c0: 42c6 c1bd f365 f83e 0fc8 24bf 3f5a cf3e
000000d0: 4e70 8bbe 048e 09be b903 2abe 806d c53e
000000e0: 4a95 b3bd 5797 fdbc 10b0 f8bd 95c4 2bbe
000000f0: 7c00 dabd ce91 05bd 6ec2 76be b719 983e
-0.2200283 -0.1760844 -0.13879868 0.10113835 -0.20489956 -0.074468344 -0.14573224 -0.078533426
0.4741302 0.32174042 -0.07551052 -0.123626254 0.27006665 0.25008488 -0.20249933 -0.09333329
0.32949132 -0.11460395 -0.19702229 -0.14730996 -0.09948744 -0.2549812 0.25059846 -0.054926004
0.14782004 0.02456865 -0.41030204 0.2542217 0.023804523 0.06983595 -0.075880125 -0.071651
0.2692841 -0.115392044 -0.3837792 0.17850669 -0.04387017 0.14046083 -0.16846944 -0.45999053
-0.23353176 -0.1382209 0.24097224 0.17083307 -0.13491067 -0.08288337 0.42326176 -0.16627528
-0.09461643 0.4851528 -0.64367765 0.4049854 -0.2723412 -0.13433081 -0.16602983 0.38560104
-0.08768709 -0.030955954 -0.12142956 -0.16774209 -0.10644624 -0.032609753 -0.24097607 0.2970712

critic.4.weight f4 [1, 64]
00000000: dafd 3bbe d250 883f d53f 2e40 3b8a 2abf
00000010: eea5 39bf acd7 45bd 1ade 47bd 5133 65bc
00000020: 0c06 acbf 6354 dabf f5cf 4dbd f976 143f
00000030: cff4 08bf 61d0 6cbf bba8 bcbe bda3 443f
00000040: 3599 ca3e 298e 5f3f f144 b03f 3323 32bc
00000050: eed6 753f 55f5 c93f c1ea 163f e46b cf3e
00000060: 17c4 873f c18f 263f ed1e 753f 657d d63e
00000070: 1ab7 703f 16dd 0cbf eeb3 4abc 2139 903c
00000080: 6e41 08bf b782 403c 6be2 75c0 6628 e4be
00000090: d0a0 723f 792d 653f c6a4 a33e a7f0 88bf
000000a0: 3122 f83f ea9c e63e 1061 8b3e 77be 2d3e
000000b0: df52 15bd 312d b7be 8b59 7abf 1bda 7bbc
000000c0: 4f76 073c e257 ed3e 2837 52bf 6160 81bf
000000d0: 7635 bc3f 3763 1140 0a6f 59bb d53f 5bbf
000000e0: 3a20 19bf 136f bdbd e07e 3ebd 2a14 1a40
000000f0: e54e 96bd 66d9 d2bd 1507 3b3e fb1d bcbf
-0.18358555 1.0649664 2.722646 -0.6661717 -0.72518814 -0.048301384 -0.048795797 -0.013989286
-1.3439345 -1.7057003 -0.05024715 0.5799404 -0.5349855 -0.9250546 -0.3684748 0.76812345
0.39570013 0.87326294 1.3771039 -0.01087265 0.9603108 1.5777994 0.58951956 0.40512002
1.0606717 0.650631 0.95750314 0.41892543 0.9402939 -0.5502485 -0.012372 0.017605366
-0.5322484 0.011749915 -3.8419445 -0.44562072 0.9477663 0.8952251 0.3196165 -1.0698441
1.9385434 0.4504159 0.2722249 0.16967188 -0.036455985 -0.35776666 -0.9779288 -0.015371825
0.008267953 0.46356112 -0.8211541 -1.0107538 1.4703815 2.2716806 -0.0033177757 -0.85644275
-0.598148 -0.09249701 -0.046507716 2.4074807 -0.07339267 -0.10295372 0.1826442 -1.4696649
