HAC-Baseline/preTrained/MountainCarContinuous-h-v1/2level/HAC_MountainCarContinuous-h-v1_ExplorationTechnique.SURPRISE_level_0_crtic.pth (torch, 20439 bytes, 5 tensors)

critic.0.weight f4 [64, 5]
0	0xbe5539c1	-0.20822813
1	0x4018488b	2.3794277
2	0xbdd7658e	-0.10517417
3	0x3d8e01c4	0.069339305
4	0xbfd5bc13	-1.6698021
5	0x3ee62dda	0.44956857
6	0xbfbec148	-1.4902735
7	0xbc9acb9b	-0.018895915
8	0x3e0cc06e	0.13745281
9	0x3fbecfda	1.4907181
10	0x3ece0191	0.4023557
11	0x3fd372fd	1.6519467
12	0xbace9d0e	-0.0015763359
13	0xbed70a00	-0.41999817
14	0xbfdd77b6	-1.7302158
15	0xbee90f57	-0.45519516
16	0xbe22e740	-0.15908527
17	0x3d36585b	0.044517856
18	0xbe9d9948	-0.30781007
19	0x3f353b8f	0.70794004
20	0x3e97af50	0.2962594
21	0xbf585ba8	-0.84514856
22	0xbd84a7dc	-0.06477329
23	0x3e933baa	0.28756458
24	0xbe8be342	-0.2732182
25	0x3ee17548	0.4403479
26	0x3fab9936	1.3406131
27	0x3c8c4755	0.017123858
28	0xbd619814	-0.055076674
29	0xbf9a1d87	-1.2040261
30	0xbdd5b715	-0.10435311
31	0xbee4364e	-0.4457268
32	0xbde48275	-0.11157695
33	0xbd786b8e	-0.060649447
34	0xbf78d199	-0.9719482
35	0xbe3aad8f	-0.1823027
36	0x3f8e66b0	1.1125088
37	0xbd0a8afc	-0.033823952
38	0x3eee3ce9	0.46530846
39	0x3ef1e334	0.47243655
40	0x3d3d465b	0.046209674
41	0xc033b3f1	-2.8078578
42	0x3b1caf1f	0.0023908091
43	0xbdf548b5	-0.119767584
44	0x3fddab0d	1.7317826
45	0x3f310a8c	0.6915672
46	0x3fc09f62	1.504864
47	0xbeaf4d3a	-0.34238607
48	0xbe13adb9	-0.14421739
49	0xbe3c2325	-0.18372782
50	0xbeec42b7	-0.4614465
51	0xc00219ef	-2.0328329
52	0x3e57df56	0.2108129
53	0x3ea9db9a	0.33175355
54	0x3f659891	0.8968592
55	0xbe0898a7	-0.13339482
56	0xbfe59b9b	-1.7938112
57	0x3d4e6147	0.05038574
58	0x3eaf3fcb	0.34228358
59	0x3ed91f93	0.42406902
60	0xbe729f3c	-0.23693556
61	0x3f4b63d2	0.7944919
62	0x3c264716	0.010148784
63	0x3ec02360	0.3752699
64	0xbf7349c6	-0.95034444
65	0x3e38b2d5	0.18036969
66	0xbfef187b	-1.8679346
67	0xbd0540f5	-0.03253265
68	0x3e615092	0.22003391
69	0x3f43314d	0.762471
70	0xbdb5e2d1	-0.088811524
71	0x3f37109b	0.7150971
72	0xbdf33975	-0.118761934
73	0xbe2e0852	-0.16995361
74	0xbfe8b5be	-1.8180463
75	0x3e2875db	0.16451208
76	0x3fce69f0	1.612608
77	0x3e4f56f9	0.20248021
78	0x3e69fbdd	0.22849984
79	0xbf8e1daf	-1.1102809
80	0x3f09ab85	0.53777343
81	0x3f7aec00	0.9801636
82	0x3b4fa8b5	0.003168625
83	0xbf09bd49	-0.5380445
84	0xbea4fbdd	-0.32223406
85	0x3d105d50	0.03524524
86	0x40232761	2.5492785
87	0x3b915658	0.004435342
88	0x3c86771e	0.016414221
89	0xc029daec	-2.653987
90	0x3e991838	0.2990129
91	0x3fd9c1a5	1.7012221
92	0x3e8805a7	0.26566812
93	0xbeb4e525	-0.35331073
94	0xbf31dd54	-0.69478345
95	0xbc8352ab	-0.01603063
96	0x3fceecd8	1.6166029
97	0x3c793f67	0.01521287
98	0xbedb12eb	-0.4278787
99	0x3fe75fa5	1.8076063
100	0x3e96a63e	0.29423708
101	0xbfc1df54	-1.5146279
102	0x3d8c404f	0.068482034
103	0x3f41e978	0.7574687
104	0x3f2efbcc	0.6835296
105	0x3d9ad2c4	0.075597316
106	0xc006b147	-2.1045702
107	0xbe18fc5c	-0.14940017
108	0xbd94cf6b	-0.07266124
109	0x3e9f0542	0.310587
110	0x3f04dd40	0.519001
111	0x400248d3	2.0356948
112	0xbb4fa9ec	-0.0031686975
113	0xbeef99c7	-0.4679701
114	0xc008aaa2	-2.1354146
115	0x3f00e5d5	0.50350696
116	0x3fd69819	1.6765167
117	0xbd2e838c	-0.04260592
118	0xbdc41b18	-0.0957548
119	0xbfc2d37a	-1.5220788
120	0xbf2943c5	-0.66119033
121	0x3fbfecff	1.49942
122	0xbc6a751b	-0.014310147
123	0xbe48a902	-0.19595721
124	0xbfdd8260	-1.7305412
125	0xbe5fa1f3	-0.21839122
126	0xbfd515cc	-1.6647277
127	0xbc12e9fc	-0.008966919
128	0x3e1ab28a	0.1510717
129	0x3fdff8ec	1.749784
130	0x3d617221	0.055040482
131	0x403d987a	2.9624314
132	0xbbb50302	-0.00552404
133	0xbd82cab0	-0.06386316
134	0xc0070f9c	-2.1103277
135	0xbd9d4600	-0.07679367
136	0xbedb9dde	-0.4289388
137	0xbe0f3bb4	-0.13987619
138	0x3e0b9a3e	0.13633057
139	0x3cf50dee	0.029913869
140	0xbee672f2	-0.4500957
141	0x3feb36f3	1.8376144
142	0x3a86d7e8	0.0010287734
143	0x3d0bee37	0.034162726
144	0xbfa649a4	-1.2991223
145	0xbd115909	-0.0354853
146	0xc00a7010	-2.1630898
147	0x3df8eb1e	0.1215422
148	0x3d2c7e56	0.04211267
149	0x3fee5561	1.8619806
150	0xbe8a145d	-0.2696866
151	0xbfba14b6	-1.453757
152	0xbc0efd7d	-0.0087274285
153	0x3e52128d	0.20514889
154	0x3f14a862	0.5806943
155	0x3e01303d	0.12616058
156	0x3fe114df	1.7584494
157	0x3b443a34	0.0029941918
158	0x3ee4732c	0.4461912
159	0x3fa44b31	1.2835447
160	0x3cd25151	0.02567354
161	0x3fbc0288	1.4688272
162	0x3e0348ef	0.1282079
163	0x3e1f6d7a	0.15569106
164	0xc005b45d	-2.0891335
165	0x3dad4cf3	0.084619425
166	0x3fbae9d7	1.4602612
167	0xbed57b2f	-0.41695544
168	0x3e54a385	0.20765503
169	0xbf1134cc	-0.56721187
170	0xbefca529	-0.49344757
171	0x404a7bdf	3.1638105
172	0x3bd00616	0.0063483818
173	0x3eab26cb	0.33428034
174	0x3f5048e8	0.81361246
175	0x3f3cd0f8	0.7375636
176	0x3f2595f0	0.6468191
177	0xbe7b741b	-0.2455601
178	0xbea067eb	-0.31329283
179	0xbf5c021f	-0.85940737
180	0x3eaa76a1	0.33293632
181	0xbdd81b38	-0.105520666
182	0x3d80c40f	0.06287395
183	0x3e51c19d	0.20484014
184	0xbe876a33	-0.2644821
185	0xbf10ec75	-0.56610805
186	0xbbf9666c	-0.0076110866
187	0x3ba7d602	0.0051219473
188	0x3f15f276	0.5857309
189	0xbf317ce1	-0.69331175
190	0xbdf2ed79	-0.118617006
191	0xbfd79f94	-1.6845574
192	0x3bb86d80	0.005628288
193	0x3deb095f	0.11476397
194	0x3fb9f188	1.4526834
195	0x3f48f885	0.7850421
196	0x3fbcc929	1.4748889
197	0x3cb6ef5f	0.022330938
198	0xbe1ff60e	-0.15621206
199	0xbfecd94d	-1.8503815
200	0x3cf3b134	0.029747583
201	0xc0549f71	-3.3222315
202	0xbc010b80	-0.007876277
203	0xbeb40812	-0.35162407
204	0xbe344846	-0.17605695
205	0x3df7f06a	0.12106402
206	0xbfafd1f0	-1.3735943
207	0xba76ed5a	-0.00094195234
208	0x3daaf528	0.08347541
209	0x400a8b5a	2.1647553
210	0xbec9bd73	-0.3940235
211	0xbfee7837	-1.8630437
212	0xbd005cc5	-0.031338472
213	0xbe23f413	-0.16011076
214	0xbf691c50	-0.91058826
215	0xbe1b0db4	-0.15141946
216	0x3fc93978	1.5720663
217	0x3b9b4422	0.0047383467
218	0x3e2f928a	0.17145744
219	0xbfe7c239	-1.8106147
220	0xbe039b8d	-0.12852307
221	0xbf87b7d9	-1.0602981
222	0xbe2e3433	-0.170121
223	0x3e20deeb	0.15710036
224	0x3f9a7b81	1.206894
225	0xbe9e7410	-0.30947924
226	0xc0084fab	-2.1298625
227	0xbe57b434	-0.21064836
228	0x3e0b8a19	0.13626899
229	0x3f88f3b8	1.0699377
230	0xbe0f507b	-0.13995545
231	0xbe96adff	-0.29429623
232	0xbc25bcd1	-0.010115818
233	0xbd96baae	-0.07359825
234	0xbe9c8009	-0.30566433
235	0x3deba18f	0.11505424
236	0x404b2f2c	3.1747541
237	0x3c7071b4	0.014675546
238	0xbd098362	-0.033572562
239	0xc0042955	-2.0650227
240	0xbe623166	-0.22089157
241	0xbfd305f8	-1.6486197
242	0xbd2908d9	-0.041268203
243	0x3ec7ff3e	0.39061922
244	0xbf0395f9	-0.51400715
245	0xbed943da	-0.4243458
246	0xbfba2b75	-1.4544512
247	0xbbe5041f	-0.0069890167
248	0x3ec40e22	0.38292032
249	0x4003a9d1	2.0572398
250	0xbdb04cf5	-0.086084284
251	0x3fa11e05	1.2587286
252	0xbe940338	-0.28908706
253	0xbe9f1604	-0.31071484
254	0xbf5dff05	-0.86717254
255	0xbe953ff1	-0.29150346

critic.0.bias f4 [64]
0	0x3dc2edcb	0.09518012
1	0x3ec3aaeb	0.38216338
2	0x3dac2934	0.08406296
3	0xbeb7c106	-0.35889453
4	0x3e795f08	0.24352658
5	0x3e379589	0.17928137
6	0x3dc708a1	0.09718443
7	0xbd0badf3	-0.034101438
8	0x3d1a9d7e	0.037747853
9	0xbe863f5f	-0.26220223
10	0xbec5e8d5	-0.386542
11	0x3dae8e14	0.08523193
12	0x3e2c8470	0.16847396
13	0x3deba682	0.11506368
14	0xbd621415	-0.055194933
15	0x3e3b6f68	0.18304217
16	0xbbd3e278	-0.006466206
17	0x3e0985ef	0.13429998
18	0xbe946560	-0.28983593
19	0xbec8eb60	-0.39242077
20	0xbe3744b0	-0.17897296
21	0xbd27a0f5	-0.040924985
22	0x3e0c64f2	0.13710383
23	0x3e578073	0.21045093
24	0xbe69511e	-0.2278485
25	0x3c68b393	0.01420297
26	0x3db4626e	0.088078365
27	0xbe8430a4	-0.2581836
28	0x3aa6fe96	0.0012740667
29	0x3e0a0b87	0.1348096
30	0xbe03621f	-0.12830399
31	0x3ea2c9af	0.31794497
32	0x3e8f8a5d	0.2803525
33	0xbd58f025	-0.052963395
34	0xbdabd37d	-0.083899476
35	0xbe5c6902	-0.21524432
36	0xbea6faf1	-0.32613328
37	0xbc0fea37	-0.0087838685
38	0x3c988283	0.01861692
39	0x3e50e29d	0.20398946
40	0xbd7140db	-0.05889974
41	0x3e883539	0.26603106
42	0xbe53d5c0	-0.20687008
43	0x3de5810b	0.112062536
44	0xbe0e0490	-0.13868928
45	0x3e1c9eb7	0.1529492
46	0x3e1bc841	0.1521311
47	0x3e32b9b7	0.17453657
48	0xbbc83865	-0.0061102384
49	0x3d9095e2	0.07059838
50	0xbecde52f	-0.40213916
51	0xbe0e3686	-0.13887987
52	0xbece9da4	-0.40354645
53	0x3db4ee37	0.088344984
54	0xbdb7fcf0	-0.08983791
55	0xbd3c29ac	-0.04593818
56	0xbecd2f3c	-0.400751
57	0xbddc9265	-0.1077011
58	0x3e542ff6	0.2072142
59	0x3de8673e	0.11347817
60	0xbe08f0da	-0.13373128
61	0x3d793dab	0.060849827
62	0x3e8b51bc	0.27210796
63	0x3e416ff6	0.18890366

critic.2.weight f4 [64, 64]
0	0xbd17e6fd	-0.037085522
1	0x3c58515c	0.013202991
2	0x3db2f653	0.08738389
3	0xbd604393	-0.054751944
4	0x3e38c3f3	0.18043499
5	0x3ead9e6f	0.33909938
6	0xbd187be6	-0.037227534
7	0x3e2297eb	0.15878265
8	0x3e11a9d3	0.14224939
9	0x3cef65ce	0.029223349
10	0xbdce2927	-0.10066443
11	0xbeb014a5	-0.3439075
12	0x3e49f50a	0.19722381
13	0x3d5d155a	0.05397544
14	0x3e0b74d1	0.1361878
15	0x3deee817	0.116653614
16	0xbf6c5748	-0.9232068
17	0x3e75e6da	0.24013844
18	0xbdbbcfe8	-0.09170514
19	0xbe453f39	-0.19262399
20	0x3d923740	0.07139444
21	0x3d730002	0.05932618
22	0x3ec22fdb	0.37927136
23	0x3e434c9a	0.1907219
24	0x3e12b993	0.14328603
25	0xbdafd1e6	-0.08584957
26	0x3e3dfe10	0.18553948
27	0x3e1ad0aa	0.15118662
28	0x3da887cd	0.08229027
29	0xbda81764	-0.082075864
30	0xbdd15ba8	-0.1022256
31	0x3eb9958a	0.36246902
32	0x3dbb9237	0.09158748
33	0x3d79ce5c	0.060987815
34	0x3f2c5059	0.673101
35	0x3e919b3d	0.2843875
36	0xbd2229ec	-0.03959076
37	0xbfc3e829	-1.5305225
38	0x3d90c76a	0.07069285
39	0x3efa7f32	0.48925167
40	0x3e071867	0.13192903
41	0xbe0a32ec	-0.13495988
42	0x3e2dbb34	0.16965944
43	0x3e5366ee	0.20644733
44	0xbec5e623	-0.38652143
45	0xbe202581	-0.15639307
46	0x3deab105	0.11459545
47	0x3e61a7c2	0.22036651
48	0xbee09968	-0.4386704
49	0xbe7c7e61	-0.24657585
50	0x3db5af96	0.08871381
51	0xbe6fc492	-0.2341483
52	0xbe74430a	-0.23853698
53	0xbdf480d1	-0.11938632
54	0xbf028677	-0.5098643
55	0xbe704eef	-0.23467611
56	0x3de8132c	0.11331782
57	0x3f032870	0.5123358
58	0xbdb4a1ff	-0.08819961
59	0x3e516681	0.20449258
60	0xbbf13aa4	-0.007361727
61	0xbdbd63b6	-0.09247534
62	0x3e393028	0.18084776
63	0x3cbd818c	0.023133062
64	0x3ea4267b	0.32060608
65	0xbe343152	-0.17596939
66	0x3e2ebccd	0.1706421
67	0xbe4a3b1d	-0.19749112
68	0x3d237e83	0.039915573
69	0x3ddccdf9	0.10781474
70	0x3d3c8961	0.046029452
71	0xbd8efed7	-0.069822006
72	0xbf6abb08	-0.9169164
73	0x3d0809d8	0.033212513
74	0x3e9d4cb5	0.30722585
75	0x3e2675be	0.16255853
76	0x3e6151fe	0.22003934
77	0xbdd03691	-0.10166658
78	0x3de20e6f	0.11037909
79	0x3d49d2c5	0.04927327
80	0x3f16257e	0.5865096
81	0x3ee1af37	0.4407899
82	0x3e328cae	0.17436478
83	0x3eae1a60	0.34004498
84	0xbe2e2bdf	-0.17008923
85	0xbe85787b	-0.26068482
86	0x3ea665af	0.32499453
87	0x3e0f4f8d	0.1399519
88	0x3ee8efd6	0.4549548
89	0xbee0b84a	-0.438906
90	0x3ebede80	0.3727913
91	0x3b9304a8	0.004486639
92	0x3e7f25eb	0.24916808
93	0xbe8d7bc3	-0.27633485
94	0x3e246700	0.16054916
95	0xbe23de4f	-0.16002773
96	0x3e88aabe	0.26692766
97	0x3dfe098f	0.12404167
98	0xbe9c0131	-0.3046966
99	0xbe28777e	-0.16451833
100	0x3b31af00	0.0027112365
101	0x4014d0f2	2.325253
102	0xbe1747a6	-0.14773425
103	0x3df32bf1	0.118736155
104	0xbf0e9b5d	-0.55705816
105	0xbe8e8e0f	-0.27842757
106	0x3e85e5eb	0.26151976
107	0x3e9be30d	0.30446663
108	0xbed0e824	-0.4080211
109	0xbdfebf9a	-0.12438889
110	0xbd505666	-0.050863646
111	0x3eb9daf8	0.36299872
112	0x3dbc9fd1	0.0921017
113	0xbf8552a2	-1.0415843
114	0x3dae3e0f	0.085079305
115	0xbe9fbd23	-0.31198987
116	0x3ea5da25	0.32392994
117	0x3e0ca78d	0.1373579
118	0x3ed25c61	0.41086105
119	0xbdf8a81f	-0.121414416
120	0xbd174560	-0.036931396
121	0xbec04380	-0.37551498
122	0x3e85b278	0.26112723
123	0x3e2fadc0	0.17156124
124	0x3d87154c	0.06595859
125	0xbf0dd009	-0.5539556
126	0x3d887ef3	0.06664839
127	0xbe9340a7	-0.28760263
128	0xbde6f10f	-0.11276447
129	0x3e77c29f	0.24195336
130	0xbe728129	-0.23682083
131	0xbdda17c0	-0.10649061
132	0x3dd2e382	0.102973
133	0xbeceeef9	-0.40416697
134	0x3e0e3f7c	0.13891405
135	0xbda099e9	-0.07841856
136	0x3e92af4e	0.28649372
137	0x3e08df1f	0.13366364
138	0xbb950244	-0.004547389
139	0x3eb4f2ec	0.35341585
140	0xbdf85406	-0.12125401
141	0x3e3c3e31	0.18383099
142	0xbe3bd23e	-0.1834192
143	0xbd516e4d	-0.05113058
144	0x3fbf068f	1.4923877
145	0xbe420dcd	-0.18950577
146	0xbe3f3a9e	-0.18674704
147	0x3f08b7f9	0.5340572
148	0x3e1c5b73	0.1526926
149	0x3db52e42	0.088467136
150	0xbed0034e	-0.4062752
151	0xbe0f6d08	-0.14006436
152	0xbeaab646	-0.3334219
153	0x3e078c7b	0.13237183
154	0xbe91fbfc	-0.2851256
155	0xbd127bd0	-0.035762608
156	0xbdfa0d0d	-0.122095205
157	0x3ce8a324	0.028398104
158	0xbce9eec8	-0.028556243
159	0xbe3d4301	-0.18482591
160	0xbde00bea	-0.109397724
161	0xbdb36788	-0.087599814
162	0xbf57d6f6	-0.8431238
163	0xbcae2ded	-0.021262133
164	0x3d12fd46	0.03588607
165	0x3f4f428c	0.8096092
166	0x3e6dbe3c	0.232171
167	0xbeebd72c	-0.460626
168	0xbda07f07	-0.078367285
169	0x3e4c2137	0.19934545
170	0xbdb59ec0	-0.0886817
171	0xbe5cee89	-0.21575369
172	0x3dcaf609	0.09910209
173	0x3d15872c	0.036505863
174	0x3ddba50f	0.10724842
175	0xbe38d19b	-0.18048708
176	0x3ed0b0ee	0.40759987
177	0x3ecd0b60	0.4004774
178	0x3c039f55	0.008033593
179	0x3d9297e9	0.07157881
180	0x3dd23008	0.102630675
181	0x3b8599fb	0.004077194
182	0x3f5569d5	0.8336461
183	0x3e4b56e0	0.19857359
184	0xbc4de9b0	-0.0125679225
185	0xbc0542a4	-0.008133564
186	0xbd0294aa	-0.03188006
187	0xbd77f2a4	-0.060534135
188	0x3cc14970	0.023594588
189	0xbd17af45	-0.037032384
190	0xbd677844	-0.05651118
191	0x3db6f185	0.08932785
192	0xbed7894c	-0.42096937
193	0x3e423b1b	0.1896786
194	0xbe196739	-0.14980783
195	0x3dec1ddf	0.11529135
196	0x3e033a84	0.1281529
197	0xbe4225bc	-0.18959707
198	0xbcf86c0c	-0.030324958
199	0xbe8765e5	-0.26444927
200	0x3e8664bf	0.26248738
201	0x3d2b596f	0.041833337
202	0xbe8eb87f	-0.27875134
203	0x3e8395e7	0.25700304
204	0xbe92a6b3	-0.28642806
205	0x3f090aa0	0.5353184
206	0xbcd6303e	-0.02614605
207	0xbeac270c	-0.3362354
208	0x3d2053ee	0.03914254
209	0xbdfbdc3a	-0.12297864
210	0xbe179408	-0.14802563
211	0xbb87a4cf	-0.0041395198
212	0x3e926066	0.2858917
213	0x3db05b00	0.08611107
214	0xbe3cb5f0	-0.18428779
215	0xbe794321	-0.24342014
216	0xbeb732b5	-0.35780874
217	0x3eabc69b	0.3354996
218	0xbe3006a5	-0.17190035
219	0x3d48177f	0.048850533
220	0xbe55da45	-0.20884044
221	0x3dc31834	0.09526101
222	0xbddc93ba	-0.10770364
223	0x3e8d635f	0.27614877
224	0xbe29f9de	-0.16599223
225	0xbe41c714	-0.18923599
226	0xbe131996	-0.14365229
227	0x3dd111fd	0.10208509
228	0x3bdde240	0.006771356
229	0x3e943de1	0.2895346
230	0xbbe53ff7	-0.0069961506
231	0xbe642958	-0.22281396
232	0xbe13c79b	-0.14431612
233	0xbd1ee717	-0.038794603
234	0xbde4e263	-0.11175992
235	0xbe3facb1	-0.1871822
236	0x3ebcbef0	0.36864424
237	0xbe133fcb	-0.14379804
238	0xbe3c134b	-0.18366735
239	0xbebd089f	-0.3692064
240	0x3e6498f4	0.22323972
241	0x3ed7b817	0.42132637
242	0x3d45a85f	0.048256274
243	0x3e754bf7	0.2395476
244	0xbe871e56	-0.26390332
245	0xbd6b35d5	-0.057424385
246	0xbd7c22da	-0.061556675
247	0x3e76bdc2	0.24095824
248	0x3c93e588	0.018053785
249	0xbd87a292	-0.06622805
250	0xbea6bbf8	-0.32565284
251	0xbeadb507	-0.33927175
252	0xbe1593b4	-0.14607126
253	0x3db35797	0.08756941
254	0xbe91a67d	-0.28447333
255	0xbd4bb059	-0.049728725

critic.2.bias f4 [64]
0	0x3e14e786	0.14541444
1	0xbd9c5c67	-0.07634812
2	0x3e0363d8	0.12831056
3	0xbc1c40a4	-0.009536896
4	0x3bf4135c	0.007448597
5	0xbd995303	-0.07486536
6	0xbde40e82	-0.1113558
7	0xbd1ac9fe	-0.03779029
8	0xbe1594c6	-0.14607534
9	0x3d27d7c5	0.04097726
10	0xbcbbec4d	-0.022939825
11	0xbd0fee71	-0.035139505
12	0x3d0cffa1	0.034423474
13	0x3e0563c1	0.13026334
14	0x3d88b9ad	0.0667604
15	0xbce0473b	-0.027377715
16	0xbdf1698e	-0.11787711
17	0x3dc77767	0.09739571
18	0x3d6ab65c	0.057302818
19	0xbd977839	-0.073959775
20	0x3e2e7d03	0.17039876
21	0x3d8861d3	0.066592835
22	0x3da336a1	0.07969404
23	0xbdf8a834	-0.12141457
24	0x3dd5735a	0.10422392
25	0x3e01628f	0.12635253
26	0x3d36f0bb	0.044663172
27	0x3e3f94b1	0.18709065
28	0x3d2e883f	0.042610403
29	0x3e00f55e	0.125936
30	0xbc909d1e	-0.017653044
31	0x3d578f41	0.052626852
32	0x3de61af1	0.112356074
33	0xbd6041b8	-0.054750174
34	0xbdf0371e	-0.11729263
35	0x3d786d98	0.06065139
36	0xbca1b0ea	-0.01973768
37	0x3e241727	0.16024457
38	0x3e055863	0.13021998
39	0xbdac8512	-0.08423819
40	0x3d28ba49	0.04119328
41	0x3be34804	0.006936075
42	0x3d93cdf9	0.072170205
43	0xbd400d80	-0.046887875
44	0xbd9a5a2f	-0.075367324
45	0xbe4018c7	-0.18759452
46	0x3e203ae4	0.15647465
47	0xbc74429c	-0.014908459
48	0xbe2936c8	-0.16524804
49	0xbc0c68d3	-0.008569914
50	0xbe2c4918	-0.16824758
51	0x3e1514ce	0.14558718
52	0xbe03c003	-0.12866215
53	0xbdc69d7f	-0.09698009
54	0xbe0544c4	-0.13014513
55	0x3e1f8e2e	0.15581581
56	0x3cde5278	0.027138934
57	0x3dbd4228	0.09241134
58	0xbe0fb761	-0.14034797
59	0x3e57924c	0.21051902
60	0xbddb395e	-0.10704301
61	0xbe71a3b4	-0.23597604
62	0x3d088f98	0.033340067
63	0x3d93086c	0.07179341

critic.4.weight f4 [1, 64]
0	0xbe9e1fdc	-0.30883682
1	0x3fd0ec9b	1.6322206
2	0x3f06bf80	0.52635956
3	0xbe7315bc	-0.2373876
4	0xbd89e29a	-0.06732674
5	0xbd47db7b	-0.048793297
6	0xbdd0b8ab	-0.101914726
7	0xbd174049	-0.03692654
8	0xbfd5d2f2	-1.6705
9	0x3f4e1279	0.8049694
10	0xbe5c42c6	-0.21509847
11	0x3fcafb9a	1.5858033
12	0xbe787d4f	-0.24266551
13	0xbeb65911	-0.35614827
14	0xbe501d59	-0.20323695
15	0xbc36b711	-0.011152045
16	0x3c8fbc1a	0.017545749
17	0x3f1b4579	0.6065288
18	0x3e56175e	0.20907351
19	0xbe5eb3f6	-0.21748337
20	0x3f425b16	0.75920236
21	0x3ee449da	0.44587594
22	0x3f00dc2d	0.5033596
23	0x3e8bf8ee	0.27338356
24	0x3f09c201	0.5381165
25	0x3eef5110	0.46741533
26	0x3eb7c385	0.35891357
27	0x3f8901c6	1.0703666
28	0x3e7f9364	0.24958569
29	0xbea65e33	-0.32493743
30	0xbc830d64	-0.015997596
31	0xbe988674	-0.2979008
32	0xbeca1aa7	-0.3947346
33	0x3bea8bc0	0.007157773
34	0xbdcb0027	-0.099121384
35	0xbd6d1d49	-0.057889257
36	0x3e050540	0.12990284
37	0x3eb8688c	0.36017263
38	0x3f038807	0.51379436
39	0xbd46c961	-0.048531894
40	0x3f029894	0.51014066
41	0x3eea9b47	0.45821592
42	0xbe65bf8c	-0.2243635
43	0x3f1b328c	0.60624003
44	0xbe96df67	-0.29467317
45	0xbe91e265	-0.28493038
46	0xbe79938d	-0.24372692
47	0xbe738b6e	-0.23783657
48	0xbe370098	-0.1787132
49	0x3ddb3fe8	0.107055485
50	0xbf543b26	-0.82902753
51	0xbe965100	-0.29358673
52	0x3d8cc2ad	0.06873069
53	0x3dd552d8	0.10416192
54	0xbbd4a9e5	-0.0064899796
55	0xbe5ec058	-0.21753061
56	0xbf0df183	-0.5544664
57	0xbe650b96	-0.22367701
58	0xbce2e4b6	-0.027696948
59	0x3f008346	0.5020031
60	0xbd60e3e1	-0.054904822
61	0xbf3b6795	-0.7320493
62	0xbe49fd2c	-0.19725484
63	0xbe8ea33b	-0.2785891
