HAC-Baseline/preTrained/MountainCarContinuous-h-v1/2level/HAC_MountainCarContinuous-h-v1_ou_sync_level_0_actor.pth (torch, 20183 bytes, 5 tensors)

actor.0.weight f4 [64, 4]
0	0x3f3b7f28	0.732409
1	0x4045d444	3.0910807
2	0xbbdc8088	-0.0067291893
3	0xbf8c44e2	-1.0958521
4	0xbd8ee01d	-0.0697634
5	0xbdf162e1	-0.11786438
6	0xbe4fd596	-0.2029632
7	0x3ebe020a	0.3711093
8	0x3e2b5de1	0.1673503
9	0xc04b6040	-3.1777496
10	0x3edb230e	0.42800182
11	0x4018a189	2.3848593
12	0x3e724c99	0.23662032
13	0xbfdffc12	-1.7498801
14	0x3e9804a9	0.29691055
15	0x3f91a309	1.1377879
16	0x3f25bcef	0.64741415
17	0x402e83ca	2.7267938
18	0xbebc00fa	-0.36719495
19	0xbfe3cc4b	-1.779672
20	0xbe5fdd23	-0.218617
21	0xbe9c6bc0	-0.30550957
22	0xbe279668	-0.16365969
23	0x3eb8e087	0.361088
24	0xbe758d48	-0.23979676
25	0xc05ccd3a	-3.450026
26	0x3eb8a1b3	0.36060867
27	0x3ff01454	1.8756204
28	0x3f122d32	0.5710021
29	0x3ff1fd44	1.8905416
30	0x3ffe4868	1.9865847
31	0x3e7bce4b	0.24590413
32	0x3f203097	0.6257414
33	0x402a71e7	2.663202
34	0xbedd2bd8	-0.43197513
35	0xbfe339f4	-1.7752061
36	0x3e1a5e72	0.1507509
37	0x3f9a6ab6	1.2063816
38	0x3ee3fdc3	0.44529542
39	0x3e88e183	0.26734552
40	0x3ec20569	0.37894753
41	0x3ff21d96	1.8915279
42	0x3fb3144a	1.3990567
43	0x3fd121a4	1.6338391
44	0xbdc8e1c3	-0.09808686
45	0xc024c0da	-2.5742707
46	0x3eec5140	0.4615574
47	0x4022d2dc	2.5441198
48	0x3ed12e15	0.4085547
49	0x40148007	2.3203142
50	0xbf34704a	-0.7048384
51	0xc013164a	-2.2982354
52	0xbf40533f	-0.75127023
53	0xc0159e36	-2.3377814
54	0x3f04c38b	0.51860875
55	0x3febd460	1.8424187
56	0x3c5802a6	0.013184225
57	0xc005855e	-2.086265
58	0x3ef273ab	0.47353873
59	0x3fae36a3	1.3610424
60	0x3d00f320	0.031481862
61	0xbeaebaf4	-0.3412701
62	0x3e1de050	0.154176
63	0xbe3052e0	-0.17219114
64	0xbf1a1a28	-0.6019616
65	0x3e181f5d	0.14855714
66	0x3f3ea802	0.7447511
67	0xbfffa17c	-1.9971156
68	0xbece3f33	-0.40282592
69	0xc026bc54	-2.6052446
70	0x3f21ce31	0.6320525
71	0x40183e5d	2.3788064
72	0x3f6d9b0b	0.928147
73	0x3d33eba2	0.04392589
74	0x3ed732fc	0.42031085
75	0xc004ca27	-2.0748384
76	0xbee8b162	-0.45447832
77	0xc0429748	-3.0404835
78	0x3e9f8256	0.31154126
79	0x3ff1b7a5	1.8884169
80	0xbf2d2e9f	-0.67649263
81	0xc050f3f6	-3.2648902
82	0x3f1c4045	0.6103557
83	0x3f9f7758	1.2458296
84	0x3ebd2fdf	0.36950585
85	0x3fee6acf	1.8626345
86	0x3e556194	0.20838004
87	0xc042ce33	-3.0438354
88	0xbe930446	-0.28714198
89	0xbf61ea43	-0.8824808
90	0x3ec9f9f4	0.39448512
91	0x40398c90	2.8992043
92	0x3e84c728	0.25933194
93	0x3ea4af10	0.32164812
94	0xbea4e3cb	-0.32205042
95	0xbe97bac5	-0.2963468
96	0x3ecfe04b	0.4060081
97	0x40104aca	2.2545648
98	0xbed2cfc6	-0.41174144
99	0xc0269574	-2.602872
100	0xbf0b6fec	-0.54467654
101	0x40442202	3.0645757
102	0xbedbb26d	-0.42909566
103	0xbf533fae	-0.8251904
104	0x3cb9e82a	0.022693712
105	0x4033cfcd	2.8095582
106	0xbf1cde74	-0.61276937
107	0xbff0b272	-1.8804457
108	0xbf515c37	-0.81781334
109	0xc0493f6a	-3.1444955
110	0x3f3ed2ff	0.74540704
111	0x40019ef9	2.025328
112	0x3ee8d559	0.4547527
113	0x3ff9db32	1.9520018
114	0xbee80bcc	-0.453215
115	0xc020f52c	-2.514964
116	0x3ebb79be	0.3661632
117	0x400d9f2e	2.2128406
118	0xbeb93677	-0.36174366
119	0xc02aad1f	-2.6668165
120	0x3ab59e00	0.0013856292
121	0xbe3e8450	-0.1860516
122	0xbd0deaf0	-0.034647882
123	0xbead7924	-0.33881485
124	0xbe171d9d	-0.1475739
125	0xc07b1c6a	-3.9236093
126	0x3dbd1c64	0.09233931
127	0x3ffa30f2	1.9546187
128	0x3ef67053	0.48132572
129	0x3fb929bd	1.4465863
130	0x3ec36990	0.38166475
131	0xc03d47c9	-2.9575064
132	0xbe878e5d	-0.26475802
133	0x3f31d7c1	0.6946984
134	0x3ddb2bec	0.10701737
135	0xbeb556cd	-0.35417786
136	0xbeea62a3	-0.4577838
137	0xc07be7ef	-3.936031
138	0x3eb293ee	0.34878486
139	0x3fab32da	1.3374894
140	0x3f462729	0.77403504
141	0x3ff71b98	1.9305296
142	0x3fe514dd	1.7896992
143	0x3f28cfea	0.6594225
144	0xbdb0d148	-0.08633667
145	0x3dd5e1f0	0.10443485
146	0x3e842914	0.2581259
147	0x3eceabe4	0.40365517
148	0x3ee934a0	0.45547962
149	0xbecafcf2	-0.39646107
150	0x3e00da88	0.12583363
151	0xbe5c3978	-0.21506298
152	0xbe2c923a	-0.16852656
153	0xc04b1917	-3.1734064
154	0x3efa162f	0.4884505
155	0x3fb83a9a	1.4392884
156	0x3e88d1cc	0.26722562
157	0x3e33efe4	0.1757198
158	0x3e2660a0	0.16247797
159	0xbe8a67ca	-0.2703231
160	0x3ee8b10c	0.45447576
161	0x3de10640	0.1098752
162	0x3d83ba38	0.06432003
163	0xbee199ea	-0.4406274
164	0x3df34059	0.11877508
165	0x40354fb4	2.8329897
166	0xbede897a	-0.4346426
167	0xbf68c8c1	-0.90931326
168	0x3eec4bbe	0.46151537
169	0x3ff9c39f	1.9512824
170	0xbee3f27a	-0.44520932
171	0xc014fb90	-2.3278542
172	0x3f017414	0.50567746
173	0x40156d63	2.3348014
174	0xbefd951b	-0.4952782
175	0xc01e1f29	-2.4706519
176	0xbf126fd1	-0.5720187
177	0xc013a520	-2.3069534
178	0x3f245950	0.6419878
179	0x3f40df4d	0.7534073
180	0x3dbdae16	0.0926172
181	0x3e7d4df4	0.24736768
182	0x3d8965e7	0.067088895
183	0xbe23c1e4	-0.15991932
184	0x3f3fa252	0.74857056
185	0x401510d0	2.3291512
186	0x3fc50abf	1.5393904
187	0x3f66623f	0.8999366
188	0xbddfbf27	-0.10925131
189	0x3d95cc7b	0.07314392
190	0xbd852d37	-0.06502765
191	0xbe050f59	-0.12994136
192	0x3ea3a310	0.31960344
193	0x3edc019c	0.42969978
194	0xbd4abf20	-0.049498677
195	0xbde54538	-0.11194843
196	0x3d163582	0.036672123
197	0xbffda5d5	-1.9816233
198	0x3eb21e7e	0.3478889
199	0x4016492e	2.3482165
200	0xbf3b5458	-0.73175573
201	0xc048a081	-3.1347964
202	0x3f254bde	0.6456889
203	0x4000bd9c	2.0115728
204	0x3dd6b38f	0.10483467
205	0x403fd07a	2.9970994
206	0x3d67c69d	0.056585897
207	0xc0679f82	-3.6191106
208	0xbf2c147b	-0.6721875
209	0xbfde1e75	-1.7353045
210	0x3f1103ac	0.5664623
211	0x40317de0	2.7733078
212	0xbeb9d5a1	-0.36295798
213	0xc070d358	-3.7628994
214	0x3d1c5762	0.038169272
215	0x4013dd81	2.3103945
216	0x3cefe702	0.029284958
217	0xc00e2592	-2.221043
218	0x3efffb32	0.49996334
219	0x3fe4960b	1.785829
220	0xbe11fb16	-0.14255938
221	0xc01c97db	-2.4467685
222	0x3d952a2e	0.07283436
223	0x405d2e81	3.4559634
224	0xbf60db8b	-0.87834996
225	0xc0232c2d	-2.5495713
226	0x3f36ad74	0.7135842
227	0x3fe70257	1.8047589
228	0x3d9ddd90	0.07708275
229	0xc05ce3b6	-3.4513984
230	0xbe39155e	-0.18074557
231	0x405b58da	3.427298
232	0x3f46a658	0.7759757
233	0xbf8a7bad	-1.0818993
234	0xbf19b771	-0.60045534
235	0x3fc6da0e	1.5535295
236	0x3eb8fe2d	0.3613142
237	0x40297e60	2.6483383
238	0x3d086d3c	0.0333073
239	0xc03684b4	-2.8518496
240	0x3f0ab058	0.5417533
241	0x3f94c99b	1.1624025
242	0x3ec43864	0.38324273
243	0xbfe14e1f	-1.7601966
244	0x3eb70a50	0.35750055
245	0xc03e00aa	-2.9687905
246	0xbe9b6c62	-0.30356127
247	0x402b60f5	2.6777928
248	0xbe9d19c8	-0.30683732
249	0x40598a27	3.3990571
250	0xbecee73d	-0.40410796
251	0xbf96435e	-1.1739309
252	0xbdcd17a7	-0.10014277
253	0x40188b40	2.3834991
254	0x3e968b1d	0.2940301
255	0xc07ce019	-3.9511778

actor.0.bias f4 [64]
0	0x3e08259b	0.13295595
1	0xbee11e50	-0.4396844
2	0x3ed87b6e	0.4228167
3	0x3e67f665	0.22652586
4	0x3e8c7b81	0.27437976
5	0xbeee26f0	-0.46514082
6	0xbc2ee289	-0.010674127
7	0xbeaba378	-0.33523154
8	0x3e65c6a0	0.2243905
9	0x3e6f7fd6	0.2338861
10	0xbe567475	-0.20942862
11	0x3e82b6e2	0.25530154
12	0xbd22a5b3	-0.039708804
13	0xbc8fbec4	-0.017547019
14	0x3e4c51b8	0.19953048
15	0xbefe22c2	-0.49635893
16	0x3c4721f1	0.012154088
17	0x3e885d20	0.2663355
18	0xbe0d028c	-0.13770503
19	0xbbd84847	-0.006600413
20	0xbb9cca83	-0.0047848835
21	0x3e8408d7	0.25787994
22	0x3d6ad680	0.05733347
23	0xbf09bafe	-0.5380095
24	0x3d6d951f	0.05800354
25	0xbe318eab	-0.1733958
26	0xbda21695	-0.079144634
27	0xbc98f0ea	-0.018669564
28	0xbcae235a	-0.021257091
29	0x3d31861e	0.043340795
30	0xbef34720	-0.47515202
31	0x3d8d4dc3	0.068995975
32	0x3ed996bd	0.42497817
33	0xbe95e359	-0.29275015
34	0xbd547fef	-0.05187982
35	0xbea23de4	-0.31687844
36	0xbee72f20	-0.4515314
37	0xbef91ffe	-0.4865722
38	0x3e13dde9	0.14440121
39	0xbe8c8e4a	-0.27452308
40	0xbea49396	-0.3214385
41	0xbe538a87	-0.20658313
42	0x3c168afc	0.00918841
43	0x3c9f176f	0.019420354
44	0x3cae3c49	0.02126898
45	0xbe054e6d	-0.13018198
46	0xbe911bba	-0.28341466
47	0xbe86d888	-0.26337075
48	0xbed056fe	-0.4069137
49	0x3e2ae29d	0.16688009
50	0x3a49ba81	0.0007695333
51	0x3e10f8a6	0.14157352
52	0x3c6c0f00	0.014407873
53	0xbd1ac9f0	-0.03779024
54	0x3e5e86e0	0.21731138
55	0x3bdc20ad	0.0067177624
56	0xbc5ebd31	-0.013594911
57	0x3bec4cea	0.0072113173
58	0x3ce6de6f	0.028182236
59	0x3dca47e1	0.09876991
60	0xbda293b1	-0.07938326
61	0x3df56fee	0.119842395
62	0xbe1b3338	-0.15156257
63	0x3e48d102	0.1961098

actor.2.weight f4 [64, 64]
0	0xbe031054	-0.12799197
1	0xbd98c37c	-0.07459161
2	0x3e3b011e	0.18262145
3	0x3e164c14	0.14677459
4	0xbd125a79	-0.035730813
5	0xbdf9725e	-0.12180017
6	0x3ce195aa	0.027537186
7	0xbf0191e2	-0.50613225
8	0xbdab9a0b	-0.08378991
9	0xbbce4e1d	-0.006295933
10	0xbedfc2c8	-0.43703294
11	0x3e0bdacb	0.13657682
12	0xbe8a92c0	-0.27065086
13	0xbd8b790c	-0.06810197
14	0x3e92fee4	0.2871009
15	0xbdbe6c62	-0.09298016
16	0xbf1a90e2	-0.60377324
17	0x3eb5a56b	0.35477766
18	0xbe0b53a8	-0.13606131
19	0x3e419a73	0.18906574
20	0x3dd48fa7	0.10378962
21	0x3ea24292	0.31691414
22	0x3d1658d3	0.036705803
23	0xbde4354e	-0.111429796
24	0xbdaf0f05	-0.085477866
25	0xbd6cf863	-0.057854068
26	0x3dba0a75	0.09084026
27	0xbd64c3b6	-0.055850707
28	0xbea518aa	-0.3224538
29	0xbe07b753	-0.13253526
30	0x3d0d1ccc	0.03445129
31	0x3d84f9e8	0.06492978
32	0x3ea10354	0.31447852
33	0x3d807d83	0.062739395
34	0x3d58e2e5	0.05295076
35	0xbecc07bf	-0.3984966
36	0x3d9b12a2	0.07571913
37	0xbc3d4990	-0.011553183
38	0x3e8eba82	0.2787667
39	0x3df40e14	0.11916748
40	0xbd3f8094	-0.04675348
41	0xbf26d08e	-0.6516198
42	0xbec846fe	-0.39116663
43	0xbea508fb	-0.32233414
44	0xbf1fe0a6	-0.6245216
45	0x3cbf19e0	0.023327768
46	0xbed4bde9	-0.4155114
47	0xbdc0dd56	-0.094172165
48	0xbdef133c	-0.116735905
49	0x3e2e6451	0.17030455
50	0x3e479fe1	0.19494583
51	0x3eaecbb2	0.34139782
52	0xbe45bbec	-0.19309968
53	0x3c981089	0.018562572
54	0x3dc2c81a	0.095108226
55	0xbf603de1	-0.8759442
56	0x3e3b9bcb	0.18321149
57	0xbefd61ea	-0.49488765
58	0xbeb18b8d	-0.3467678
59	0xbb9c3a23	-0.0047676726
60	0xbdc702fe	-0.097173676
61	0xbeb194b5	-0.34683767
62	0x3db4a795	0.08821026
63	0x3eedef43	0.46471605
64	0x3bc29998	0.00593872
65	0x3d8ddf6e	0.069273815
66	0xbe913809	-0.28363064
67	0xbe3aba25	-0.18235071
68	0x3da6020c	0.08105859
69	0x3b865313	0.0040992587
70	0x3a98d4ff	0.0011660157
71	0xbd5565b8	-0.05209896
72	0x3d961bb5	0.073295034
73	0x3da738a7	0.081651025
74	0x3d241208	0.04005626
75	0xbe59b4a5	-0.21260317
76	0xbe348f36	-0.17632756
77	0xbe87a3ed	-0.26492253
78	0x3d7ea592	0.06216962
79	0xbd6c6580	-0.057713985
80	0x3b455d33	0.0030115366
81	0x3de5caf8	0.11220354
82	0x3cb9241c	0.022600226
83	0x3cf74319	0.030183362
84	0xbed5311a	-0.41639024
85	0xbe3607f2	-0.17776468
86	0xbdb8db41	-0.09026194
87	0xbd74be64	-0.059751883
88	0x3c587524	0.013211522
89	0x3d4bb6c0	0.04973483
90	0xbcc25372	-0.02372143
91	0xbe63547f	-0.22200201
92	0xbda13c85	-0.07872871
93	0xbe0ec7e4	-0.1394344
94	0x3db680c4	0.08911279
95	0xbd0f7e5d	-0.03503262
96	0xbb2140b1	-0.002460521
97	0x3d985019	0.074371524
98	0xbd41cfc5	-0.047317285
99	0xbda75926	-0.081713006
100	0xbbc5d5e0	-0.006037459
101	0xbd3b44fc	-0.045720086
102	0xbd88cd4e	-0.06679784
103	0x3d97d944	0.07414487
104	0x3dcddd9e	0.10052036
105	0xbe00248e	-0.12513945
106	0xbe48bdd7	-0.19603668
107	0xbea6ffce	-0.32617038
108	0xbca44ffe	-0.020057674
109	0x3d02590c	0.031823203
110	0x3d716c80	0.058941364
111	0xbc6fad7b	-0.014628763
112	0xbd4a6bb0	-0.049419105
113	0x3dba59db	0.0909917
114	0xbe74d3b8	-0.2390889
115	0x3dc8231a	0.0977232
116	0xbeaa38bc	-0.3324641
117	0x3cef01d5	0.029175678
118	0xbb2e6e93	-0.00266162
119	0x3d28885b	0.041145664
120	0xbecbdb3c	-0.398157
121	0x3ded1aff	0.11577415
122	0x3c43dd00	0.011954546
123	0x3df7f29e	0.121068224
124	0x3e0a877d	0.13528247
125	0xbd2118f5	-0.03933044
126	0xbd8df66e	-0.06931768
127	0x3df6a817	0.12043779
128	0xbe1dfa66	-0.1542755
129	0xbe8d1bd4	-0.27560294
130	0x3eade935	0.33966985
131	0x3e15d189	0.14630713
132	0xbefcd9cf	-0.49384925
133	0xbe256820	-0.16153002
134	0x3f3933c5	0.7234462
135	0x3fc1509a	1.5102723
136	0xbf429914	-0.7601483
137	0x3edd39e1	0.4320822
138	0x3fd737e9	1.6813937
139	0x3ec16de1	0.37779143
140	0xbf8a31f1	-1.0796491
141	0x3f7d3cfb	0.98921174
142	0x3ecaeb87	0.39632818
143	0xbdb50340	-0.088385105
144	0x3f672eea	0.9030596
145	0x3ec125ba	0.37724096
146	0xbe4b4799	-0.19851531
147	0x3f296d6b	0.66182584
148	0x3f8e1a35	1.1101748
149	0xbeb1242b	-0.34597906
150	0x3eea6fea	0.4578851
151	0x3d96465e	0.0733764
152	0xbf06e6cf	-0.52695936
153	0xbee8cd13	-0.4546896
154	0xbf3c9b29	-0.73674256
155	0x3fcfc0c7	1.6230706
156	0xbf41692d	-0.7555111
157	0xbf5510bf	-0.8322868
158	0xbd237fc0	-0.039916754
159	0x3f5204f3	0.820388
160	0xbe06bc95	-0.13157876
161	0x3d21c4d0	0.039494336
162	0x3f842934	1.0325074
163	0x3fbb3890	1.4626637
164	0xbd96e518	-0.07367915
165	0xbda6abf6	-0.08138268
166	0x3ef5fc60	0.4804411
167	0xbcac0428	-0.020998076
168	0x3de9edd0	0.11422312
169	0xbe691659	-0.22762431
170	0xbf305b7e	-0.68889606
171	0xbf8701d2	-1.054743
172	0x3fb3c49d	1.4044377
173	0x3c8cfade	0.017209467
174	0x3fc30c1e	1.5238073
175	0xbcb47b7f	-0.022031544
176	0x3d3f3188	0.046678096
177	0x3ea7155f	0.32633492
178	0x3fbb0823	1.4611858
179	0xbf843b6c	-1.0330634
180	0x3fc770d2	1.5581305
181	0x3f1b5db3	0.6068985
182	0x3e91f97b	0.2851065
183	0x3f593960	0.8485317
184	0x3f7a9b41	0.9789315
185	0x3f1abeca	0.6044737
186	0x3e7a2dd9	0.24431552
187	0xbf421486	-0.75812566
188	0x3e1f277a	0.15542403
189	0x3f10bc85	0.5653766
190	0xbf0a08bd	-0.53919584
191	0xbf839db9	-1.0282508
192	0xbec54832	-0.38531643
193	0xbefc7b25	-0.49312702
194	0x3e968c61	0.29403976
195	0x3e4ebee9	0.20190014
196	0xbe36f971	-0.17868592
197	0xbec4d640	-0.3844471
198	0x3f4ab5ed	0.79183847
199	0x3fb3ab28	1.4036608
200	0xbed21d33	-0.41037902
201	0x3ebec4f7	0.37259647
202	0x3fcadc99	1.5848571
203	0x3f428d7f	0.75997156
204	0xbf3cab48	-0.73698854
205	0x3f52a25b	0.82278985
206	0x3eba39b5	0.36372152
207	0x3cc14f48	0.023597375
208	0x3f32d36c	0.69853854
209	0x3eeb543e	0.4596271
210	0xbdcab024	-0.098968774
211	0x3f350d98	0.7072387
212	0x3fa6600f	1.2998065
213	0xbf090a3f	-0.5353126
214	0x3efa5f2d	0.48900738
215	0xbb99e160	-0.0046960562
216	0xbf71a0d0	-0.94386005
217	0xbf1745ab	-0.5909068
218	0xbf5f90dc	-0.8733041
219	0x3ff47518	1.9098234
220	0xbf13ad15	-0.5768598
221	0xbf0f0e68	-0.5588136
222	0xbce344f0	-0.027742833
223	0x3f6737ab	0.9031932
224	0xbe6bc1dd	-0.23023172
225	0xbd08af69	-0.03337041
226	0x3f6ba46c	0.9204776
227	0x3fbee190	1.4912586
228	0x3dceabf2	0.1009139
229	0xbd30d1e8	-0.043168932
230	0x3edc3f50	0.43017054
231	0x3d76c08c	0.06024222
232	0xbd0bb550	-0.03410846
233	0xbef36e56	-0.47545117
234	0xbf00bde1	-0.5028973
235	0xbf5636c5	-0.8367732
236	0x3fadbb41	1.357277
237	0x3cea151a	0.028574515
238	0x3fcfcfa0	1.6235237
239	0x3dcfb5bb	0.10142084
240	0x3daec796	0.08534162
241	0x3ebb238d	0.3655056
242	0x3fdab1b9	1.7085487
243	0xbfbe21f0	-1.4854107
244	0x3ff295ce	1.8951967
245	0x3f06657c	0.524986
246	0x3e281143	0.16412835
247	0x3f3b12bb	0.73075455
248	0x3f933e87	1.1503457
249	0x3f08e2c5	0.5347102
250	0x3f07d6cd	0.53062135
251	0xbf57a5b9	-0.8423725
252	0xbd462125	-0.048371453
253	0x3f6f4771	0.93468386
254	0xbf0a29f3	-0.5397026
255	0xbf962a3c	-1.1731639

actor.2.bias f4 [64]
0	0x3e6f62fc	0.23377603
1	0xbdbe4723	-0.09290912
2	0x3db57d0b	0.08861741
3	0x3d827f18	0.063718975
4	0xbdf8b4ae	-0.12143837
5	0xbe2ff9bb	-0.17185108
6	0xbe0f2754	-0.13979846
7	0x3dc519a7	0.096240334
8	0x3d595fde	0.05306994
9	0xbdbd6f13	-0.09249701
10	0xbace69b0	-0.001574805
11	0xbe007d23	-0.12547736
12	0xbe04be23	-0.12963156
13	0xbde1c393	-0.11023631
14	0xbe5f4b7e	-0.21806142
15	0xbbb9d70d	-0.005671388
16	0xbddddb91	-0.108328946
17	0xbd0892f1	-0.03334326
18	0xbe02f22c	-0.12787694
19	0xbd878716	-0.066175625
20	0xbd210062	-0.039307006
21	0xbddd4147	-0.10803466
22	0x3e39b7e6	0.18136558
23	0x3d9c1b88	0.07622439
24	0xbe02bfb0	-0.12768435
25	0x3dc17a68	0.09447175
26	0xbd48b382	-0.048999317
27	0x3d414d27	0.04719272
28	0x3d09ca6e	0.033640318
29	0xbd5139e6	-0.051080607
30	0x3e4421cd	0.19153519
31	0x3d674b43	0.05646826
32	0xbda62d82	-0.08114149
33	0x3d1dc9e5	0.03852262
34	0xbe127113	-0.14300947
35	0xbc6266b4	-0.013818432
36	0xbe12c379	-0.1433238
37	0xbd8a4f8d	-0.06753454
38	0xbe04c42b	-0.12965457
39	0x3d0c4b69	0.034251604
40	0xbdf00234	-0.1171917
41	0x3dcb6506	0.09931378
42	0x3d8bc10e	0.06823932
43	0x3d8b79af	0.06810319
44	0xbdc8d1d6	-0.09805648
45	0xbda67f6d	-0.08129773
46	0xbd816f57	-0.063200645
47	0x3e35ae01	0.17742158
48	0xbdf5ae58	-0.11996144
49	0xbc8357ce	-0.01603308
50	0x3da435af	0.08018052
51	0xbc8591bf	-0.016304849
52	0x3cc942bd	0.024567956
53	0x3e167f28	0.14696944
54	0x3ddd5b02	0.10808374
55	0xbdb65356	-0.08902614
56	0x3d926e5f	0.07149958
57	0xbe05b721	-0.1305814
58	0xbd0d88d3	-0.034554314
59	0x3b8b9d74	0.0042607132
60	0xbd012e03	-0.03153802
61	0x3d4ecc2b	0.05048768
62	0xbd745d3f	-0.05965924
63	0x3cc306f5	0.023807028

actor.4.weight f4 [1, 64]
0	0xbe970f27	-0.29503748
1	0xbe009f68	-0.12560809
2	0x40150ba9	2.3288367
3	0x40461b86	3.09543
4	0xbd9a57bc	-0.07536265
5	0xbce7f3db	-0.028314522
6	0x3d95bc10	0.07311261
7	0xbfb65fb1	-1.4247953
8	0xbf123d84	-0.57125115
9	0x3d2d9cee	0.042385988
10	0xbcc88868	-0.024479106
11	0x3cd038b9	0.025417672
12	0xbd278d22	-0.04090608
13	0xbc34d335	-0.011036684
14	0x3de7cb1b	0.11318036
15	0xbb8552e8	-0.004068721
16	0xbd84a152	-0.06476082
17	0xbe088a47	-0.13333999
18	0x3ab03de1	0.0013446176
19	0x3d4c1580	0.04982519
20	0xbdcd3a45	-0.1002088
21	0x3c01374a	0.007886717
22	0x400ead34	2.2293215
23	0xbd192d46	-0.03739669
24	0xbd10af81	-0.035323624
25	0xbf4ad05c	-0.7922418
26	0xbce3acd1	-0.027792366
27	0xbf57e9d2	-0.84341156
28	0xbfa9e2a8	-1.3272295
29	0x3d9e16a1	0.0771916
30	0xbf3d4c3a	-0.7394444
31	0xbd0d8f5c	-0.034560546
32	0xbc0a2d40	-0.00843364
33	0x40055ca1	2.0837786
34	0xbd65be3a	-0.056089617
35	0xbdb35541	-0.08756495
36	0xbf7833b7	-0.9695391
37	0xbe901cd4	-0.28146994
38	0xbc610e94	-0.013736386
39	0x401f2dda	2.4871736
40	0xbda73208	-0.081638396
41	0xbf7aaadd	-0.97916967
42	0xbfa664fe	-1.299957
43	0xbd4776db	-0.048697334
44	0xbbe57521	-0.0070024882
45	0xbd522c76	-0.051311933
46	0xbc951b77	-0.018201573
47	0x3fc712ca	1.5552609
48	0x3c0d9404	0.008641247
49	0x3c9ebbf0	0.019376725
50	0x3fff2ceb	1.9935583
51	0x3dbb8d60	0.091578245
52	0xbcefdccc	-0.029280089
53	0x3fe8f4f7	1.8199757
54	0x40604ab0	3.5045586
55	0x3d74c2c8	0.05975607
56	0x4019a54b	2.4007137
57	0xbd0fa15d	-0.035065997
58	0xbee23136	-0.4417817
59	0x3eaf6b5f	0.34261605
60	0x3f6ba01c	0.9204118
61	0x4019192d	2.3921616
62	0xbcc2c525	-0.023775646
63	0xbd492c21	-0.04911435
