HAC-Baseline/preTrained/MountainCarContinuous-h-v1/2level/HAC_MountainCarContinuous-h-v1_ou_level_0_actor.pth (torch, 20183 bytes, 5 tensors)

actor.0.weight f4 [64, 4]
000000 8c 84 b4 3e 40 7a bb bd 9c d7 89 3e 64 50 9f 3e
       0.35257375 -0.09154177 0.2692231 0.3111602
000010 6f 75 3d 3e 3a c5 07 3d 0d c8 ba be 77 47 3f bf
       0.18501829 0.033147074 -0.36480752 -0.7471842
000020 d4 55 5b be 94 25 9e 3e a8 bc 81 3e cc b7 f6 3e
       -0.2141946 0.30888045 0.25339246 0.481871
000030 8c 3d 74 bf 18 ca 5a bf f7 bc 12 3f ed 10 1f 3f
       -0.95406413 -0.8546462 0.5731959 0.621352
000040 e9 46 4e be 7c f1 64 be 0b 8a f1 3e 31 52 89 3f
       -0.20144238 -0.22357744 0.4717563 1.0728208
000050 bd 0d f3 bc 42 6a 43 3f 4d 8e e8 be 49 d3 25 bf
       -0.029669637 0.7633401 -0.45421067 -0.6477552
000060 f0 7a 32 3e 80 4a 40 3c 80 ba e9 3c 60 ac 97 3d
       0.1742971 0.011736512 0.028531313 0.07405925
000070 7c 2a d7 3e 04 a4 be 3e bc 26 e1 3e d4 6e a9 3e
       0.420246 0.3723451 0.43974864 0.33092368
000080 e4 90 7b 3e 94 c8 f4 be 68 90 e6 3d 20 b5 97 3c
       0.2456699 -0.4780928 0.11258012 0.018518984
000090 2d 37 01 3f 0a 43 b0 3e 4c 50 af be 89 aa 24 be
       0.50474817 0.34426147 -0.3424095 -0.16080679
0000a0 86 fc 01 3e 05 44 48 3f 58 cd ae 3f 01 4c cb 3e
       0.12693986 0.7822879 1.3656416 0.39706424
0000b0 ea f2 74 3d 11 f3 57 bd aa 6a a3 be ed 66 85 bf
       0.059801973 -0.05272204 -0.31917316 -1.0422035
0000c0 5e 3a 94 3e 74 2b cf be 48 2f 27 be 40 04 d4 bc
       0.2895078 -0.4046284 -0.1632663 -0.025880933
0000d0 dd cb c6 be 7e 92 5a 3e a9 79 ca be 25 7a 9e 3e
       -0.3882741 0.21344945 -0.39545944 0.30952564
0000e0 1d 42 ca 3e 5f c1 d7 bf 80 0c 96 bd f9 a9 6d 3f
       0.39503565 -1.6855887 -0.07326603 0.9283748
0000f0 00 1e d6 3a 00 2b 81 bb 00 23 d4 3b 34 e7 f2 be
       0.0016335845 -0.0039418936 0.006473899 -0.4744202
000100 c5 9b 13 bf b0 71 8d bf f4 1d ea 3e 62 af f9 3f
       -0.5765956 -1.105032 0.45725977 1.9506648
000110 00 a9 73 bb 4a f8 d1 3e f0 19 3d bd a0 66 c7 bc
       -0.003717959 0.41009742 -0.046167314 -0.024340928
000120 89 48 b0 3e 6b 73 b6 be 8d 65 12 bd a1 d4 8a bf
       0.3443034 -0.35634932 -0.035741378 -1.0846139
000130 ad 79 1f bf 2b 42 de 3f 22 77 a6 be a2 43 65 bf
       -0.6229504 1.7363943 -0.32512766 -0.89556324
000140 62 d5 76 be 86 62 17 bf 17 73 e6 be c5 7d 54 bf
       -0.24104837 -0.5913471 -0.45009682 -0.8300441
000150 a7 db 85 be bf ce 06 bf 35 f7 82 3e 39 da f5 3f
       -0.26144144 -0.5265922 0.2557923 1.9207221
000160 80 4f 45 be 2e 29 ba bf af b7 52 3e 5c 31 47 40
       -0.19268608 -1.4543817 0.20577882 3.1123877
000170 ae 6b 11 3f 84 8b 13 3f c6 13 bb be 2e 74 b4 3e
       0.5680493 0.5763476 -0.36538523 0.35244888
000180 3b d3 cf 3d d2 f9 f2 bf 1a fb 96 bd fb 14 ee 3f
       0.10147711 -1.8982489 -0.073721126 1.8600153
000190 d1 93 d9 be b1 53 d9 bf 58 24 c6 3e 78 b5 46 40
       -0.42495587 -1.6978666 0.38699603 3.104826
0001a0 6d 14 9e bd 4c c5 14 3f 89 7f 0d bf b3 91 9d bf
       -0.0771874 0.5811355 -0.5527273 -1.2310089
0001b0 76 1d a2 3e 28 3c 8a 3f 2c a4 7d be 66 6c 8a bf
       0.31663102 1.0799608 -0.24769658 -1.081433
0001c0 40 78 61 3e ec 74 bf 3f e1 dd 2b bf 47 2e a2 3f
       0.22018528 1.4957557 -0.67135435 1.2670373
0001d0 58 34 89 3c 9f a9 0e be 98 f3 eb be 02 3d 39 bf
       0.016748592 -0.13931893 -0.46084285 -0.72358716
0001e0 5d fe b9 3e 45 b1 57 bf 09 2b f6 be 96 c7 00 3f
       0.36326876 -0.84254867 -0.48079708 0.50304544
0001f0 79 91 76 bd 44 5f 98 3f e2 26 05 bf 9b 61 47 be
       -0.060197327 1.1904073 -0.52012455 -0.19470827
000200 74 25 a6 3e 8e 2e ac bf 97 a4 aa be 32 fe 16 40
       0.3245045 -1.3451707 -0.33328697 2.3592649
000210 34 41 5f 3e e0 55 f0 bd f8 a8 a5 3d be 24 d7 be
       0.21802217 -0.11735129 0.08088869 -0.4202022
000220 db 56 80 3f 7d d1 bf 3f 23 6b db 3e 5d 91 5c bf
       1.0026506 1.4985806 0.42855176 -0.86159307
000230 41 61 6c 3e 3a 32 a0 bd 07 91 a2 bd 03 26 cf bf
       0.23083974 -0.0782208 -0.07937818 -1.6183475
000240 cd 0c ce be 48 b3 43 3d 0c 23 b8 3e 60 cf fa 3f
       -0.4024414 0.047778398 0.3596424 1.9594536
000250 b0 e6 d0 3e e4 4c b2 3f 57 59 1b 3f 02 a5 41 3f
       0.40801 1.3929715 0.60683197 0.75642407
000260 34 d8 70 3e 98 46 4b be 40 c4 a8 bd 62 fa e0 3e
       0.23519975 -0.19851148 -0.08240557 0.43941027
000270 1f 62 f4 be ea 41 a3 bf f9 3b 27 3d 73 82 18 40
       -0.4773111 -1.275449 0.04082868 2.382962
000280 60 96 29 bf 80 c7 39 bf 83 f8 d5 3e d4 21 f5 3f
       -0.6624508 -0.7257004 0.41791162 1.9150949
000290 93 f3 65 3f 56 cd b4 3f 67 26 c3 3e 04 5a 1c bf
       0.8982479 1.4125164 0.38115236 -0.6107485
0002a0 2b e3 5f be 4d 3a 06 bf 28 3a a9 be 20 d7 ec be
       -0.21864001 -0.5243271 -0.33052182 -0.46257877
0002b0 8d 84 1a 3f 0d d5 0c bf ae 67 56 bd 12 e7 b5 be
       0.60358506 -0.5501259 -0.05234497 -0.35527855
0002c0 98 cf 15 bf cf 19 07 3f 28 21 29 3f 1d 07 51 3f
       -0.5851989 0.52773756 0.6606622 0.8165148
0002d0 00 1c b3 bd 14 d8 4e be a0 e2 a7 3c 10 3d 43 be
       -0.08745575 -0.20199615 0.020493805 -0.19066262
0002e0 1c bb 01 3f de fe 76 3f 73 80 c9 be df b3 b8 bf
       0.5067613 0.96482646 -0.3935581 -1.4429892
0002f0 d8 fc 2d bf a0 08 ba bf 48 94 e9 3e 86 a0 18 40
       -0.67963934 -1.4533882 0.45620942 2.3847976
000300 7d 63 b5 3e 36 0a 95 3f 11 42 3e 3f c5 64 7f 3d
       0.35427466 1.1643741 0.7431956 0.06235196
000310 b1 5a 56 3d d4 fb 59 bf 1a 6b b7 3e 83 c2 0c 40
       0.052332584 -0.85149884 0.358239 2.199372
000320 d3 aa 10 bf 3b 67 6a 3e 85 bb 2c 3f f0 db 00 3f
       -0.5651066 0.22890942 0.6747363 0.503356
000330 62 bf 11 3f d8 06 4e 3f 98 e2 c7 be ce 0d e0 be
       0.5693265 0.8047919 -0.39040065 -0.43760532
000340 db 45 22 be a2 49 4d bf 9b b2 40 3f eb 7d 5e bf
       -0.1584696 -0.8019048 0.7527253 -0.86910886
000350 e5 50 1c bf e6 80 e2 bc 99 c6 fd 3e 5c 73 f5 3e
       -0.61060935 -0.027649354 0.4956558 0.47939575
000360 89 a8 37 3e a9 de 72 3f 0c 0c 6a 3f 15 1a 34 3f
       0.17935385 0.94871 0.9142463 0.703523
000370 3c 5d ad 3e 8d 34 42 3f ca d2 95 bd 0e 02 6d bf
       0.33860195 0.75861436 -0.073155954 -0.9258126
000380 a8 03 ae bd f4 49 c5 be 80 d3 99 3c fc dc a9 be
       -0.08496791 -0.38532984 0.018777609 -0.3317641
000390 c2 cc d6 3e a6 b2 c7 3e 70 0f 49 3d 70 3c 0f 3d
       0.41953093 0.39003485 0.049086988 0.034969747
0003a0 4c 8c df 3b 14 55 c9 3f 3a 51 32 be 1f 64 f4 bf
       0.0068221446 1.5729089 -0.17413798 -1.9093055
0003b0 e0 f6 34 3d 80 40 bd bf 20 81 12 be df 9a 18 40
       0.04418075 -1.4785309 -0.1430707 2.3844526
0003c0 c4 33 77 3e b4 fd 4a 3e 34 50 24 3e d0 20 1c 3e
       0.24140841 0.19823343 0.1604622 0.15246892
0003d0 a8 38 2f 3e f6 f3 9e be fc 23 1e 3e 1a 7a d9 3e
       0.17111456 -0.31045502 0.15443414 0.4247597
0003e0 20 19 5b 3f 29 08 d7 3f b1 6f 18 3f b9 a4 8c 3e
       0.8558521 1.6799365 0.5954543 0.27469423
0003f0 f9 18 b7 be b9 b9 d4 bf e0 42 f5 3d 2d 53 07 40
       -0.3576124 -1.6619178 0.11975646 2.1144516

actor.0.bias f4 [64]
000000 64 96 d6 be 3e bb 2b 3e 40 c3 db be c6 51 e5 bc
       -0.41911614 0.16770646 -0.429224 -0.027993094
000010 99 c7 5e 3e c5 66 af be d2 48 b9 be fe fc fa be
       0.21755828 -0.34258094 -0.3618837 -0.49021143
000020 28 92 b2 be 00 f6 50 bd c9 6e 13 bb 63 80 32 3e
       -0.34877133 -0.051015854 -0.0022496453 0.17431788
000030 6a e7 a4 be 62 d4 db be b4 6c f1 3d f8 7a fd be
       -0.32207805 -0.42935473 0.117883116 -0.4950788
000040 34 4f 32 bd 68 d6 0d be 39 c8 97 3d 45 7e 99 be
       -0.043532565 -0.1385132 0.07411236 -0.29979149
000050 be 9a 94 3e a4 cf 81 bc 10 fc 46 38 4f 2f 80 bd
       0.2902431 -0.015846081 4.744163e-05 -0.062590234
000060 ab 80 6a 3d 2a 26 9c bc a2 9e c2 be 48 76 c5 3d
       0.057251614 -0.019061167 -0.38011652 0.09641701
000070 02 48 7f be 75 54 b9 be 66 32 5d bd 71 d9 b0 be
       -0.24929813 -0.36197248 -0.05400314 -0.34540895
000080 aa 6e 44 3d a4 09 8b be 96 04 2b bd 6f 04 84 3e
       0.0479571 -0.27155793 -0.04175242 0.25784633
000090 c1 63 28 bd f4 67 ae 3e a2 f1 ac be f0 06 59 bd
       -0.041110758 0.34063685 -0.337781 -0.05298513
0000a0 6a 7e f3 bd 0e cb 46 bd f7 0f 1f bf 1f dd 2b 3e
       -0.11889346 -0.04853349 -0.62133735 0.1678357
0000b0 8c 8c cb bc 3a 89 91 be 98 08 9f 3e f7 73 ad bd
       -0.024847291 -0.28425008 0.31061244 -0.08469384
0000c0 22 5d 72 bc 18 cc 8c 3e ce b3 07 bd 52 d0 fa 3d
       -0.014792712 0.2749946 -0.03313046 0.12246765
0000d0 0e 8f ca 3e 0f 46 80 be d8 f1 5a 3e 74 73 2e 3e
       0.39562267 -0.2505345 0.21381319 0.1703623
0000e0 e8 8f b6 be 1c 71 7b be 08 21 42 3e 88 fb a6 bb
       -0.35656667 -0.24554867 0.18957913 -0.005095903
0000f0 20 c4 ff be da 56 c4 be 8e 45 8f 3c 0d 15 b5 bd
       -0.4995432 -0.38347512 0.017489221 -0.08841906

actor.2.weight f4 [64, 64]
000000 7c 97 ed 3d 6f 0c f1 3d e6 2f 9c bd 54 72 33 3f
       0.11601159 0.1176995 -0.076263234 0.70096326
000010 b9 a2 2b be 27 19 d1 be 58 3a 97 3c 80 45 00 3d
       -0.16761293 -0.40839502 0.018460438 0.03131628
000020 94 99 a4 bd 0d f4 d4 3e 2b 65 be 3e 1a e4 d9 be
       -0.08037105 0.41592446 0.3718656 -0.4255684
000030 e4 4c 01 bd c0 fb 01 be bb c7 f3 3c a0 8f 8b bb
       -0.03156747 -0.12693691 0.029758325 -0.004259065
000040 7d b8 d7 3e 92 94 87 bd 9d 2b ff bb 48 bd b7 be
       0.4213294 -0.066201344 -0.0077871815 -0.35886598
000050 a4 d3 15 be 68 6a 29 3f b0 cd e4 3e 2a 8e d4 3e
       -0.14631516 0.6617799 0.44688177 0.41514713
000060 a7 6e 29 3c f4 62 24 3f 32 47 64 bd ea a1 6f 3e
       0.010341323 0.6421349 -0.05573196 0.23401609
000070 d9 da e7 be 9a 3b 16 3e aa 1c 83 3e ab e3 8d bd
       -0.45284155 0.14671174 0.25607806 -0.0692819
000080 ef 45 d9 3e b0 61 ac 3d f6 44 29 3f 7a fa 00 bd
       0.42436168 0.0841707 0.6612085 -0.031488873
000090 6f fd ea 3e 71 11 a2 3e a8 85 d3 bc bc 4f 90 3e
       0.4589648 0.31653932 -0.025820568 0.28185833
0000a0 56 7e 03 3f 69 51 0b 3f 86 09 48 3e 5e 10 d8 3c
       0.5136465 0.544211 0.19534883 0.026374992
0000b0 24 12 5a 3f a0 a9 9a 3c 76 12 f5 3c 66 d8 3f 3f
       0.8518393 0.018879712 0.02991603 0.7493957
0000c0 58 37 38 3e 99 3c 1c 3d 0c 7f 2f 3f 98 11 8a 3d
       0.17989862 0.038143728 0.68553233 0.06741637
0000d0 4c e7 44 be 35 36 3b 3e 02 66 57 3e 6f db f6 3d
       -0.19228858 0.18282397 0.21035007 0.120535724
0000e0 de d2 c2 bd de 34 cf 3d 1a 60 58 bc d8 5d b9 3e
       -0.09512876 0.101175055 -0.013206506 0.3620441
0000f0 b0 f8 6a 3c 70 b1 d6 bc 08 a9 04 3f 96 df 9d 3e
       0.014341518 -0.026207656 0.5182042 0.30834645
000100 aa bf 94 bd 3f 5e 1a be e4 45 64 bd c3 21 9f bd
       -0.072631195 -0.15075015 -0.055730715 -0.077701114
000110 29 44 b9 3d c2 7c 80 3c f8 10 1d bd ec 88 df 3d
       0.09046204 0.01568449 -0.03834626 0.10914788
000120 a8 5a ce bc 27 25 8f 3c 8a be fa 3c 5c 83 be bd
       -0.025189713 0.01747377 0.030608434 -0.093023986
000130 e4 2c 98 bd d4 10 e0 bd 83 be 05 be 90 99 5c 3c
       -0.07430437 -0.1094071 -0.13060956 0.0134643465
000140 93 39 31 bd e6 fa ae 3d 00 17 2e bd fa ef a3 bc
       -0.043267798 0.08543949 -0.042502403 -0.02001189
000150 a4 f9 78 bc 7b 3b e7 bd 15 72 12 be 57 5c a7 bd
       -0.015196238 -0.11290642 -0.14301331 -0.08171909
000160 c8 bc 89 3c d0 0a 1b be 39 fa 89 bd 11 28 f3 ba
       0.01681365 -0.15140843 -0.06737179 -0.001855137
000170 08 31 ad bd cd 08 f5 bc 7c c7 18 bd bf be b1 3d
       -0.084566176 -0.029911423 -0.037299618 0.0867896
000180 fb a5 be bd 14 2e c2 3d 08 34 36 bd 1c af e8 bd
       -0.09309002 0.09481445 -0.044483215 -0.113615245
000190 76 5a bf bd 64 75 16 be d2 b0 fa bd ba e5 44 3d
       -0.09343426 -0.14693218 -0.12240757 0.048070647
0001a0 f2 25 58 bd 7b 37 8e bd 00 50 92 3b 66 7f e1 bc
       -0.052770562 -0.06944176 0.004465103 -0.027526569
0001b0 1e 13 87 bd de 29 aa bd 95 8b 31 3d e5 39 83 ba
       -0.06595443 -0.08308767 0.043346006 -0.0010011761
0001c0 e3 0f 3c bd 5b a5 1d be 61 4a c8 bc 17 e8 88 3d
       -0.04591359 -0.1539511 -0.02444953 0.066848926
0001d0 ce f3 6f 3d 43 52 bb bc f6 22 c2 3c e6 a5 46 bd
       0.05858212 -0.022866374 0.023698311 -0.048498057
0001e0 98 af d1 bc 80 ac 71 bd b1 d8 0e be 70 1a f3 bc
       -0.025596425 -0.0590024 -0.13949849 -0.029675692
0001f0 e4 10 c8 bd 40 6b 17 bd 88 29 04 be d2 c0 03 3d
       -0.09768847 -0.036967516 -0.12906468 0.03216631
000200 50 9e 72 bd e8 1e f2 3c 28 10 96 bc 21 d9 f0 bd
       -0.05923301 0.029555753 -0.01831825 -0.11760164
000210 e6 06 3c be 31 04 be 3e 10 62 93 bd 74 be e4 3d
       -0.18362007 0.37112573 -0.07196438 0.111691386
000220 de 3c 8a bd 81 bf 8c bd e0 9b 2c 3d 79 f4 a6 bd
       -0.06749891 -0.06872464 0.04214084 -0.08152098
000230 94 88 44 3d 95 63 38 3e 84 09 6c 3b a6 13 fc bd
       0.047981814 0.18006738 0.0036016414 -0.12308435
000240 f1 97 82 bc 40 fa 90 3d cb fe c9 be 6e 70 f9 3d
       -0.015941592 0.070789814 -0.39452204 0.121796474
000250 18 52 99 bd e7 6a 01 3f 80 57 67 3e 07 8b 3d 3d
       -0.07486361 0.50553745 0.22591972 0.046275165
000260 b7 0f 68 3c b0 3d 88 bd 6e ac 34 3e bc 26 7f be
       0.014163903 -0.06652391 0.17643902 -0.2491712
000270 cd f2 2a 3f 09 9f 24 3e 66 d9 cd 3d 2e 92 e9 3e
       0.66776735 0.16076292 0.10051231 0.4561934
000280 94 2a 2b 3e 70 ab d4 bd e5 6a 1f 3e d4 15 ab be
       0.16715461 -0.103842616 0.15568121 -0.3341509
000290 fa 75 a8 3e 89 29 97 3c 2c 03 9d bd bd 9c c3 3e
       0.3290251 0.018452423 -0.076666206 0.3820552
0002a0 f7 28 2a bd e4 6c df 3e d9 1d 61 be f3 da 7b be
       -0.041542973 0.43637764 -0.21984042 -0.24595241
0002b0 31 cc 96 3e f8 a5 38 bd 54 f8 69 bd f5 59 3a be
       0.2945266 -0.045080155 -0.05712159 -0.18198378
0002c0 8f d2 11 be 4c ce 21 be 39 59 d0 3d 37 79 57 3d
       -0.14240478 -0.15801352 0.10173268 0.052605834
0002d0 19 d7 f5 bd 64 3f c3 3d 5c 38 80 bd 79 bc bf be
       -0.12003917 0.09533575 -0.0626075 -0.3744848
0002e0 e8 1f 05 3d 88 cb ce 3d f1 6b b7 bd f7 8c 55 3e
       0.03250113 0.10097414 -0.08956135 0.20854555
0002f0 70 5f 9b 3c 76 4a b9 3d f6 6a 08 3e b2 1d c1 3e
       0.018966407 0.090474054 0.13322052 0.37717968
000300 2a fc b2 3d ba e8 ef bd bc c5 cb 3d 52 d3 24 3f
       0.08739503 -0.11714311 0.09949824 0.6438495
000310 1b 80 19 be 89 bf 6e be 62 9b ed 3d c0 f4 17 bb
       -0.14990275 -0.23315252 0.116019025 -0.0023186654
000320 b2 58 dd bd da 7a e2 3e fa e6 a8 3e 78 e8 f7 be
       -0.10807933 0.44234353 0.3298872 -0.48419547
000330 00 81 dd 3c df e1 3b be ec 7d da ba a0 ec a0 3b
       0.027039051 -0.18347882 -0.0016669608 0.0049110204
000340 72 c0 69 3e 7c 36 94 bd 3b 38 99 3d 2f 12 b5 be
       0.22827318 -0.072369546 0.07481428 -0.35365435
000350 48 e6 02 be f0 6c dc 3e 90 ee 86 3e 15 c7 a8 3e
       -0.12783158 0.43051863 0.26353884 0.32964388
000360 17 fd 03 3d fa 20 10 3f 2f 4b 00 bd d6 d9 4d 3e
       0.032223787 0.5630032 -0.0313217 0.20102629
000370 48 de ef be dd 46 09 3e 29 64 0d 3e 92 fb bc 3c
       -0.46849275 0.13405938 0.1380774 0.023069177
000380 99 57 0a 3f fc a3 69 bd d7 e3 fc 3e b7 24 0f 3c
       0.54039913 -0.057041153 0.49392578 0.008736781
000390 19 08 dd 3e 0b cf 64 3e 48 78 b3 3c e2 84 94 3e
       0.4317024 0.22344606 0.02190794 0.29007632
0003a0 7d 14 f3 3e 10 d9 0c 3f 74 3c 26 3e 55 39 c1 bc
       0.4747657 0.5501871 0.16233999 -0.023586908
0003b0 d8 2e 77 3f 5c e4 c6 bd f0 b4 16 3e 88 75 30 3f
       0.9655585 -0.09711525 0.1471746 0.6892934
0003c0 20 cf e2 3d 67 e7 e5 bc 75 d9 34 3f 1a 0d 68 3e
       0.11074662 -0.028064443 0.70644313 0.22661248
0003d0 8b d8 5c be 6e 72 f7 3e 40 a5 ac 3e 3f 2f 70 3d
       -0.2156698 0.4832949 0.33719826 0.058638807
0003e0 de 38 bb bd a2 90 b3 3d 9c 15 0b bc 34 21 a0 3e
       -0.09141706 0.08767821 -0.008489039 0.31275332
0003f0 40 88 cc 3c a0 c6 59 bc 50 b7 dc 3e 11 e9 c2 3e
       0.024967313 -0.013291985 0.43108606 0.3806844

actor.2.bias f4 [64]
000000 36 04 04 be bc 06 7a 3d 18 ab 15 bd 6c 20 b9 bd
       -0.12892231 0.06104158 -0.03654012 -0.09039387
000010 ef 11 ec bc 3d cd 12 3c 53 91 d1 bd ff fc 96 3c
       -0.028817145 0.008960065 -0.102327965 0.018431185
000020 97 57 74 bd cf 1e c4 bd 6e 93 34 3e a9 af 2e bd
       -0.059653845 -0.09576189 0.17634365 -0.04264799
000030 97 4f b7 bc 9c bb 78 3e 55 80 5a 3e ae a2 a9 bd
       -0.022376819 0.24290317 0.21338017 -0.08282982
000040 cb e1 fd 3d 22 4a 0c be d4 ea 15 3d 88 a0 89 bc
       0.12396582 -0.13700154 0.036600903 -0.01680018
000050 d8 cd c0 bd 9f c2 20 be 1c 49 95 bd d2 f8 a2 bd
       -0.094142616 -0.15699242 -0.07289335 -0.07957615
000060 3b e0 fa bc a1 64 d8 3d d3 6c ad bd 1e 3f 98 3d
       -0.0306245 0.105660684 -0.08468022 0.07433914
000070 98 9f aa 3d c1 56 cc bc 32 55 d6 bd 1b b1 31 3d
       0.08331221 -0.024943711 -0.104654685 0.04338179
000080 ce f8 4c be bb cb 12 be ea 01 b0 bc 3b a4 6a bc
       -0.20016786 -0.1433553 -0.021485288 -0.014321382
000090 47 07 82 bd fd e3 6c 3e 2a 57 d9 bd 21 42 89 3d
       -0.06349044 0.23133846 -0.10612328 0.06702066
0000a0 da 09 7a 3d 5a 97 a1 3d d8 02 31 bb 40 13 ca bc
       0.06104455 0.07890196 -0.0027009752 -0.024667382
0000b0 7f 48 e0 bd 86 a8 a3 bd f7 92 e3 bd f8 5f ae bd
       -0.109513275 -0.07991128 -0.11112016 -0.08514398
0000c0 43 af f9 bd 25 6e f0 bd ed ed 87 3d 2e 66 87 3d
       -0.12191632 -0.117397584 0.066371776 0.06611286
0000d0 40 da 53 3e 6d c7 40 bc 86 19 ab bd 6d ce b3 3d
       0.20688725 -0.011766297 -0.083544776 0.08779607
0000e0 a2 6a f2 3d 8f c0 5e 3e dc 6c 1e be 51 b5 19 be
       0.11836745 0.21753143 -0.15471214 -0.15010573
0000f0 5e 29 2d bd d9 0c b8 bd 29 3a ab 3d d5 e1 59 bd
       -0.04227578 -0.089868255 0.083607025 -0.053193886

actor.4.weight f4 [1, 64]
000000 70 86 f1 3e 94 2a 92 bd 73 87 b4 be ca 54 d2 3e
       0.4717288 -0.071370274 -0.3525959 0.41080314
000010 ea 11 d6 3e b2 dd f4 3f 43 38 17 3f bc 97 a8 3c
       0.41810542 1.9130156 0.59070224 0.020580165
000020 30 47 22 3f bc 7c 9c 3e 76 28 3c be bb d3 e3 3e
       0.63389874 0.30563915 -0.1837481 0.44497475
000030 5c 79 71 3d e4 6c fd bd 8d 29 4a bf e9 49 d5 3e
       0.058953628 -0.12374285 -0.7896965 0.4165795
000040 19 ff 73 3e 3e 74 f7 bc 5c 63 88 bd 0e 63 8b 3e
       0.23827781 -0.030206796 -0.06659576 0.2722401
000050 db 2f ad bd b2 b9 74 bd 35 34 a6 bd 62 41 f0 3f
       -0.08456393 -0.059747405 -0.081154265 1.8769953
000060 81 4a cb 3e 8a a3 58 be 8f 7a 70 3d 42 0e fc be
       0.3970528 -0.21156135 0.05871063 -0.49229628
000070 59 55 1f bc ff 80 61 3d a8 41 4c 3d ce a9 dd bd
       -0.009724938 0.05505466 0.049867302 -0.10823403
000080 e9 6e 0b 3f a4 c6 c3 bd 79 1f 51 3d 07 f5 34 3f
       0.5446611 -0.09559372 0.051055405 0.7068638
000090 fe 67 b5 3f e8 ff 85 be 30 e1 50 3c f2 7f f5 3c
       1.4172361 -0.26171803 0.012749001 0.029968236
0000a0 1d 4b b2 bd 3f 1d 07 bf 9d 03 87 3e fe b6 a4 3d
       -0.08705733 -0.52779 0.26369944 0.080427155
0000b0 80 4d bb bd ab 01 f4 3d a8 f3 b9 3e 1e 76 ea 3e
       -0.09145641 0.11914381 0.36318707 0.4579324
0000c0 61 e4 87 3e 73 c8 00 3e 36 a6 c8 bb c8 6b 97 bd
       0.26541427 0.12576465 -0.0061233295 -0.073936045
0000d0 66 68 f5 bd c6 3a 22 3f f8 e8 72 3d 3e 5a df be
       -0.11982803 0.6337093 0.059304208 -0.43623537
0000e0 76 8a 44 3f a6 7b 3d bf 3f a4 0a 3f ab 2e df 3f
       0.76773775 -0.740168 0.5415687 1.7436117
0000f0 65 f8 95 3e bb 0e ae bc f7 f1 0c bb 05 34 a4 3e
       0.29291072 -0.021247258 -0.0021506527 0.32070938
