HAC-Baseline/preTrained/MountainCarContinuous-h-v1/2level/HAC_MountainCarContinuous-h-v1_ou_async_level_1_actor.pth (torch, 20439 bytes, 6 tensors)

actor.0.weight f4 [64, 4]
00000000: 580c 393e cc4c a13e 4ece ff3e 7ece 853e
00000010: 42b3 3f3f 3580 c53f 8682 64be a9e5 b8bf
00000020: a785 4dbc dbeb 983f 11f9 29bf b45e 973e
00000030: 974c 18bf f502 e3bf c47e 29bf 58aa 3a3f
00000040: 9ae5 86be ce9a bfbe 9691 473e fae0 c33e
00000050: 00f3 14bd b047 563e 0239 ea3e d00a d0be
00000060: f728 343f 54b3 0cc0 a49d a6be 032f 3abf
00000070: 5e45 57be 7087 0e40 0be8 14bf 1205 31bd
00000080: 7255 d73e 88b1 423e 786d 8cbd 94fc c43e
00000090: e40f 4fbe 2360 73c0 ef7f 2b3f 9713 653f
000000a0: e0c2 4ebd aa6d eb3e 74ce 863e ec6e 7a3e
000000b0: 69a5 bf3e 7ca4 ee3e 4423 a33e 7605 c13e
000000c0: f008 413d fea2 c83e ae91 893e 60ca 7bbe
000000d0: 4a24 7d3d 00c4 cd3f ec90 f7be d715 b9bf
000000e0: ab62 143f b330 bac0 4d6c 283f d8d9 8dbe
000000f0: 397c 1d3f 43f9 b3c0 7e6a 1d3f 5c13 09bf
00000100: 1994 d13c 6ba4 ed3f c18e d83e b929 8f3e
00000110: 0663 243f 202f 903f 9cf3 4cbe 8f38 b9be
00000120: 3bab 363f 75b0 cd3f a793 093f e4a4 af3e
00000130: 7271 06be 46cb 1c40 02b7 a2bf 9153 d0bf
00000140: 7a95 57be 03de c540 c972 d5be ae9c e2be
00000150: 9847 a73e f4f7 e2be 6036 48bd 127c f63e
00000160: 027c b93e 9a44 e2bf 6787 d83e 90aa b53e
00000170: f753 4e3f df3e 2dc0 d3a6 073e a7c6 3ebe
00000180: 859a d03e 9a95 69c0 ce01 1f3f 8e87 033e
00000190: 4ae1 e9be 0e3c e23f d7cb a8be ab55 cdbe
000001a0: 0c9a 103e 7da2 20be 556e ef3d 1771 5ebe
000001b0: c13a 5c3f f24c 873f f227 243d 03d4 1dbf
000001c0: 99f5 b4be 4244 0040 f1fa 0ebf 3acf 4cbf
000001d0: 3aa9 af3e 30e9 5d3e fec1 6fbe e658 d33d
000001e0: 704b 563d 68e2 38be 3032 06bd a033 613d
000001f0: 9854 5a3f 5b5b 1f40 50be cabd 5f17 95bf
00000200: 9b52 03bf a142 ff3f 922d 093f 1515 433f
00000210: 20ee 583e c066 763d 0020 1cbc c8ea e7be
00000220: 4a3e d43e b42c e73e 6dc6 0dbd 2e06 703d
00000230: 656d 5fbc 70ce 1940 7786 c9bd 19d7 0e3e
00000240: b148 8fbe 2601 f03e e4bd cf3b d249 67bf
00000250: 13b4 a23d d53b d33f 0b06 24bd d3a6 44be
00000260: 4d3a 1fbd 1907 c140 7067 cabf 7cc3 b7bf
00000270: 4aec 8abe 0c73 33c0 e386 eabe c253 f2be
00000280: 80ee aa3c 40ff a73e 78ea 86bd 7cd4 b73e
00000290: 99b8 403f 99b7 32bf b685 fa3e 147a 2a3f
000002a0: bf43 0a3f 1e8e c8bf b221 133f 8780 0cbf
000002b0: 2494 b9be 9a5e 87c0 0fdf d03d 97ea 1e3f
000002c0: 980b d43d a452 dcbe 7a2b f73e c444 f03e
000002d0: cc81 7c3e e6c5 fabe 7c03 8f3e bc15 123e
000002e0: 4030 7dbd 8875 d6be 3ce3 d83e 880e 19be
000002f0: ae0c 64bd af0c 71c0 1903 0a3f bb7d 763f
00000300: 6a32 1c3e 16d3 89be e627 81be ae1f 22bf
00000310: 399e df3e c3ac 6840 0c1a f6be 0eba 50bf
00000320: d327 623d 2af3 31c0 2440 cc3e a606 4f3f
00000330: 4375 53bc bb0d c23f d7c4 bcbe 5cdf 533f
00000340: 7083 453f 3320 02c0 3b5b 66bf 2328 0dc0
00000350: 60aa 11be c23e bb3e e07a f03c 64a8 72be
00000360: b78f 233f 6292 ccbe 7f91 873e 2955 623e
00000370: 74f3 783e 34e2 1bbe 4034 2ebe 306c 553e
00000380: 652f c63e c987 5ec0 f3be 1e3f fedc 093f
00000390: d03f a3be f589 933f 7ab2 dfbe ae56 b4be
000003a0: 6e7d 26be dd54 49c0 8ed7 f53e 9424 243e
000003b0: 11b6 20be e832 4bc0 9847 8e3e 662e b83e
000003c0: 9ff9 303d 036b c43e 1ca5 c3be 3fd4 6cbf
000003d0: cc37 dc3e 72e3 22c0 75cd c83e 0aa9 393d
000003e0: a0f9 8f3e 80ac c63c 9ae7 873e 0096 0f3c
000003f0: 56d0 8ebc c11f ff3f 1a30 2fbf 65c0 e73e
0.18071115 0.31503904 0.49962085 0.26134104 0.748829 1.5429751 -0.22315416 -1.4445087
-0.012544072 1.1946977 -0.6639567 0.2956444 -0.59491867 -1.7735277 -0.66209054 0.72916174
-0.26347047 -0.37422794 0.1948913 0.3825758 -0.036364555 0.20925784 0.45746619 -0.4063325
0.7037501 -2.1984453 -0.32542145 -0.72727984 -0.21022555 2.2270164 -0.5816657 -0.043217726
0.42057377 0.19013035 -0.06856817 0.38473952 -0.20220906 -3.8027427 0.66992086 0.89483017
-0.050478816 0.45982105 0.26329386 0.24456376 0.37430885 0.46609867 0.31862843 0.3769948
0.047127664 0.39186853 0.26868957 -0.24588919 0.061802186 1.607544 -0.48352754 -1.445979
0.57963055 -5.8184447 0.65790254 -0.27705264 0.61517674 -5.6241775 0.6149062 -0.53545165
0.025583314 1.8565801 0.42296413 0.2796152 0.642136 1.1264381 -0.20014805 -0.36175963
0.71355027 1.6069475 0.53740925 0.3430549 -0.13129213 2.4499068 -1.27121 -1.6275502
-0.21053115 6.183351 -0.41689137 -0.44260162 0.3267181 -0.44329798 -0.04887998 0.48141533
0.36227423 -1.7677186 0.42290804 0.3548169 0.8059687 -2.7069623 0.13247232 -0.18630467
0.4074289 -3.649756 0.6211213 0.12844679 -0.45679694 1.7674577 -0.32968017 -0.40104422
0.14121264 -0.15686984 0.11690966 -0.21722828 0.8602715 1.0570357 0.040077157 -0.6165163
-0.35343626 2.0041661 -0.55851656 -0.800037 0.34308797 0.21670985 -0.23413846 0.103196904
0.052318037 -0.18055117 -0.032762706 0.054980874 0.8528533 2.489951 -0.098995805 -1.1647757
-0.5129792 1.9942209 0.5358516 0.76204044 0.21184587 0.060156584 -0.009529114 -0.4529631
0.41453773 0.45151293 -0.03461306 0.058599643 -0.0136369215 2.403225 -0.098401 0.1394924
-0.27985147 0.46875876 0.0063397754 -0.90347016 0.07944503 1.6502634 -0.040044826 -0.19204263
-0.03887396 6.0321164 -1.5812817 -1.4356532 -0.271334 -2.803897 -0.45806035 -0.47329527
0.020865679 0.32811928 -0.0658769 0.359043 0.75281674 -0.698114 0.48930138 0.66592526
0.5400962 -1.5668371 0.5747329 -0.5488362 -0.36245835 -4.230298 0.10198795 0.62076706
0.10353774 -0.430318 0.48275357 0.46927464 0.24658889 -0.4897911 0.27932346 0.14266104
-0.061813593 -0.41886544 0.42360866 -0.1494695 -0.055676155 -3.7663991 0.53910977 0.962856
0.15253606 -0.26918858 -0.25225753 -0.6332959 0.43675402 3.6355445 -0.48066747 -0.81533897
0.05521376 -2.7804666 0.39892685 0.8086952 -0.012906375 1.516044 -0.36868927 0.82762694
0.7715368 -2.0332153 -0.89982957 -2.2055748 -0.14225149 0.36571318 0.029355466 -0.23697048
0.63891166 -0.3995543 0.26478192 0.22102799 0.2431162 -0.15223008 -0.1701212 0.20842052
0.38708034 -3.4770377 0.62010115 0.5385283 -0.31884623 1.1526476 -0.43690854 -0.3522238
-0.16258785 -3.1458046 0.48016018 0.16029578 -0.15694453 -3.174982 0.27788997 0.359729
0.043206807 0.38362893 -0.38211906 -0.9251136 0.4301132 -2.5451322 0.3921925 0.045327224
0.28120136 0.024252176 0.26543885 0.00876379 -0.017433327 1.9931566 -0.6843277 0.45263973

actor.0.bias f4 [64]
00000000: 586b d6be 9596 ddbe 428e b33e 6c35 a7bc
00000010: edb1 e9be 3824 bbbe 0570 d83e 3c56 053e
00000020: 0e6b d7be e8dd 81be 4096 79be 41a4 bbbe
00000030: c08b 7abe edea 4c3e 2e70 c13c 4dc5 9e3d
00000040: a4a4 e1bd 02ae 9b3d 02aa 9fb9 aead bdbe
00000050: 10a3 9abe 46b9 dcbe c3e7 683c 0949 a8bd
00000060: e54c d13a 32db 88bd a196 2dbe 36c3 d83d
00000070: 28df d13d f3ff 8d3e c4e7 33be 3d62 cc3d
00000080: 61b1 d2be b826 c5be 3faf 7bbe 668b 233e
00000090: 5196 ccbe e1c8 053e b278 27bd 42db a63e
000000a0: f03d e2be 83c1 103e b0ad 18be 14fe 9bbe
000000b0: 8209 efbe 5642 edbe d645 f2be eff3 81be
000000c0: c8b9 7e3e e15b 4e3e f096 c1bd f15c 5e3e
000000d0: ed47 84bf 8066 47be ab82 d83d 742d efbe
000000e0: e176 dabc 6da2 843d ac6a 2abe 349d 9dbd
000000f0: f3df 403e 0554 633d faa5 a7be e97a 643e
-0.41878772 -0.43278947 0.35069472 -0.020411216 -0.4564356 -0.3655107 0.42272964 0.13021177
-0.42073864 -0.25364614 -0.24373722 -0.36648753 -0.24467373 0.20011492 0.023613062 0.07752476
-0.11017731 0.07601549 -0.0003045351 -0.3704657 -0.30202532 -0.43110102 0.014215413 -0.08217055
0.0015968351 -0.06682433 -0.16951992 0.105841085 0.10247642 0.27734336 -0.1756888 0.09979675
-0.41150954 -0.38506103 -0.2457857 0.15971145 -0.39958432 0.1306491 -0.04088659 0.32589155
-0.4418788 0.14136319 -0.14910007 -0.30467284 -0.4668694 -0.46339673 -0.47318906 -0.2538142
0.24875557 0.20152237 -0.09452617 0.21715142 -1.033445 -0.19472694 0.10571798 -0.46714365
-0.026668014 0.06476293 -0.16642255 -0.07696 0.1883543 0.05550005 -0.32743818 0.22312512

actor.2.weight f4 [64, 64]
00000000: bcce 4bbd 3978 39bd 1bd5 173e a12c 7b3d
00000010: 296d cb3c c0ae f7bd 18e9 47bf 7084 debc
00000020: 60ee 3dbd 19a2 8cbe 3a1e c7bd 67d4 163e
00000030: 50e4 463c 0171 b4bd 18ee 6ac1 7329 58c1
00000040: 4115 8b3e 62ff ddbe 402a 2fbf 5205 52c0
00000050: 05c0 9ebf e0f4 d33d 7a54 2ebf 1c36 15bf
00000060: 53b8 dabd 14ee 8fbd 5907 5cbc f80e a0be
00000070: a872 82be f639 a3bf 4c82 e63d 082d 113f
00000080: f29d 4b3e 40cf 023d c089 f63b 0d05 913e
00000090: c0ff 653e 60af 733e abb1 a4bc 5555 9b3d
000000a0: 0eea a3bd 11fa 9cbf f98f 173e e3f6 e4be
000000b0: 7cb1 b6bd 8c10 bb3d dc63 543d c0f7 d53c
000000c0: 9f30 1dbd 9f20 66be db55 683e c66b 563e
000000d0: d3ee 31c0 1c48 38bd 6d82 a83f 86a8 e33d
000000e0: 842e 9abe fcd4 b4bd a52d 7abd 05fb 103e
000000f0: 4c00 413e 3018 40bf 2897 a93d 982c b03e
00000100: 308b 01bc 0806 1bbf d9b5 0e3d 274d 2e3e
00000110: 5093 f63d aec5 87bd 591f 3abf 2dad 5b3e
00000120: c8aa 053d b907 ed3e 04ce 12bd 8ab8 1cbd
00000130: ae2f b13d ec62 e03c 5640 a83b 2f2a aa3e
00000140: c662 d5bd 9d4c c5be c9d9 dabc 90be 043e
00000150: 5d6c 6f3f f82b f93c 7812 ccbe 2502 613f
00000160: 3a39 1f3e d530 803e c87c afbd 0d1c 393e
00000170: 4355 353e 267f 0bbf c4c4 b43d 6614 05bf
00000180: d818 833e 9030 53bd d663 89bd 775c acbd
00000190: f510 d33e bc91 11be fb9d debe 9fcd a23e
000001a0: 0035 a33b 20f6 123e de26 943d a268 9b3e
000001b0: c493 dbbd 3ab9 bb3d 88bc a7bc 3528 1c3e
000001c0: 9c95 97bd 432a 173f f7a5 693d c059 7dbd
000001d0: 9bf7 dfbd 609d 463c e593 abbd 64f6 b5bd
000001e0: 3b4f 0e3e 9ce0 c33c dae8 24be 47ca c53e
000001f0: 2bd9 713d eeba a33d 487e 513d 6e2b bd3d
00000200: aac0 e2bd 7c68 3ebd 0943 a83c d7aa 21bc
00000210: f01d 313d 00f7 e13d b53a f4bd b3bc 76bd
00000220: 2091 98bc 5f69 4ebd 48cf dc3d 80cd ffbd
00000230: 9005 c23c d2e9 863d 2b69 d8bd ffe1 9e3d
00000240: 8255 02be f787 663c 2abc 91bd 029d 05bb
00000250: 5480 dabc a821 e13c 6049 9bbd 516c 6cbd
00000260: 46de 18be 40d2 48bd 8060 f43d 3aa3 c0bd
00000270: 1526 efbd f1d8 3f3c 54f1 823d c88d 223d
00000280: f787 093d d075 813c 50ef fbbc 523e 17be
00000290: aae0 ffbd 252f eabd 5a4e 0e3d 1fe4 5f3d
000002a0: 9cae f33d a252 803d a065 d33b 9ea0 2439
000002b0: 0ca7 423d 6656 adbd 982d c0bc 0cd4 1abe
000002c0: a074 773d da07 cabc d63c 973d 837f b1bd
000002d0: 4b61 953d c4a6 6f3d 40f8 79bc 0076 87bb
000002e0: 372c 3c3d 44bd 93bd c03a 4b3d 113a debc
000002f0: 6cc4 e2bd 174b a2bd b40a 79bd 9c31 ba3c
00000300: 6a83 c13d 4010 15bf 563a 4cbd 243b 513e
00000310: 0fe0 aa3d 5c0e ebbd 683d bf3e dec6 d53e
00000320: 5870 b83d 2b20 04bf d4d5 9dbd e192 033c
00000330: ced4 b7bd 75b6 ae3d d858 fdbf dce8 acbf
00000340: 2110 c63b efd7 c5be 01e8 af3e 589f a33e
00000350: 861e b43e ba7b cebd ab8b e53c 44d5 063f
00000360: d30e 95bd 0886 033e 34d8 6e3d 474e 6b3f
00000370: 274d 12be 9fe6 263f a09c 23bc 8a4b 913c
00000380: 205b b63e 62d9 d4bd 094b 32bd b890 1d3e
00000390: 61ca 403e 61f3 d33d 8635 03be 4ecd fabd
000003a0: 6432 503d d7ae 113f 6605 423f d9d2 a0bc
000003b0: 5411 b0bd c8ec c4bd f8ee f2bc f113 793d
000003c0: 140b fbb8 a60a 6d3f a2fb 8b3e ec46 873e
000003d0: 4588 a1bf 702c 72bc a0b2 d03e 889b 38bd
000003e0: eb68 8fbe e534 7a3e 08cc 4cbe 9917 aabe
000003f0: d367 343e d753 803e cc9b 44bd c6cd ee3d
-0.049757704 -0.04528067 0.14827387 0.06132186 0.024832325 -0.12093878 -0.7809005 -0.02716276
-0.04636991 -0.2746742 -0.09722562 0.14729463 0.012139395 -0.08810616 -14.683128 -13.510119
0.27164653 -0.43358904 -0.68423843 -3.2815747 -1.240235 0.103494406 -0.6809765 -0.5828569
-0.10679688 -0.07027832 -0.013429486 -0.3126142 -0.254781 -1.2752063 0.11255321 0.5670934
0.1988447 0.03193593 0.0075237453 0.28324166 0.22460842 0.23797369 -0.02010425 0.07584635
-0.08003627 -1.2263814 0.14801015 -0.4471961 -0.08920571 0.091340154 0.051853046 0.026119113
-0.038376447 -0.22473381 0.22689001 0.2093955 -2.7802017 -0.044990644 1.3164803 0.11116128
-0.30113614 -0.08829686 -0.061078686 0.14158256 0.1884777 -0.7503691 0.08280784 0.34409022
-0.00790672 -0.6055608 0.034841392 0.17021619 0.120398164 -0.06629501 -0.7270408 0.2145278
0.032633573 0.46294954 -0.035841003 -0.038261928 0.08651672 0.02739092 0.0051346226 0.3323531
-0.1041923 -0.38535014 -0.026715176 0.12963319 0.93524724 0.030416474 -0.3985784 0.878939
0.15549174 0.25037256 -0.08568722 0.18077107 0.17708306 -0.5449089 0.088265926 -0.5198425
0.25604892 -0.051559985 -0.06708495 -0.08416074 0.41223875 -0.1421575 -0.43479905 0.317975
0.0049806833 0.14351702 0.07233976 0.30353266 -0.107215434 0.091661885 -0.02047564 0.15249713
-0.074015826 0.5904886 0.057043042 -0.06185317 -0.10935899 0.012122482 -0.08377818 -0.08884886
0.13897412 0.023910813 -0.16104451 0.38630888 0.059045 0.079946384 0.05114582 0.09236799
-0.11071904 -0.046486363 0.020539777 -0.009867392 0.04324144 0.1103344 -0.1192526 -0.06023855
-0.018623888 -0.05039346 0.10781723 -0.12490368 0.023684293 0.065875664 -0.10566934 0.07757949
-0.12727931 0.0140705025 -0.071159676 -0.0020387773 -0.02667252 0.027481869 -0.075823545 -0.057720486
-0.1492854 -0.049028635 0.119324684 -0.09406133 -0.116771854 0.011709438 0.06393686 0.039685994
0.03357693 0.015803248 -0.030753762 -0.14769867 -0.12494023 -0.11434773 0.03474269 0.054660913
0.118985385 0.06265761 0.0064513236 0.00015700093 0.04752259 -0.08463745 -0.02345924 -0.15119952
0.060413957 -0.024661947 0.073846504 -0.08666899 0.07293948 0.05850865 -0.015256941 -0.0041339397
0.045940604 -0.07213834 0.049616575 -0.027127298 -0.11072621 -0.079244785 -0.060801223 0.022728734
0.09448893 -0.5822792 -0.04986032 0.20432717 0.08343517 -0.11477348 0.37351537 0.41753286
0.09005803 -0.51611584 -0.077068 0.008030624 -0.08976136 0.08530895 -1.9792738 -1.3508563
0.006044403 -0.38641307 0.34356692 0.31957507 0.35179538 -0.10082193 0.0280207 0.5266917
-0.07278218 0.12844098 0.058311656 0.91916317 -0.14287244 0.6519565 -0.009986073 0.017736215
0.35616398 -0.10393025 -0.04352859 0.15387237 0.18827201 0.10349155 -0.12813386 -0.1224619
0.050829306 0.5690741 0.7578949 -0.01963179 -0.08597055 -0.09615475 -0.029654965 0.060810033
-0.00011970676 0.92594373 0.27340418 0.26421297 -1.2619711 -0.014781103 0.4076128 -0.0450702
-0.28009734 0.2443424 -0.19999707 -0.3322113 0.17617731 0.25063965 -0.048000142 0.11660342

actor.2.bias f4 [64]
00000000: 713a 953e 7f22 69bb 0977 c4bd adeb 2c3e
00000010: c56a e7bd 5118 36bc 20d9 e63d 7d47 3b3e
00000020: 5c1f 933c dfa0 23be 683d 84bd f4f6 d1be
00000030: 597a cc3c e9d8 f93c accd 1dbe 2155 acbe
00000040: 8191 de3d 0492 bebd 3b6e 893c 5cab c3bc
00000050: dbd6 f6bd 20d1 c9bd 34f0 f53d 1ee6 d3bc
00000060: dbaf 21be 282b c8bd 7893 eabd 3ef0 133e
00000070: ec5e 2b3e b4b8 bfbd 0a69 4a3c 6057 6abc
00000080: 9ca5 b83d 1b5a e7bc 7188 f9bd 0448 6c3d
00000090: 76fe 303c 19f6 0d3c 6f4f 223e 40a7 9a3c
000000a0: 9e63 473e 05fe 4cbd b60e 973e d782 ccbd
000000b0: ee9b b9bd f1c5 7abe c471 cc3c 5e14 06bc
000000c0: d2ea 07be 69bd 803e 0d37 cebd 78c4 e13d
000000d0: 8c87 2dbd 5ed2 c33d e8f6 eb3d 35bb 0a3e
000000e0: 6ab6 2e3e c4eb f339 cc1f 7dbe 59d1 fdbd
000000f0: faa9 f73d 0081 fcbd befb b8be 7108 05be
0.2914615 -0.003557354 -0.09593017 0.16886778 -0.112996615 -0.011114196 0.11271882 0.1828899
0.01795929 -0.15979336 -0.06457025 -0.41008723 0.024960684 0.030498939 -0.15410489 -0.33658698
0.108675964 -0.09305194 0.016776195 -0.023885421 -0.12052699 -0.098543406 0.12008706 -0.025866564
-0.1578974 -0.097738564 -0.11453909 0.14447114 0.16735429 -0.09361401 0.012354145 -0.014303058
0.090159625 -0.028241208 -0.12184227 0.057685867 0.010802856 0.008664631 0.15850614 0.01887858
0.19471595 -0.05004694 0.2950341 -0.09985893 -0.09062944 -0.24489571 0.024956591 -0.008183567
-0.1327317 0.25144508 -0.10069094 0.110238016 -0.042365596 0.09561609 0.11521703 0.13547976
0.17061773 0.0004652423 -0.24719161 -0.123934455 0.12092967 -0.12329292 -0.36129564 -0.12991501

actor.4.weight f4 [2, 64]
00000000: 0ee2 453f c468 65bd 3f23 a7bd 108e 4e3e
00000010: 53f2 323d add6 eebc b8c6 9abd b2ed acbe
00000020: 5fa5 37bd e49d a23d 4a86 3c3c b148 dfc0
00000030: 1b79 c9bc bd2a 74bc 76c3 89bd c0fd 143e
00000040: 2915 873e ddc5 3abc 72ab 9ebd aac8 c63c
00000050: 907d 9e3c 57dc 7b3d f251 adbe 555e 63bb
00000060: c68b 793c 72fb 8ebd 55f7 a9bc f61c 30be
00000070: fe1c 8a3d 5295 1abd 4c92 dc3d 9a19 e03f
00000080: 5d86 fdbd 95be 5f3d b91b c23c bf1f 18be
00000090: 300f 03bd 8fb8 613e 89fc 1c3d 6c89 03bd
000000a0: 8b94 01bf c30d 973d f776 d13e e8bc c73d
000000b0: 269a a03d 1933 b7be ec06 17be 77cf e0bc
000000c0: 91f8 683d b335 3cbf 5cff eebd 73ac 4b3f
000000d0: 32a9 ba3d a961 373d a111 17bf 7ad3 513e
000000e0: c27a c1bd f397 f1bb 4603 d6be d562 cf3b
000000f0: 783f c43e 783b d83d cfae a5c0 4020 d03c
00000100: 9aee 283f a07e ad3e 624d d5bd a415 8b3e
00000110: b4b2 553d 60fc c33d 8f3b 0a3e 4e24 323f
00000120: b6c3 bebd cb16 f33b 9aa4 ee3d 8b45 a43f
00000130: 6ef9 ea3c 5a66 c0bd 8817 b63d e276 27c0
00000140: 69fa e2be cb68 f83d 83cc 1f3e daef a0bd
00000150: c583 32bd df5a 4c3e 4ae4 92bc 884f e43d
00000160: 7102 323e 802a 63bc a430 82bd 88da 9ebc
00000170: 7be3 b03e 0f8f e83d 657a 5abd 6d44 bd3f
00000180: 6b6e d6be 6c34 23bd 0e6f 8fbc b318 203c
00000190: b914 2c3e 2f3e 933e 0b3b 923e d844 a03d
000001a0: 8ec9 14bf 08bf 81bc 6b28 c6be 80d5 6dbc
000001b0: 6838 8cbd 4c19 2b3f 6b98 1b3d 7e79 8cbd
000001c0: adb1 cdbd 7a0f 07bf 5bde b8bd fbc7 483f
000001d0: 60bb 63bd 75d6 ae3e 3b4f d7bd 075f c7bd
000001e0: f718 a93e 1231 cc3c 7d06 dc3e af23 02bb
000001f0: 1682 0d3f 9066 013d 477c 91bf 7c62 f23c
0.7729806 -0.056008115 -0.081610195 0.2017138 0.04368813 -0.0291551 -0.07557434 -0.33775097
-0.044835445 0.079402715 0.011506626 -6.9776235 -0.02459388 -0.014902768 -0.06726734 0.14549923
0.2638333 -0.011399713 -0.07747544 0.024265606 0.019346982 0.06148943 -0.33851582 -0.0034693677
0.0152310785 -0.06981553 -0.02074782 -0.17198548 0.06743811 -0.03774006 0.107700914 1.7507813
-0.123791434 0.054625113 0.02369486 -0.1485586 -0.031996906 0.2204306 0.038326774 -0.032113478
-0.50617284 0.07375672 0.40911075 0.09752828 0.078419015 -0.35781172 -0.14748734 -0.027442677
0.056877676 -0.7351944 -0.116698 0.7956001 0.09114303 0.04477087 -0.59011275 0.20490828
-0.09447242 -0.00737285 -0.41799372 0.0063289204 0.38329673 0.10558218 -5.177589 0.025406003
0.6598908 0.3388567 -0.1041515 0.27164948 0.052172378 0.09569621 0.13499282 0.69586647
-0.09314673 0.0074184886 0.11652489 1.2833723 0.02868339 -0.09394522 0.08891207 -2.616631
-0.44331673 0.12129363 0.15605359 -0.07858248 -0.043582696 0.1995654 -0.017931122 0.11147982
0.17383744 -0.013865113 -0.06356934 -0.019391313 0.34548554 0.11355411 -0.05333938 1.4786507
-0.41881117 -0.039844915 -0.01750901 0.009771514 0.1680478 0.2875838 0.2856067 0.07825631
-0.5812005 -0.015838161 -0.3870271 -0.014516234 -0.06846696 0.66835475 0.037987154 -0.0685911
-0.100436546 -0.5275799 -0.09026786 0.78430146 -0.055598617 0.34147993 -0.10513159 -0.09734922
0.3302686 0.024925742 0.429737 -0.0019857695 0.5527662 0.03159195 -1.1366051 0.029587977

actor.4.bias f4 [2]
00000000: 99f4 123e 830e 2cbe
0.14351119 -0.16802411
