HAC-Baseline/preTrained/MountainCarContinuous-h-v1/2level/HAC_MountainCarContinuous-h-v1_ExplorationTechnique.SURPRISE_level_0_actor.pth (torch, 20183 bytes, 5 tensors)

actor.0.weight f4 [64, 4]
00000000: 9ded 323f 9efb ebbe d872 3fbe 7ce5 963e
00000010: 64d8 a0bd 28ac 293e 7233 61be 6056 963e
00000020: cd5e c63e 9034 33be 5c7e 393f 2132 723f
00000030: 1d36 d23e d514 b6bf 561c f43d 1f44 44bf
00000040: 147e 383f 7edf 05bf f2ac 95be 37b6 66bf
00000050: eebc 59be b28c 853e d8af bbbe f7fb e53b
00000060: 2059 7ebe b984 04bd 7bca 063d 76b3 8dbf
00000070: ed8c 27bf 33cb 7e3e 1bd7 0a3f 588b 903e
00000080: e666 1e3f 94d6 72bf 1f15 b7be a2df d2be
00000090: 294a d43e 0ec5 bebe ea1c 9e3d 931d bebf
000000a0: e836 f33d 7377 39be 2b36 133e 7aaf c93e
000000b0: 5f20 8ebd 79a6 a83b 684b 7f3f 3b5b 973e
000000c0: b14a ed3e 0a57 9bbe 7299 2ebf f370 acbf
000000d0: b2d4 d0be 892b 8f3e 2d26 a83e 8f26 c93c
000000e0: 0a4c 383e 72ae c6be b26d 9d3e 11e9 9bbf
000000f0: 20f3 003d f4ba aebe 50e0 1d3e e052 30be
00000100: 5afe 533e 4ecf f8be ab8b b83e 5061 acbf
00000110: 003a d3be 2e98 313e 2f6a 0a3f 4558 253f
00000120: 25de 4f3f 80fc 7cbf 5f61 04bf fe74 debf
00000130: e8ae 3abf 3992 eb3e 97a6 593e 971b d63f
00000140: a54f 83be 3b83 aebe 3a52 873e c9e3 4ebe
00000150: 2eaf 9c3e c884 48bd 0b58 083f 6bce 723e
00000160: f34b 91bd 0465 a03f cfe6 323f cb13 1e3f
00000170: 0298 983e fa07 ae3e f6a4 b9be 96ab 88be
00000180: 831c 133f a59d 68bf 7cc5 f8be 670b d4bf
00000190: 8922 7ebe 9284 083e 7e62 e0bc dbf1 bfbe
000001a0: d707 433e 23f1 d0be 424c ddbe 8516 c2bf
000001b0: f00f 6fbf e981 e8bc aace 013f de82 883f
000001c0: 1d22 b33e 49de 09bf 927b 11bf 2942 b2bf
000001d0: acb5 ac3e cf3c 15bf 7091 cbbe 2d9b e0bf
000001e0: 009e b53a 5084 3ebe f0ea 0dbd 2479 adbe
000001f0: ff91 21be a87d 2ebf 56a2 463a e97f c4bf
00000200: 81fc f93e 9ce3 54bf 0717 9a3e d352 5cbf
00000210: d291 ffbe 650e 5e3f 7d08 38be fa85 2cbf
00000220: 05b2 38bf 755d 413e 0f53 103e c625 bc3e
00000230: 69a5 2f3e 4749 d9be 3330 a63e 2218 babe
00000240: 48d1 b0bd f0e1 d53d 1429 843e e4ab ce3e
00000250: a034 e93e f2fc cabe 88da 003e 7839 5cbe
00000260: 3627 d4bc 1afc 103f fa9e 343f 8ad4 c1bd
00000270: ccd1 883e e4ef 333e a060 263e ca67 8abe
00000280: 0cb1 e83e 4006 e13d 38ba 833d ea99 e1be
00000290: 35cf 983e dc68 22bf e9bf a8be fd08 ecbe
000002a0: 33c3 5e3e e4ec 9cbe 4ac0 dfbe 0143 98bf
000002b0: a685 e13e 3f85 aabe 87db f7be cee0 cfbf
000002c0: 5799 1abf ec8b 443f 3375 a33e 4a99 21be
000002d0: 5300 e13d 7002 843e 35a0 ab3d 52b4 35be
000002e0: b854 ea3e 5605 ba3f 1caf 613f 6757 5e3f
000002f0: 44ab d5bd c5b7 943d 9fd2 76bd b92c 2fbe
00000300: 10a3 a33e 9c01 dc3e 20bf 4abd 3845 e5bd
00000310: f539 303e 7efa 86bd fe60 913e 45fa 14be
00000320: 018c 62bf 4f9a ba3d fe91 db3e dcb2 933f
00000330: 3bc6 733e d16e 16bf fa7d 85be 3923 d7bf
00000340: 1df3 24bf 855a a23e 54b1 ad3e c64c a23f
00000350: f111 0abf 54ed 7c3e afb4 80bd 978b c63e
00000360: 72e7 9f3e c8e7 7abf c96a 9a3e bb38 a2bf
00000370: 8dd2 6bbe 0c09 4c3f 7de6 cfbc 8d69 c7be
00000380: 530f 85bf b989 2c3f 7ed0 943e 036d 8e3f
00000390: a4ae 8abe 5843 3ebf b0d2 e7be 4008 96bf
000003a0: ce23 d13e 91dd c53e 2323 c83e 4f1d c13e
000003b0: 12f3 813e a17c d8be b2d7 d0be 3151 b2bf
000003c0: 8b8f 063f 1849 86bf 6090 50bd 3244 98bf
000003d0: 7d2b 843e ae5a 49bf 23d3 85be 27e7 acbf
000003e0: 29ae 99bd f6f5 043f e545 69be 6b55 3abf
000003f0: 4281 e33d 9fd6 17bf 957a 51be 0036 e3bf
0.6989382 -0.46090406 -0.18696153 0.29471958 -0.07853773 0.16569579 -0.21992281 0.29362774
0.38744202 -0.1750052 0.72458434 0.9460774 0.4105691 -1.4225107 0.11919467 -0.76666445
0.7206738 -0.52294147 -0.2923351 -0.9012179 -0.21263477 0.26083905 -0.36657596 0.007018562
-0.24838686 -0.032353137 0.032907944 -1.1070392 -0.6544941 0.24882202 0.54234475 0.2823131
0.6187576 -0.9485867 -0.35758302 -0.41186243 0.4146283 -0.37259716 0.07720359 -1.4852775
0.11875707 -0.18111973 0.14376132 0.3939169 -0.06939768 0.005146798 0.99724436 0.2956179
0.46346048 -0.30339843 -0.6820289 -1.3471969 -0.40787274 0.27962902 0.32841626 0.024554519
0.17997757 -0.38804966 0.30747753 -1.2180501 0.031481862 -0.3412701 0.154176 -0.17219114
0.20702496 -0.4859566 0.36044058 -1.3467197 -0.41255188 0.17343208 0.54068273 0.64587814
0.8119834 -0.98822784 -0.51711076 -1.7379453 -0.72923136 0.46009997 0.21254955 1.672717
-0.256467 -0.34084496 0.2642992 -0.2020408 0.30602401 -0.048954755 0.5325934 0.23711555
-0.07094564 1.2530828 0.69883436 0.6174895 0.29803473 0.3399046 -0.36258668 -0.2669341
0.5746538 -0.90865546 -0.4858817 -1.656598 -0.24817862 0.13331822 -0.027390715 -0.3748921
0.1904596 -0.40808973 -0.43222243 -1.5163122 -0.93383694 -0.028382258 0.5070597 1.0664937
0.34986964 -0.53854805 -0.5682918 -1.392644 0.33732355 -0.5829591 -0.39759398 -1.7547356
0.0013856292 -0.1860516 -0.034647882 -0.33881485 -0.1577835 -0.68160486 0.00075772905 -1.5351535
0.48825458 -0.83159804 0.30095693 -0.8606388 -0.4991594 0.86740714 -0.17971988 -0.6739193
-0.72146636 0.18883307 0.14094184 0.3674757 0.17152943 -0.4243872 0.32458648 -0.36346537
-0.08633667 0.10443485 0.2581259 0.40365517 0.45547962 -0.39646107 0.12583363 -0.21506298
-0.025897603 0.56634676 0.7055508 -0.09464367 0.26722562 0.1757198 0.16247797 -0.2703231
0.45447576 0.1098752 0.06432003 -0.4406274 0.29845586 -0.6344125 -0.32958916 -0.46100608
0.2175415 -0.30649483 -0.43701392 -1.1895448 0.44047278 -0.33304784 -0.48409674 -1.624048
-0.6039023 0.76776004 0.31925353 -0.15781131 0.1098639 0.2578311 0.083801664 -0.17744568
0.4576776 1.4532878 0.8815782 0.86852115 -0.10433057 0.07261614 -0.060259458 -0.17106904
0.31960344 0.42969978 -0.049498677 -0.11194843 0.17209609 -0.06590746 0.28394312 -0.14548595
-0.8849488 0.09111463 0.4288482 1.1538959 0.23806088 -0.5876284 -0.26072675 -1.6807624
-0.6443346 0.31709686 0.33924353 1.2679679 -0.53933626 0.24699908 -0.06284463 0.38778374
0.31231266 -0.9800992 0.30159596 -1.2673563 -0.23029537 0.79701304 -0.02537846 -0.38947716
-1.0395302 0.6739765 0.29065317 1.1127018 -0.27086365 -0.7432151 -0.4527793 -1.1721268
0.4084763 0.38645604 0.39089307 0.37717673 0.2538076 -0.42282584 -0.40789562 -1.3931028
0.5256278 -1.0491056 -0.050918937 -1.1895812 0.2581443 -0.7865399 -0.26137647 -1.3508042
-0.075039215 0.51937807 -0.22780569 -0.7278659 0.11108638 -0.5931186 -0.20456918 -1.7750854

actor.0.bias f4 [64]
00000000: 6ee0 ba3e 5131 bfbe e3fb f03e 3d18 a83e
00000010: 69fa 933e 6732 debe 3044 18bc aa11 413e
00000020: cd11 533e 0d7f a63e c606 0ebe 0316 d43e
00000030: fda9 f73d 8b6b d9be 7182 ae3e c222 febe
00000040: fe5c d03e b7d0 743e 8cf6 cc3e 06c2 5abc
00000050: b73d d3be ada2 b13e 7652 833e 8ecc febe
00000060: daf1 343e bb81 adbe f44d 5b3d 45a3 0c3b
00000070: 9c5a bb3d b763 683d 2047 f3be 00f5 e83d
00000080: df80 1a3f 3652 4cbe b51f f3bd 9376 81be
00000090: 202f e7be fe1f f9be 7849 833e 4a8e 8cbe
000000a0: 9693 a4be 5eb1 a03d 0f43 243d 3174 ac3d
000000b0: 182f 3abd 8a40 f1bd 2c52 0e3f b3ef 88be
000000c0: fe56 d0be 3f5c 2c3e df44 61bc 5353 a43d
000000d0: 6cd2 ea3c 51ee 0bbe 1df0 dc3e 4b5c 0abe
000000e0: 7479 0bbe a450 0a3e 397c be3e eb48 9f3d
000000f0: 2b6e 983e 0315 933e 204f 43be be5b 493d
0.3649935 -0.37342313 0.47067174 0.32830992 0.28901985 -0.4339783 -0.009293601 0.18854395
0.20612259 0.32518807 -0.13869771 0.41423044 0.120929696 -0.4246486 0.34083894 -0.49635893
0.40695947 0.23907743 0.4003185 -0.013351923 -0.41258022 0.34694424 0.2564885 -0.49765438
0.17670384 -0.3388804 0.05354114 0.002145962 0.09148142 0.05673572 -0.47515202 0.11374855
0.6035289 -0.19953236 -0.11871282 -0.25285777 -0.4515314 -0.4865722 0.2564199 -0.27452308
-0.3214385 0.0784633 0.040103015 0.08420599 -0.04545507 -0.11779888 0.55594134 -0.26745376
-0.4069137 0.16832064 -0.01374933 0.08023705 0.02866479 -0.13665129 0.43151942 -0.1351177
-0.1362055 0.13507324 0.3720415 0.0777758 0.2977155 0.28726968 -0.19073153 0.049159758

actor.2.weight f4 [64, 64]
00000000: c1d5 c9bd a63f 0cbd 478a dbbd d6e9 dabd
00000010: 035f 7dbd fc67 18be 389c 3dbd 923b 11bf
00000020: 0245 89bd e419 61bb c0c4 ac3d 33e2 ee3d
00000030: 8377 8bbe ae52 5dbe dea3 3f3d 626c bebd
00000040: 66d5 09bd 3369 af3d f622 06bd f11e fabc
00000050: 6044 32bc d36a 2bbe a330 f5bc 4e35 e4bd
00000060: c94c b7be ecf9 8cbd 9013 2a3e 212c bfbe
00000070: 0156 d3be ed45 6cbe cc1c 0d3d 156b d93d
00000080: 6704 823d 903a ec3d dfb9 adbd 60a2 353c
00000090: a212 9b3d 9049 3dbc 4a91 b9bd 140e f43d
000000a0: 9480 3fbd 26db 28be 7bd5 80be 1dde 8abe
000000b0: 42ef 9d3d f0ac e23c e87e ca3c a5e6 9dbd
000000c0: 3c13 efbd 2999 e83c 03b5 41be 2c7f d63d
000000d0: ca6a c0be 579e ba3c 8193 b5bd 5ed5 9cbc
000000e0: 8bff 92be de7f da3d 64f2 ed3d e942 9abd
000000f0: 23fe d83d 3bd3 59bd 6f0e bc3d be79 0e3e
00000100: 642e 32bd 01b6 d63d df78 fbbe 48b6 c8be
00000110: 9804 a43d b31d 85bd 79ad 92bb 02a1 4fbd
00000120: 575e be3d 6ddd 973d 0812 243d 3f00 43be
00000130: bfb0 9abe bbcb 0f3d 1cfc 2b3b 8065 6cbd
00000140: d460 6dbd 7eb7 d03d 07ca ae3c 18cd e3bd
00000150: c801 fcbc cdf0 efbe 3117 cbbd 64be 74bd
00000160: 3344 c3be 5dbf 173d ef9e 1dbc 04b4 06bf
00000170: 0479 7abe a6f4 82be c480 b63d 83f8 25bd
00000180: e645 00be 40bb 923d b8f4 79bd 2659 a7bd
00000190: e0d5 c5bb fc44 3bbd 8a32 02be 44d9 973d
000001a0: 9edd cd3d f48f f0bd 911d 40be bb72 d6be
000001b0: 8cab 59bd 0c59 023d 806c 713d 66d8 f23b
000001c0: b06b 4abd 72fc a83d 7666 0ebf 4298 c53d
000001d0: c8ee 0dbf fa2f c83c 6d02 29bc 4aed 153d
000001e0: 8229 0fbf 9c02 e43d fe19 183b 4d0e f83d
000001f0: b1bf 053e cf3f 2ebd daff 8bbd 0d6c f23d
00000200: ec9a c83d d677 c3bd 0243 f7bc 6730 13be
00000210: 3053 f4bd 28c7 c53c 780d 773c 9011 d93c
00000220: 1ae7 30bd 2c73 c63d d068 923c 4bf1 a2bd
00000230: e0e3 e7bb 8e8c d93c 90e4 ca3c 4003 b5bd
00000240: c3d8 e33c c253 a9bd 0b58 f4bd b6f4 b1bd
00000250: 88e3 f63d 474e b23d 8180 bf3d 5e46 963d
00000260: 2465 c13d e80f 89bc 14b7 a9bd 8817 2f3d
00000270: a0a7 84bd 02c4 acbd c07f 23bd d875 043c
00000280: 1bfa 373d dca8 87bd 2c58 bcbd 6821 8a3c
00000290: 18e5 96bd f6ab a6bd 8365 3d3d 2804 acbc
000002a0: d0ed e93d 4808 f93d 5c24 193d 7035 303d
000002b0: e05d 253c 404b 003b c0f4 14bc 002f e13a
000002c0: 8831 3f3d bd02 c83d cf9b 54bd 88a2 8ebd
000002d0: 37df 4fbd cff3 a0bd ccd7 1f3b 4a4e 9a3d
000002e0: 164c 9e3d 217a 223d 58f5 e2bd 3ec6 a9bd
000002f0: 092f 3abd fb2c 28bd c3c3 c7bb ae79 07be
00000300: 6c09 2cbe 89c5 9ebd f80f a93e b952 36bd
00000310: 7bd6 8e3d 2df4 72be 585f c83d 23c9 e03e
00000320: 1104 76be 9aad d63d f755 813c 8ba1 f13c
00000330: 97fd ccbc 9a3a a33c 48c7 5b3e 484f c13c
00000340: e0ff 363e 339f 053e 3a1a 45bd 2770 c53e
00000350: ff09 83bc 7bb9 c33e 91f8 833e 60e1 99bb
00000360: 581f 7bbf f3d2 773c f872 09be 3551 e73e
00000370: 6812 6dbe 87a8 97be f044 e3bc 5a2c fd3c
00000380: 1e11 553e 434f 713d 40f5 923e 1b7d e13d
00000390: f2ab ce3d e8d1 30bd ceea 943e 8cc0 763d
000003a0: 50b5 0bbd d127 14bd ef02 42be 4528 81be
000003b0: 173a 3b3e 5c98 9e3c 0a2c 613f 6440 d33d
000003c0: 96c7 ae3d 92e2 413e 5043 b23e 1eea 21be
000003d0: 59bd 723e 98aa 86bc db40 83bc a3f9 77bd
000003e0: 2046 ae3e 89a8 cbbd 03b4 953d ac97 56be
000003f0: 2432 bbbd 6c68 403d c423 f73d 3fd4 8dbd
-0.098552234 -0.034240387 -0.10719734 -0.10689132 -0.06185819 -0.14883417 -0.04629156 -0.5673152
-0.06702615 -0.0034347707 0.084359646 0.11664238 -0.27239618 -0.21613571 0.046787135 -0.09298016
-0.03365078 0.08564987 -0.032748185 -0.030532332 -0.01088056 -0.16739969 -0.029930418 -0.111429796
-0.3580077 -0.06883606 0.16609025 -0.37338355 -0.41276553 -0.2307355 0.03445129 0.106161274
0.06348496 0.115346074 -0.08482718 0.0110860765 0.07571913 -0.011553183 -0.09060915 0.11916748
-0.04675348 -0.16489848 -0.25162873 -0.27122584 0.077116504 0.027670354 0.024718717 -0.077100076
-0.116735905 0.028393345 -0.18916707 0.10473475 -0.37581474 0.02278058 -0.08866025 -0.01914471
-0.2871059 0.1066892 0.11618498 -0.07532293 0.10595348 -0.05317996 0.091824405 0.13913628
-0.043501273 0.10483933 -0.49115655 -0.3920157 0.08008689 -0.06499805 -0.004476246 -0.05069066
0.09295338 0.074152805 0.04005626 -0.19043063 -0.30212972 0.035106402 0.0026242798 -0.057713985
-0.05795367 0.10191248 0.021336569 -0.11123103 -0.030762568 -0.46863404 -0.09916533 -0.059751883
-0.3813797 0.037047733 -0.009620412 -0.5261843 -0.24460226 -0.25577277 0.08911279 -0.040520202
-0.12526664 0.07164621 -0.061024398 -0.081713006 -0.006037459 -0.045720086 -0.12714592 0.07414487
0.10052036 -0.11746207 -0.18761279 -0.41884407 -0.053142115 0.031823203 0.058941364 0.0074110506
-0.049419105 0.08251275 -0.55625093 0.096481815 -0.55442476 0.02443694 -0.01031552 0.03660325
-0.5592271 0.1113331 0.0023208852 0.12112103 0.13061406 -0.04254132 -0.06835909 0.11837015
0.09795174 -0.09544341 -0.030183319 -0.14373933 -0.11929929 0.024142817 0.015078895 0.026497632
-0.043189146 0.09689936 0.017872244 -0.07956179 -0.0070767254 0.02655628 0.02476719 -0.088385105
0.027813321 -0.08267929 -0.11930855 -0.08689253 0.12055117 0.087063365 0.09350682 0.0733764
0.09443119 -0.016731218 -0.082868725 0.04274705 -0.064772844 -0.08435823 -0.039916754 0.008084737
0.044916254 -0.06624004 -0.09196505 0.016861632 -0.07367915 -0.08138268 0.046239387 -0.020998076
0.11422312 0.12159783 0.03738819 0.043019712 0.010093182 0.0019576102 -0.009091556 0.0017180145
0.046678096 0.09766147 -0.051906403 -0.06964594 -0.050749984 -0.07859003 0.00243901 0.07534464
0.07729356 0.039667252 -0.11081952 -0.08289765 -0.045455012 -0.04105852 -0.0060963347 -0.13230011
-0.16800469 -0.077525206 0.33019996 -0.044512484 0.06974503 -0.23725958 0.097838104 0.43903455
-0.24024989 0.104823306 0.015788062 0.029495975 -0.025023265 0.019925404 0.21462739 0.023597375
0.17871046 0.13049011 -0.048120715 0.38562128 -0.015995977 0.38227448 0.2577558 -0.0046960562
-0.980947 0.015125978 -0.13422763 0.45179144 -0.23151553 -0.29620764 -0.027742833 0.030904938
0.20807311 0.05891348 0.28702736 0.1101019 0.1009139 -0.043168932 0.29085392 0.06024222
-0.03410846 -0.036170784 -0.18946432 -0.25226036 0.18283878 0.01935976 0.87957823 0.10315016
0.08534162 0.18934086 0.3481698 -0.15811965 0.23705043 -0.016438767 -0.016022136 -0.060540807
0.34037876 -0.09944255 0.07309725 -0.20956296 -0.09140423 0.046974584 0.120673686 -0.06925248

actor.2.bias f4 [64]
00000000: 7cf6 e73d 9c1f ccbd 5672 d5bd dcb0 003d
00000010: aeb4 f8bd 37fb 0fbe a77e 33bd ec0e e83d
00000020: ac3b 3d3d 7be1 7cbd 1ad9 033d ce02 01be
00000030: 3abd 26be b9ea d1bd 8a0e 21be d4ee 6b3e
00000040: fc21 8cbd 4d09 0dbc c4b9 01be bf67 923d
00000050: 9bd9 46bd 8cc7 56bc 74c5 2c3d 133f f63d
00000060: 4c24 fdbd 753e a73d 2046 a6bc f360 aa3d
00000070: 7ff2 233e 9d83 d93d af35 093e 3998 c73d
00000080: 822d a6bd 2df1 b7bd 74ec 11be d545 243c
00000090: aa42 213d d887 fa3c 0c5a e1bd e014 b1bd
000000a0: 2088 0dbe 1c5a eb3d 2c1f ab3d 20a4 043e
000000b0: 9a42 9cbd c9ef 37be 9806 7dbd 88c8 fabc
000000c0: 7abf b7bd e70c 5b3d 0181 cbbd adf6 85bc
000000d0: 50a8 573e e8b8 dcbc cea0 623d 5653 b6bd
000000e0: 1774 4c3d 540e d63c 2b18 18bd 69dd 8abd
000000f0: 9e3d b5bd 7cd0 d4bd 544d 95bc b008 af3c
0.1132631 -0.099669665 -0.104221985 0.031418666 -0.12143837 -0.14060675 -0.043821957 0.11330971
0.046199486 -0.061738472 0.032189466 -0.12598726 -0.16283122 -0.10249848 -0.15728202 0.23040324
-0.068424195 -0.0086081745 -0.1266852 0.07148694 -0.04854737 -0.013109099 0.042180493 0.12023749
-0.12360439 0.081662096 -0.02029711 0.08319273 0.16010474 0.10620806 0.13399385 0.09745831
-0.08114149 -0.089815475 -0.14250356 0.010026415 0.039370216 0.030582353 -0.11003503 -0.0864656
-0.13821459 0.114917964 0.08355555 0.12953234 -0.07629891 -0.17962565 -0.061773866 -0.030613199
-0.08972068 0.0534791 -0.09936715 -0.016352976 0.210603 -0.026943639 0.055329137 -0.08902614
0.0499154 0.026129879 -0.037132423 -0.06780512 -0.08849643 -0.10391328 -0.01822535 0.021366447

actor.4.weight f4 [1, 64]
00000000: 1df6 46bd aba6 62be 7513 9a3d bd22 893e
00000010: bc57 9abd a9b3 ab3d 8376 803e b127 18be
00000020: 345b 10be 8dcb 503d b0ff d6bc c025 cb3c
00000030: bb0c cfbc aacc 1d3c 79ff 3c3d 743b cbbe
00000040: 99b0 ebbc 4af0 12be 61ed 91ba 2dd3 923e
00000050: 9cf8 b4bd 78a4 8abe 0a4a f23c eedf 78bd
00000060: b360 1cbd 96ff 72bd c070 4fbd 7fbb d0bf
00000070: a5e8 f9be 3750 8a3e 3da6 72bd 1484 43bd
00000080: 402d 0abc 312f 2e3e e5d7 7bbd 5df7 adbd
00000090: 88ca 08bf 3187 e3be db10 02bd 6f60 823f
000000a0: 2bf6 afbc 4827 bfbd 0b73 06be 476b bdbd
000000b0: 4ce8 b93b 3b22 c9be a04e 9bbc 98b2 443c
000000c0: c838 aebc b7b5 8b3f 7946 c03b a97c bb3d
000000d0: 5100 f2be 63d7 843e bf80 843d c8c2 743d
000000e0: 7e18 493f a3bc 81bf 7558 76bd b5e8 693c
000000f0: 2947 f93c dc2e da3e a0ba 49bd d9b5 e5bd
-0.048574556 -0.22133891 0.075232424 0.26784316 -0.07536265 0.08383877 0.25090417 -0.14858891
-0.14097291 0.05097537 -0.026244968 0.024798274 -0.025274625 0.009631315 0.046142075 -0.39693797
-0.028770732 -0.14349476 -0.0011133366 0.2867674 -0.08836481 -0.27078605 0.02957632 -0.06076043
-0.038178157 -0.059325777 -0.050644636 -1.6307219 -0.48810306 0.27014324 -0.05924057 -0.04773338
-0.00843364 0.1701019 -0.06148519 -0.084944464 -0.5343404 -0.4443908 -0.031754356 1.0185679
-0.021479687 -0.09333664 -0.13129823 -0.09248977 0.005673444 -0.39283928 -0.01895839 0.012005471
-0.02126731 1.091483 0.005867776 0.091546364 -0.47265866 0.25945577 0.06469869 0.05975607
0.78553 -1.0135692 -0.060142953 0.014276673 0.03042944 0.42613876 -0.049250245 -0.11216325
