HAC-Baseline/preTrained/MountainCarContinuous-h-v1/2level/HAC_MountainCarContinuous-h-v1_normal_sync_level_0_actor.pth (torch, 20183 bytes, 5 tensors)

actor.0.weight f4 [64, 4]
00000000: 5eb9 e63e a4b6 c840 0915 18bf 74a4 643f
00000010: 3319 75bd a84a b33d 7586 46be f019 8e3e
00000020: d98b 4f3f 152a ec3f 6892 763e 7b57 5740
00000030: 2a75 de3d 3d81 a240 0678 b5be 2144 49bf
00000040: 252f ac3f b350 9f40 2e15 64be 3be4 413f
00000050: 08d5 be3e 5c9e 0ec0 1c1e ecbe 43ef 353f
00000060: 186e 4fbe 0615 40c0 0309 cc3e cdf0 a63f
00000070: bf4a 983d 13be f3be 02bf d93e 4f5b d2be
00000080: 877c 153f 4423 af40 060f 30bf e360 4cbe
00000090: 282b 143f 216b 0340 d704 7a3e ff9a a6bf
000000a0: 74a4 4bbe 76d4 ebbf e123 133f 7890 2840
000000b0: 47d7 ad3e 4ca6 b6bf 85aa a23f c4c0 14be
000000c0: 7080 103f ff54 adbe 019a 26bf dfc6 8cbf
000000d0: 59f5 3bbf 43e0 5ac0 bc5a 483f 17e0 e33f
000000e0: dd54 863d 073e b93f 9c5f 873f 9bfe 573e
000000f0: 20f3 003d f4ba aebe 50e0 1d3e e052 30be
00000100: 8d87 983d 4a36 e83f efe0 5f3f 6443 b1be
00000110: d2ea ebbe 3f8b 063d 5b6e 563f 7313 b13f
00000120: 9e96 393f b638 353e 4648 29bf 5a5b b0bf
00000130: 8e45 01be 7457 6b3d f043 d43e 8b98 2bbe
00000140: d378 4fbf 5b94 8fbf d5ab 393f be3f ef3f
00000150: d157 e53c c67c a73f 70f2 863f 9b67 1f3f
00000160: 93ca 87bf b125 c63f ebfb 883f 1fe5 26c0
00000170: 1db3 453f c63f f4be 9834 26bf 7f91 73bd
00000180: f201 a53e 98e3 5540 d647 21bf a715 09c0
00000190: baf3 34be 047e 51c0 3164 363d 118b 1ac0
000001a0: 2f73 db3e 22c4 d5be 9036 dabe 359f 06c0
000001b0: 245c 7dbf a3ab 94bf 5924 6f3f 0d08 6d40
000001c0: 9a67 f13e 4f64 4fbf 73fd fcbe 9a53 b6bf
000001d0: a1b6 3b3f 564e 3dc0 ed9b 0abe c8f8 29bf
000001e0: 009e b53a 5084 3ebe f0ea 0dbd 2479 adbe
000001f0: d0b3 f73e 3adc 0cc0 fe35 3d3e 2265 28c0
00000200: a249 eb3f 56ad 1f40 2a1b 333e a1cc ea3f
00000210: 2a84 0abf 3937 0cbf dff4 c33e b3d3 b2bd
00000220: 3872 25bf 7342 a0bf fe22 093f d6fa eb3f
00000230: 402c 203e 65ad e5be 145a a13e db11 c3be
00000240: 48d1 b0bd f0e1 d53d 1429 843e e4ab ce3e
00000250: a034 e93e f2fc cabe 88da 003e 7839 5cbe
00000260: 0fc5 6abe 47a3 fb3d cc22 253f 1319 dc3f
00000270: ccd1 883e e4ef 333e a060 263e ca67 8abe
00000280: 0cb1 e83e 4006 e13d 38ba 833d ea99 e1be
00000290: 1cd5 113f 48f1 8d3e 6d7f ccbe 2f56 2abf
000002a0: bd35 3f3f 63cd d5bf 5b04 f6be 1048 08bf
000002b0: dd15 063f 9236 85bf 8024 00bf 3a60 60bf
000002c0: af85 43bf 3e04 03bf ed05 403f aadf 4740
000002d0: fcb0 f03e 789e 0740 d83e 423e 5e82 acbf
000002e0: dc75 6b3e 06cb 713e dea4 1f3e 53f6 dfbd
000002f0: 91e4 febd df57 473e f321 babd ff67 3cbd
00000300: 10a3 a33e 9c01 dc3e 20bf 4abd 3845 e5bd
00000310: 6174 d63e e7d9 be3f d250 f83e 7c86 9ebf
00000320: a28c 76bf bdf6 a2bf f2ca 6a3f e601 6340
00000330: 5af9 453f eac0 1cbe 7eb2 babe f6e9 2abf
00000340: 1b22 20bf 110b 3fc0 72ed 093f 7473 9f40
00000350: ff7e 9abe 2758 9bc0 c264 cc3e fbd5 a43f
00000360: a894 f83e 4baf f23f ce4f ed3d 28ee 6140
00000370: ad09 cfbe 3431 dc3f bad6 ec3e e1dc 36c0
00000380: 0421 80bf 32ed 82bf 9bbd 633f 9e2f 0240
00000390: b9d9 163f 0739 10c0 4a75 e1be cc4c 85be
000003a0: 3d28 c63f 24fd 6540 2870 f23c 1224 be3f
000003b0: d83e 1c3f 51bd 77bf 59b7 9bbe f55f 1abf
000003c0: 7ca0 4b3f b6d8 0040 feeb abbd f20a 49bf
000003d0: 1427 2c3f 9229 e8be 9785 0fbe f24c 453e
000003e0: 0ea4 50be 4742 3a40 8f8c fb3d f5e6 6fc0
000003f0: a185 d23d 4a26 9a3f d6b7 813d 6f39 91c0
0.450633 6.272295 -0.594071 0.89313436 -0.059838485 0.08754474 -0.19387229 0.27754164
0.81072766 1.8450342 0.24079287 3.3647144 0.10862191 5.078276 -0.35443133 -0.7861958
1.3451887 4.978601 -0.22273704 0.7573888 0.37271905 -2.2284155 -0.46116722 0.7106821
-0.20256841 -3.0012832 0.39850625 1.3042237 0.07436132 -0.47605953 0.4252854 -0.41085288
0.5839314 5.473055 -0.68772924 -0.19958834 0.5787835 2.0534136 0.24415909 -1.3016051
-0.19886953 -1.8424213 0.5747662 2.6338177 0.33953306 -1.42695 1.2708288 -0.14526659
0.5644598 -0.3385391 -0.6507874 -1.0998191 -0.73421246 -3.4199378 0.7826345 1.7802762
0.06559155 1.4472054 1.0576053 0.21093218 0.031481862 -0.3412701 0.154176 -0.17219114
0.07447729 1.8141568 0.87452596 -0.34621727 -0.4607759 0.03284764 0.8376214 1.383406
0.7249545 0.17697415 -0.66125906 -1.3777878 -0.1262419 0.05745645 0.41458082 -0.1675741
-0.8104374 -1.121715 0.7252782 1.8691328 0.027995976 1.3084953 1.0542736 0.62267464
-1.0608696 1.5480253 1.0701879 -2.6077344 0.7722643 -0.47704905 -0.64924 -0.059464928
0.32228047 3.3420162 -0.6300024 -2.1419466 -0.176711 -3.2733164 0.044529144 -2.414738
0.42861316 -0.417512 -0.42619753 -2.1034672 -0.9896872 -1.1614879 0.9341484 3.7036164
0.47149354 -0.81012434 -0.49412116 -1.4244263 0.73325545 -2.9579062 -0.13536043 -0.66395235
0.0013856292 -0.1860516 -0.034647882 -0.33881485 0.48379374 -2.2009416 0.18477628 -2.6311727
1.8381846 2.4949546 0.17490831 1.8343698 -0.54107916 -0.54771763 0.3827276 -0.08731785
-0.6462741 -1.2520279 0.5356902 1.8435924 0.1564188 -0.44858852 0.31514037 -0.3809956
-0.08633667 0.10443485 0.2581259 0.40365517 0.45547962 -0.39646107 0.12583363 -0.21506298
-0.22926734 0.12287002 0.6450622 1.7195152 0.26722562 0.1757198 0.16247797 -0.2703231
0.45447576 0.1098752 0.06432003 -0.4406274 0.56965804 0.27723145 -0.39940968 -0.66537756
0.74691373 -1.6703304 -0.48050198 -0.5323496 0.5237711 -1.0407279 -0.50055695 -0.8764683
-0.7637586 -0.5117835 0.7500904 3.1230264 0.47010028 2.1190472 0.18969285 -1.3477285
0.22994179 0.23612604 0.15590236 -0.109356545 -0.12445939 0.19467114 -0.090885065 -0.045997616
0.31960344 0.42969978 -0.049498677 -0.11194843 0.41885665 1.4910249 0.4849916 -1.2384791
-0.9630834 -1.2731549 0.9171592 3.5469909 0.77333605 -0.15307966 -0.36464304 -0.66763246
-0.6255204 -2.9850504 0.5387794 4.9828434 -0.30175015 -4.854511 0.39920622 1.2877802
0.48550916 1.8959745 0.11587487 3.530161 -0.4043707 1.7202516 0.46257573 -2.8572314
-1.0010076 -1.0228636 0.8896119 2.0341563 0.5892597 -2.2534807 -0.44034797 -0.26035154
1.548103 3.5935755 0.029594496 1.4854758 0.6103339 -0.9677325 -0.3041332 -0.6030267
0.79541755 2.013227 -0.08394621 -0.78532326 0.6724713 -0.45344216 -0.14015804 0.19267634
-0.20375082 2.9102952 0.12282669 -3.7484715 0.10279394 1.2042935 0.06333892 -4.538261

actor.0.bias f4 [64]
00000000: 38c2 43be 79a1 cbbe 69f2 a73e 45a5 233b
00000010: 637d 15be 719f 89be 83bd 073e 2cba 86be
00000020: 2326 28be 642b 003f 1a38 b73e 1d6f 623e
00000030: be7b 8bbe 220d ef38 d893 7abe c222 febe
00000040: f630 a7be 581f 7f3e f64d ef3e 7702 46be
00000050: 5fad 1fbe 6237 70be 2219 3bbd e8b6 21be
00000060: b6c7 cbbd 0997 4ebd adcf 64be 7755 003c
00000070: 74b4 12be 0c01 78bd 2047 f3be ec85 073d
00000080: 9a63 403e d2fa 75be ed0c 4dbe ccaa 85be
00000090: 202f e7be fe1f f9be 9a1c 893e 4a8e 8cbe
000000a0: 9693 a4be ce3c 0ebe 05cc 02be 4f5f d0bd
000000b0: 64b2 4cbd 4297 0cbe d529 50be b018 86be
000000c0: fe56 d0be 7e6e 6f3e 5568 1fbb bdb9 053c
000000d0: 8083 d43d 9357 b03c 998a 693e f39a 19bd
000000e0: c5f1 2cbe 88ff 9bbd 660b 533e 1dbf f1bc
000000f0: 6f7a b23e 23ef 8c3e c74d 19be 4f20 c43d
-0.19117057 -0.3977163 0.32802132 0.0024970334 -0.14598612 -0.26879457 0.13255887 -0.26313913
-0.16420798 0.5006621 0.3578499 0.22112699 -0.27242845 0.00011398854 -0.2447046 -0.49635893
-0.32654542 0.249143 0.46739167 -0.19336878 -0.1559348 -0.23458627 -0.045678265 -0.1579243
-0.09950201 -0.050437007 -0.22344847 0.007832876 -0.1432665 -0.060547873 -0.47515202 0.033086702
0.18787995 -0.24021462 -0.20024462 -0.2610687 -0.4515314 -0.4865722 0.26779634 -0.27452308
-0.3214385 -0.13890383 -0.1277314 -0.10174429 -0.049974814 -0.13729575 -0.20328458 -0.2619071
-0.4069137 0.23381993 -0.0024323661 0.008161959 0.10376644 0.021526134 0.22806777 -0.037501287
-0.16889103 -0.07617098 0.20609817 -0.029510075 0.34859034 0.27526197 -0.14971076 0.09576475

actor.2.weight f4 [64, 64]
00000000: 5f71 90bd 816d 3abd def3 85bd bb3a c2bd
00000010: 93b9 c9bd 64f3 10be 2e31 d5bd 04a4 fcbd
00000020: 60dc cabd 1624 76bd 6620 4abc ed13 debd
00000030: 149c 35be fb6f 57be 07c4 813d 626c bebd
00000040: e870 82bc 5800 1c3d bb76 b7bd 7783 263b
00000050: 4d91 18be 0e54 87be 40a2 80bd 4e35 e4bd
00000060: db91 febd ba77 e0bd ccd8 d73d f590 46be
00000070: 4961 9fbe 590a 3ebe cc1c 0d3d 293c 573d
00000080: b198 933d 5877 8d3d 4580 f4bd 60a2 353c
00000090: a212 9b3d 9049 3dbc a90e bcbd 140e f43d
000000a0: 9480 3fbd aba1 8ebe fc73 a5be b317 69be
000000b0: 9d8b 8c3d 427e 79bc e87e ca3c 396d c1bd
000000c0: 3c13 efbd 4f47 cebc d0ba 37bc 00e5 5f3d
000000d0: 9ff4 75be 3e8b 77bc 54de e5bd e380 7cbd
000000e0: 2412 febd 5b57 893d ea13 a43d f267 0bbe
000000f0: 754d 5b3d 8448 e1bd c715 233d f3be 9b3d
00000100: a827 c63c e193 bd3d c48d 36be 5fb2 55be
00000110: 3e6a 9a3d 068d 92bd ada6 42bd b865 55bd
00000120: 5dfe a23d 52d5 2d3d 9f27 153c dadc 8fbd
00000130: 74b6 5abe 67e3 5dbd e96f a13d 8065 6cbd
00000140: 5ffb 3e3c e6f3 a13d d4f4 b4bc 2b50 0c3d
00000150: 1a6d 05be a951 28be ec6a 0abe 64be 74bd
00000160: 7a3a bebd 8814 19bd 2668 6cbd d643 f9bd
00000170: 2490 03be 44e7 40be c480 b63d 857e abbd
00000180: 0345 d0bb 070a 493d 8a3e 89bd 2659 a7bd
00000190: e0d5 c5bb fc44 3bbd bbfc 97bd 44d9 973d
000001a0: 9edd cd3d 9361 53be 8118 80be fa40 b5be
000001b0: 6303 01bc 0c59 023d 806c 713d e6d3 77bc
000001c0: b06b 4abd 4a98 553d c792 28be 4055 a13d
000001d0: 1c49 2fbe 34a4 183c fb8b 3b3b 13e0 2cbc
000001e0: 36e7 1bbe fa60 bf3d 2e72 923c ff2e b53d
000001f0: 740f c53d e9e4 aebd 46dc 03be 290c 923d
00000200: ad8e 5f3d d677 c3bd 5fa4 c5bc 96bd 28be
00000210: 2dea 21be 28c7 c53c 51eb 07bc 9011 d93c
00000220: 7487 adbd bc19 963d d915 a23c ee5c 9cbd
00000230: aec4 3dbd ca81 1e3d 3bf0 683c 4003 b5bd
00000240: db98 9f3c 0e47 cbbd 58c3 21be a254 b3bd
00000250: 10ca 073e d63b a23d ba12 943d 5e46 963d
00000260: 2465 c13d 0583 e8bc 53f8 ecbd 0bd7 533d
00000270: 6cf6 d0bd 09df f4bd c07f 23bd de59 81bc
00000280: 622a 1b3d e2ac b1bd fcec dbbd 6821 8a3c
00000290: 18e5 96bd f6ab a6bd 54c4 273d 2804 acbc
000002a0: d0ed e93d facb ae3d eeaa 14ba a635 8e3b
000002b0: 1a83 063b 404b 003b c0f4 14bc 002f e13a
000002c0: 8831 3f3d b05f 9a3d fb9d 45bd 6486 cdbd
000002d0: fd56 48bd 2d33 ccbd 2d89 8dbc deb7 513d
000002e0: 6e86 c53d 2740 653c ad72 06be 25e7 eabd
000002f0: 0c71 96bd e7e1 89bd 573e f1bc 9b16 22be
00000300: 2871 b93f 964b c3bd 5e7a dc3e 6983 003f
00000310: 8ac0 c43f 251b 99bf 08ef a0bd 759a 4a3c
00000320: d62f 953f 03a5 203e af55 ef3e a7cf 19bf
00000330: 76a9 94bd 2ba8 aa3f 5416 6e3f 484f c13c
00000340: 44d0 063f 6409 5ebe 1ce4 fa3c adfd 11be
00000350: 57b2 463f 0dbe 823f f6c0 2440 94d9 22bf
00000360: 0b42 41be 7534 dabe ce0f 8dbe 5f11 1240
00000370: cea9 73be ce3f 1d3e f044 e3bc 695c dd3e
00000380: cf20 e43e bcde 1f3e f204 303f ab7b d63d
00000390: f2ab ce3d e8d1 30bd 9ab2 ccbd 8cc0 763d
000003a0: 50b5 0bbd 68ab d33d c8b2 d8be 1db7 d5bd
000003b0: 7afe a73f 9f5e 473f ac35 ae3d 72b4 fc3d
000003c0: 96c7 ae3d 0f50 a13e d78b 0540 55a1 13be
000003d0: 3c64 be3f 0220 0040 6fc9 813e 5f0c ed3f
000003e0: a40e 513e 642a 2dbf ee68 c63e cbc1 35bd
000003f0: 810e 75bd e439 6f3d a3f1 fb3f 37c2 733e
-0.07052874 -0.045514587 -0.065406546 -0.09483858 -0.098498486 -0.14155346 -0.10409771 -0.12335971
-0.099053144 -0.060093008 -0.012336826 -0.10843644 -0.1773532 -0.21038811 0.063362174 -0.09298016
-0.015922979 0.038086265 -0.08958193 0.002540795 -0.14899178 -0.26431316 -0.06280947 -0.111429796
-0.124301635 -0.10960336 0.105393976 -0.19391234 -0.3112891 -0.18558635 0.03445129 0.052547608
0.07206858 0.06907529 -0.11938528 0.0110860765 0.07571913 -0.011553183 -0.09182484 0.11916748
-0.04675348 -0.27857718 -0.32315052 -0.22762947 0.068625666 -0.015227856 0.024718717 -0.09444661
-0.116735905 -0.025180487 -0.011213973 0.05466175 -0.24019097 -0.0151088815 -0.11224046 -0.061646353
-0.12405804 0.06706115 0.08011611 -0.1361387 0.053540666 -0.110001594 0.03981569 0.0760478
0.024188831 0.09256721 -0.17827517 -0.20868824 0.07539795 -0.07155804 -0.047522236 -0.05209896
0.07958672 0.042439766 0.009103685 -0.07024546 -0.21358663 -0.054171946 0.07882673 -0.057713985
0.011656611 0.07907848 -0.0220894 0.03425614 -0.130299 -0.16437401 -0.1351735 -0.059751883
-0.09288497 -0.037373096 -0.05771651 -0.12171142 -0.12847954 -0.18838221 0.08911279 -0.08373741
-0.006355883 0.04908183 -0.067013815 -0.081713006 -0.006037459 -0.045720086 -0.074212514 0.07414487
0.10052036 -0.2064269 -0.25018695 -0.35401136 -0.007874343 0.031823203 0.058941364 -0.015126204
-0.049419105 0.052147187 -0.16462241 0.07877588 -0.17117733 0.009316493 0.002861737 -0.01055147
-0.15224919 0.09344669 0.01787671 0.088468544 0.09622088 -0.08539755 -0.12876996 0.071312256
0.054579426 -0.09544341 -0.02412623 -0.16478571 -0.15811987 0.024142817 -0.00829585 0.026497632
-0.08473101 0.07329127 0.019785808 -0.076349124 -0.046330146 0.038697995 0.014217432 -0.088385105
0.019482067 -0.09925662 -0.15797174 -0.08756377 0.13260674 0.07921569 0.07230134 0.0733764
0.09443119 -0.028382787 -0.115708016 0.051718753 -0.10203251 -0.11956603 -0.039916754 -0.015789922
0.037882216 -0.08675553 -0.107385606 0.016861632 -0.07367915 -0.08138268 0.040958717 -0.020998076
0.11422312 0.08534999 -0.00056712225 0.0043398915 0.002052492 0.0019576102 -0.009091556 0.0017180145
0.046678096 0.07537782 -0.048246365 -0.100353986 -0.048911083 -0.099706985 -0.017277325 0.05120074
0.09644781 0.013992346 -0.13129683 -0.114698686 -0.07345781 -0.067325406 -0.029448671 -0.15828936
1.4487658 -0.09535901 0.4306211 0.50200516 1.5371258 -1.1961409 -0.078580916 0.012365927
1.1655223 0.15687947 0.4674506 -0.6008248 -0.072588846 1.3332571 0.9300282 0.023597375
0.5266154 -0.2168327 0.03062635 -0.14256926 0.77615875 1.0214249 2.5742774 -0.6361325
-0.1887285 -0.42618147 -0.2755112 2.2823102 -0.23795244 0.15356371 -0.027742833 0.43234566
0.4455628 0.1561231 0.68757546 0.104728065 0.1009139 -0.043168932 -0.09995003 0.06024222
-0.03410846 0.103354275 -0.423239 -0.10435317 1.3124535 0.77878755 0.08506331 0.12339105
0.08534162 0.31506392 2.0866601 -0.14417012 1.4874339 2.0019536 0.25348994 1.85194
0.20415741 -0.6764281 0.3875193 -0.04437427 -0.059828285 0.05840482 1.9683117 0.23804556

actor.2.bias f4 [64]
00000000: 2a95 4a3d 0ffc 0bbe 100b 03be e0cd babd
00000010: aeb4 f8bd dbd4 513e b791 f7bd c04b ab3e
00000020: 5e82 febc a3df 4fbe 708b 103e 561f 00be
00000030: ddf6 453e f432 89be 9b29 b2be 269c 82bc
00000040: 9bf8 c03e e682 42bd a5bd 09be af21 78bd
00000050: a4ed b2bd 4c47 4b3e be85 5dbd b925 913d
00000060: 4396 cdbd dfea 1bbb 4591 68bd ea95 fb3e
00000070: e646 04bb 833a 8c3c 76a2 363d 8207 763c
00000080: 5d09 dcbd 0d6e 9abe 155f 18be 1399 d1bd
00000090: a944 f6bd c3f3 d7bd 913b d2bd d72d 10be
000000a0: 5b10 da3e eb5d ca3e 86da d9bc 92d7 a43c
000000b0: f565 9dbd c32f 0abe 4fec 94bd fb3b efbc
000000c0: 7abf b7bd 6af2 76bd efde 71be 320f 0fbd
000000d0: bfbd 903c 1269 133b 6669 033d ec1b ebbd
000000e0: 6e9f 873c 4e31 00be 24f0 ab3e 8c4c 7abd
000000f0: 5f47 b5bd 8d93 15be d7ef 3fbd b74e a33e
0.04945866 -0.13670371 -0.12797189 -0.09121299 -0.12143837 0.20491354 -0.1208834 0.3345623
-0.031068023 -0.20300154 0.14115691 -0.12511954 0.19332452 -0.26796687 -0.34797367 -0.015943598
0.3768967 -0.047488116 -0.1345125 -0.060579 -0.087367326 0.19851416 -0.054082625 0.07087273
-0.10038426 -0.0023791117 -0.056779165 0.49137813 -0.002018386 0.017117744 0.04458853 0.015016438
-0.107439734 -0.30162087 -0.14880021 -0.10234275 -0.12024815 -0.10544541 -0.10265268 -0.14079987
0.42590603 0.3952478 -0.026593458 0.020122323 -0.076854624 -0.13494782 -0.07271635 -0.029203406
-0.08972068 -0.060289778 -0.23620199 -0.0349266 0.017668603 0.0022493047 0.032082938 -0.11479935
0.016555514 -0.12518808 0.3358165 -0.061108157 -0.088515036 -0.14607067 -0.04685959 0.31895992

actor.4.weight f4 [1, 64]
00000000: 7295 46bd d59a f2bd 50f2 9e3d 1155 783f
00000010: bc57 9abd efc9 e0bf deaa 9e3d 436f 04bf
00000020: 1749 cbbd 0c76 0640 052b 2ebe ab34 d13c
00000030: a231 cdbf cd41 823f 070e ce3f 4737 d9bc
00000040: 432b b1bf 7f1d 13be 5800 dd39 0b20 ee3c
00000050: 4bc7 cbbd e071 01c0 0b1c 0040 b550 b8be
00000060: 491a 2dbd b20d d8bc 4fbe 46bd a97e e0bf
00000070: 499c 04be 68b7 623d 1b79 1cbd 6ff1 803c
00000080: dc59 e93c 10aa a43f 7b14 66bd 8b89 a9be
00000090: 3542 91bd 142c bdbd cbf4 03bd 7654 ac3d
000000a0: 603f edbf 138c 0bbf cf51 54bd f713 eebc
000000b0: 8413 313c aef9 8ebe 6cea debc 4edc 3d3c
000000c0: c838 aebc 03b1 103f 04f9 623f 0dc9 b33d
000000d0: eb4e aa3f 7e7f 4840 c88c 323d edca 9b3c
000000e0: fbca 3b40 9f7d 0dbd fa0d b3bf 3cf7 013d
000000f0: fd0a f93c d5f5 a93d d320 08bd 43ac bbbe
-0.048482366 -0.11845938 0.07761061 0.970048 -0.07536265 -1.7561625 0.07747434 -0.5173227
-0.0992605 2.100955 -0.17008598 0.02553781 -1.6030772 1.0176331 1.6098031 -0.026515616
-1.3841327 -0.1436672 0.0004215266 0.029068014 -0.099501215 -2.0225754 2.0017116 -0.35999075
-0.042261396 -0.026373718 -0.048521336 -1.7538654 -0.12950243 0.05535069 -0.038201433 0.015740125
0.028485231 1.2864399 -0.056171875 -0.3311275 -0.07092706 -0.09236923 -0.032215875 0.08414547
-1.8534966 -0.5451061 -0.05183583 -0.029062254 0.010807876 -0.27924865 -0.02721139 0.011588169
-0.02126731 0.565201 0.8866122 0.08778582 1.3305334 3.1327815 0.04359129 0.019017661
2.934264 -0.03454363 -1.398864 0.03172992 0.030400747 0.08298842 -0.03323443 -0.36654863
