HAC-Baseline/preTrained/MountainCarContinuous-h-v1/2level/HAC_MountainCarContinuous-h-v1_solved_level_1_actor.pth (torch, 20439 bytes, 6 tensors)

actor.0.weight f4 [64, 4]
0.18072794 -3.571684 0.5726933 -0.10995424 0.38744208 4.163014 0.3133018 -1.0370727
0.12806404 -3.3388228 -0.6735123 -1.0593616 0.6339533 -1.4588215 0.47042894 0.72802764
-0.17922068 -0.30489892 0.37859786 0.31478578 0.46153924 -2.1827123 0.23182198 0.9077714
-0.30646208 -0.8208554 -0.33195332 -0.72540736 0.46521163 0.25048006 0.19600719 -0.09680718
1.7597693 0.8900739 0.19399372 -0.44374406 -0.36691594 4.253795 -0.6367214 -0.9171538
0.13797975 -4.854063 0.03130934 0.15505296 -0.23274902 -4.110957 0.43017226 -0.0897996
-0.1925312 -1.1268017 0.29767457 -0.68362814 -0.27506813 -0.14527985 -0.6761951 -1.313201
0.3621511 0.25912207 0.07133722 0.39290905 0.25737864 -2.1727483 -0.29828355 -0.050345547
-0.78002703 -3.4690797 -0.4871345 0.29926756 -0.018853072 -2.37259 -0.80711067 -0.31651592
1.7225498 3.5500376 0.2743433 -0.017303592 0.7138397 5.159844 0.4441924 -0.8584249
0.1969924 0.92325526 -0.7754738 -1.1868113 0.7080344 2.9640782 0.3635681 -0.79618573
0.03768462 -5.904992 -0.23013288 -0.13566792 0.23856941 -0.3545256 -0.7152035 1.2977419
0.24934526 2.7610736 0.27663738 -0.1392442 1.0227119 1.7376572 0.1357023 -0.2804767
-0.49181205 0.81028056 0.1056882 -1.3826435 -0.90116805 -0.9460462 -0.53241724 0.4292855
0.8980309 0.3308662 -0.22588062 -0.96193874 0.1638425 0.36981535 0.19049025 0.027631998
-0.081162125 3.748724 0.055683948 -0.8345568 0.0030098436 0.064217165 -0.902636 -0.21873637
-0.02040953 4.2524714 -0.3736717 0.4512911 0.18145013 -5.2555294 0.069565944 0.047917917
0.76219785 3.7963655 0.23548943 -0.44785357 0.059824884 0.46253163 0.44193935 0.36958575
0.40224233 -4.8524776 0.24752715 0.26671028 0.20453715 0.42750788 0.26342338 -0.25741893
-0.17278105 -4.0786157 0.46004242 -0.20446798 0.16677684 0.12559474 -0.21903318 0.26682526
0.17479092 3.6294746 0.33870727 -0.5021813 0.39330223 -2.4945083 -0.7250749 -0.13795404
-0.013765329 0.12218306 -0.68321764 0.5032869 -0.062193334 -0.12799776 -0.0058680177 -0.44820356
0.0067001535 0.05034767 -0.5497781 -0.26501042 0.6771779 -1.5433944 -0.29412904 0.6670738
-0.68615115 2.687928 -0.95252776 0.013309578 -8.002329e-05 -0.21060607 -0.066869535 -0.24361423
0.5546421 0.43608746 0.41993433 -0.22657822 -0.27959082 -2.4907665 -0.69156265 -0.17468262
-0.06210637 -0.24868065 0.47718 -0.20890671 0.17219226 -5.838344 0.19274114 0.47530845
0.21298201 4.9699144 0.14384407 -0.49167797 -0.69419724 1.0063155 -0.012124276 -0.45349392
0.033081472 -0.42431146 -0.17824864 -0.43153614 0.34783214 -2.601132 -0.15737316 0.42998654
-0.89057136 2.6364653 -1.6135051 0.61453927 0.34766906 0.6349072 -0.6981672 0.46917528
0.09590382 3.684277 -0.23397411 -0.028373903 -0.15262341 0.46646917 -0.19473135 -0.33263612
0.20309074 3.1954114 0.22878252 0.36539516 0.39708698 2.5026484 0.15446205 -0.54211485
0.6701475 -1.5202097 0.33986676 0.16864647 0.31590143 -5.5821023 -0.08588534 -0.011716362
00000000: bf10 393e 7896 64c0 079c 123f b02f e1bd
00000010: cf5e c63e 6937 8540 1869 a03e ccbe 84bf
00000020: 3823 033e 46af 55c0 4d6b 2cbf 2999 87bf
00000030: c34a 223f aaba babf 10dc f03e 0560 3a3f
00000040: a085 37be b61b 9cbe 94d7 c13e 9a2b a13e
00000050: df4e ec3e 8fb1 0bc0 be62 6d3e b563 683f
00000060: 99e8 9cbe 9423 52bf c9f5 a9be 4cb4 39bf
00000070: 3830 ee3e ec3e 803e 1cb6 483e d842 c6bd
00000080: 1f40 e13f e2db 633f 4aa6 463e 6c32 e3be
00000090: 68dc bbbe 171f 8840 2c00 23bf 97ca 6abf
000000a0: 904a 0d3e 7c54 9bc0 393e 003d 34c6 1e3e
000000b0: c255 6ebe f68c 83c0 8a3f dc3e dae8 b7bd
000000c0: e626 45be 0a3b 90bf cd68 983e 4102 2fbf
000000d0: bbd5 8cbe 3ec4 14be 1f1b 2dbf f816 a8bf
000000e0: de6b b93e a6ab 843e 4019 923d 602b c93e
000000f0: 22c7 833e 4f0e 0bc0 9fb8 98be 2237 4ebd
00000100: daaf 47bf 6705 5ec0 b169 f9be 9939 993e
00000110: c271 9abc 84d8 17c0 ce9e 4ebf 600e a2be
00000120: 837c dc3f d133 6340 ba76 8c3e 43c0 8dbc
00000130: 33be 363f 711d a540 306d e33e bcc1 5bbf
00000140: 60b8 493e 755a 6c3f 7385 46bf 6fe9 97bf
00000150: be41 353f 75b3 3d40 9925 ba3e d4d2 4bbf
00000160: 305b 1a3d b2f5 bcc0 f4a7 6bbe 88ec 0abe
00000170: 8a4b 743e 6184 b5be 9417 37bf 681c a63f
00000180: 5d54 7f3e 6eb5 3040 6aa3 8d3e 0896 0ebe
00000190: 39e8 823f 8d6b de3f 8bf5 0a3e a49a 8fbe
000001a0: cace fbbe 8c6e 4f3f 0e73 d83d 76fa b0bf
000001b0: f3b2 66bf 1530 72bf 7f4c 08bf 4fcb db3e
000001c0: 5ae5 653f 4b67 a93e 404d 67be 9e41 76bf
000001d0: 54c6 273e 7058 bd3e e00f 433e 805c e23c
000001e0: 5438 a6bd 18eb 6f40 da14 643d 84a5 55bf
000001f0: cc40 453b 4a84 833d 2713 67bf 6dfc 5fbe
00000200: e331 a7bc 3f14 8840 e651 bfbe a10f e73e
00000210: 10ce 393e 4c2d a8c0 9778 8e3d 9445 443d
00000220: 661f 433f a7f7 7240 2424 713e 104d e5be
00000230: f00a 753d f2d0 ec3e e045 e23e 583a bd3e
00000240: b5f2 cd3e 7f47 9bc0 c277 7d3e 408e 883e
00000250: 3072 513e 50e2 da3e 6edf 863e 6acc 83be
00000260: 84ed 30be 0584 82c0 ae8a eb3e 0e60 51be
00000270: 8cc7 2a3e e89b 003e 3c4a 60be 529d 883e
00000280: 64fc 323e 5049 6840 0a6b ad3e f48e 00bf
00000290: e95e c93e 06a6 1fc0 829e 39bf d343 0dbe
000002a0: f987 61bc 1d3b fa3d 5ae7 2ebf 69d7 003f
000002b0: 70be 7ebd d811 03be 8048 c0bb f07a e5be
000002c0: f68c db3b 5c39 4e3d 42be 0cbf 72af 87be
000002d0: 885b 2d3f f38d c5bf 1598 96be 59c5 2a3f
000002e0: 9aa7 2fbf 0307 2c40 dcd8 73bf 6b10 5a3c
000002f0: 2dd2 a7b8 1ea9 57be e5f2 88bd 0276 79be
00000300: 06fd 0d3f db46 df3e a201 d73e 1f04 68be
00000310: 8726 8fbe b868 1fc0 400a 31bf 00e0 32be
00000320: 4063 7ebd 24a6 7ebe f050 f43e a4eb 55be
00000330: 2b53 303e b7d3 bac0 ef5d 453e a15b f33e
00000340: f517 5a3e 8a09 9f40 dc4b 133e 37bd fbbe
00000350: e9b6 31bf f2ce 803f e6a4 46bc 5b30 e8be
00000360: 7080 073d 5a3f d9be d086 36be 4ef2 dcbe
00000370: 0e17 b23e f278 26c0 6e26 21be 3227 dc3e
00000380: 7cfc 63bf d9bb 2840 5687 cebf 7252 1d3f
00000390: ae01 b23e 4789 223f 16bb 32bf be37 f03e
000003a0: 3969 c43d 32cb 6b40 e996 6fbe 6370 e8bc
000003b0: 5049 1cbe 0cd5 ee3e a867 47be 484f aabe
000003c0: 05f7 4f3e 9f81 4c40 f745 6a3e 1315 bb3e
000003d0: fc4e cb3e 642b 2040 4d2b 1e3e 0ac8 0abf
000003e0: c98e 2b3f 3b96 c2bf 0403 ae3e a9b1 2c3e
000003f0: d5bd a13e 95a0 b2c0 a7e4 afbd fcf5 3fbc

actor.0.bias f4 [64]
-0.06734283 -0.015120199 0.33635265 0.21503013 -0.45965165 0.09177453 0.02495122 -0.48939586
0.023820959 0.17159496 -0.04297633 -0.35932586 -0.46569034 -0.7636723 -0.28391802 0.36017117
-0.34619763 0.23861235 0.03066586 0.16021451 -0.01736833 0.11424236 0.124331675 -0.24905804
0.10355709 0.17897359 -0.33038136 -0.31674537 0.66916484 -0.42761797 -0.1002143 -0.09654074
0.27637 -0.02182757 0.33154568 -0.43278247 0.15257451 -0.46471983 -0.072951175 -0.4254412
0.093300715 0.31268322 -0.63306963 -0.48066878 -0.60397613 0.6159953 -0.4931073 -0.09844882
0.262927 -0.15763493 -0.32398367 -0.10905662 -0.06206558 -0.46084267 -0.40346694 0.36223206
-0.37772718 -0.3065816 0.066088796 -0.44118106 0.043610178 0.23748338 0.32681578 0.15563947
00000000: 0aeb 89bd b6ba 77bc 6a36 ac3e dc30 5c3e
00000010: 7657 ebbe 49f4 bb3d 8066 cc3c 1892 fabe
00000020: 2c24 c33c 97b6 2f3e f307 30bd 8ff9 b7be
00000030: f76e eebe 0780 43bf b45d 91be 5b68 b83e
00000040: d140 b1be cc56 743e f836 fb3c 460f 243e
00000050: 0748 8ebc e6f7 e93d 9ba1 fe3d 1209 7fbe
00000060: bd15 d43d da44 373e bf27 a9be 732c a2be
00000070: 634e 2b3f bef0 dabe 283d cdbd 27b7 c5bd
00000080: 5e80 8d3e bbcf b2bc 5bc0 a93e aa95 ddbe
00000090: 7e3c 1c3e c2ef edbe 6d67 95bd 6ed3 d9be
000000a0: 7214 bf3d 0418 a03e da10 22bf 381a f6be
000000b0: 2e9e 1abf deb1 1d3f 8f78 fcbe 899f c9bd
000000c0: 5e9e 863e 0d6b 21be 30e1 a5be 1459 dfbd
000000d0: 7a38 7ebd 92f3 ebbe 3893 cebe 7b76 b93e
000000e0: 7565 c1be 43f8 9cbe 9059 873d 7ce2 e1be
000000f0: 96a0 323d d82e 733e 6654 a73e f45f 1f3e

actor.2.weight f4 [64, 64]
-0.12943213 0.042184815 0.045796514 0.109749615 0.07346457 0.066233166 -0.088275515 0.08485019
-0.077086054 -0.058974933 -0.13868387 -0.06744012 0.107089266 -0.13088208 0.10724491 -0.057493158
0.00074486417 -0.021833114 0.06782542 -0.11528662 0.018009115 -0.031162256 -0.004074023 0.011487701
-0.08433859 0.06321531 -0.10662907 -0.123321116 0.013288042 -0.019462287 -0.07599509 -0.07244748
-0.07574847 -0.024298035 -0.06487162 -0.08728887 0.028803693 0.026570559 -0.07460703 -0.07889539
0.08721516 -0.06971012 -0.04840621 -0.11053328 0.050043844 -0.040916435 0.009857489 0.064863585
-0.029975506 -0.006245026 0.008087084 0.0055251904 0.021174118 -0.13586499 -0.012762263 -0.054781996
0.05870445 -0.068821214 0.048612673 -0.10802616 0.08091633 -0.06658778 -0.14843084 -0.15762794
0.07207519 0.09478776 -0.108570874 0.062170643 0.059396446 -0.10153626 0.020120114 0.10247536
-0.06445492 -0.016757987 0.04795221 0.054849893 -0.0029586027 -0.05485834 -0.037279844 -0.10468049
-0.1470268 0.005482257 -0.09429246 -0.07693085 -0.036683097 -0.008966125 0.028042765 -0.12087807
-0.07401938 -0.08171953 -0.020842295 -0.019625828 -0.012780877 -0.074984774 0.037553962 -0.006546438
0.07365803 -0.15715721 -0.08364586 -0.051083326 -0.112484656 0.060837656 -0.019593475 0.011118621
0.04440034 -0.025482029 0.09534347 -0.08658418 -0.10256828 -0.04746371 0.09263523 0.05851294
-0.026620291 0.06738096 -0.00974372 -0.18302467 -0.01085022 0.006679776 0.12077275 -0.03803894
0.021701084 -0.12269069 0.012450471 0.12341006 0.047403924 0.04091837 0.040067423 -0.12841545
0.028018214 0.030680737 -0.051375307 -0.018769557 0.12437487 -0.031721026 -0.00033977887 -0.041072324
0.08211789 0.04476225 0.016296579 0.06640211 0.01520276 -0.023286536 -0.039232314 0.022038966
-0.16414501 -0.13497709 -0.052610476 0.05669599 0.08414508 0.054784115 -0.13580689 0.04916729
-0.08292924 0.048498258 -0.09457127 -0.11911227 0.040316865 0.10967426 -0.10626649 -0.10047165
-0.10344271 0.0057379575 -0.043639246 0.005421087 -0.087080896 0.10333878 -0.099585086 0.034398943
-0.16012074 0.064985305 -0.10708355 -0.08873744 0.006499955 -0.070373476 -0.0962699 -0.12496308
0.02212878 0.057654187 0.11624572 -0.064715475 -0.0072306953 -0.065351866 0.07013498 -0.030478667
0.014833257 0.049520317 -0.083103776 -0.12260848 -0.077126734 -0.15630697 -0.14634277 -0.109223224
-1.7809817 0.24847709 -0.37591752 0.25583494 0.049887136 -0.07039747 -0.22490337 0.023088172
0.37725484 0.702154 -2.0082328 -0.6280981 -0.010736605 -0.124947354 0.06529124 -0.47537887
-0.32432058 -0.21842557 1.1985098 0.84561527 -0.1314506 0.4506955 -1.495251 0.2941153
0.25690764 0.2065776 0.22123386 -0.9486759 -0.03672139 0.09719895 0.69981694 -0.7779634
0.45907044 -0.014362641 0.3216175 0.10171044 -0.054681715 0.07371791 -3.5108044 0.028137177
0.53127486 0.6988798 0.07747233 0.09138213 0.50592965 -0.6852842 -0.016950812 0.1318253
0.007750934 -0.2491406 0.05144097 -1.0066919 0.63935953 -0.024147023 -0.002002865 -1.3845121
-0.6502167 0.51946986 0.4283843 0.074668884 0.3147629 0.38658464 -0.25970367 -1.2144365
00000000: db89 04be fcc9 2c3d 2095 3b3d 68c4 e03d
00000010: 9874 963d 41a5 873d cbc9 b4bd f0c5 ad3d
00000020: 4bdf 9dbd b38f 71bd 2503 0ebe 0c1e 8abd
00000030: 9e51 db3d f405 06be 38a3 db3d f27d 6bbd
00000040: fd42 433a 5cdb b2bc 0ee8 8a3d 641b ecbd
00000050: da87 933c fd47 ffbc 627f 85bb e936 3c3c
00000060: b6b9 acbd 0777 813d 5860 dabd c88f fcbd
00000070: 16b6 593c 606f 9fbc 50a3 9bbd 585f 94bd
00000080: 0422 9bbd ac0c c7bc 69db 84bd 82c4 b2bd
00000090: b9f5 eb3c 80aa d93c 92cb 98bd e893 a1bd
000000a0: dd9d b23d 2ec4 8ebd 9745 46bd 465f e2bd
000000b0: c6fa 4c3d fe97 27bd 4e81 213c 33d7 843d
000000c0: 318f f5bc 13a3 ccbb b07f 043c a80c b53b
000000d0: 5875 ad3c 3120 0bbe d018 51bc 1663 60bd
000000e0: 1474 703d 23f2 8cbd 151e 473d d23c ddbd
000000f0: 76b7 a53d 2d5f 88bd 41fe 17be 3869 21be
00000100: 289c 933d 1620 c23d 685a debd a5a6 7e3d
00000110: b049 733d 3ef2 cfbd f0d2 a43c 9ade d13d
00000120: f100 84bd 0c48 89bc 8969 443d 48aa 603d
00000130: 1ee5 41bb 24b3 60bd c0b2 18bd ba62 d6bd
00000140: 328e 16be 81a4 b33b 681c c1bd ec8d 9dbd
00000150: 0441 16bd a7e6 12bc f1b9 e53c ec8e f7bd
00000160: 7997 97bd 925c a7bd 76bd aabc 58c6 a0bc
00000170: e266 51bc 9e91 99bd 2fd2 193d 8183 d6bb
00000180: 05da 963d d2ed 20be 854e abbd c03c 51bd
00000190: 5b5e e6bd e830 793d 7f82 a0bc e02a 363c
000001a0: 22dd 353d b0bf d0bc 7043 c33d 0c53 b1bd
000001b0: 520f d2bd 4f69 42bd 8ab7 bd3d 44ab 6f3d
000001c0: cc12 dabc 07ff 893d 20a4 1fbc d26a 3bbe
000001d0: 1fc5 31bc 06e2 da3b b457 f73d b8ce 1bbd
000001e0: 79c6 b13c 4245 fbbd 0ffd 4b3c 6abe fc3d
000001f0: 9e2a 423d 059a 273d bd1d 243d 577f 03be
00000200: 7486 e53c 2b56 fb3c ea6e 52bd 9dc2 99bc
00000210: 40b8 fe3d e8ed 01bd 5924 b2b9 743b 28bd
00000220: 6d2d a83d 9f58 373d 6780 853c d4fd 873d
00000230: ff14 793c 68c3 bebc 10b2 20bd 108b b43c
00000240: a115 28be 6f37 0abe 157e 57bd 0e3a 683d
00000250: 4154 ac3d 4f65 603d f610 0bbe a463 493d
00000260: ced6 a9bd 1ca6 463d 95ae c1bd 22f1 f3bd
00000270: 4c23 253d e69c e03d 3fa2 d9bd 15c4 cdbd
00000280: c6d9 d3bd 7a05 bc3b 11bf 32bd 60a3 b13b
00000290: 7857 b2bd 48a3 d33d 44f3 cbbd e8e5 0c3d
000002a0: b1f6 23be 0417 853d 9f4e dbbd fabb b5bd
000002b0: 93fd d43b f81f 90bd 2729 c5bd a5ec ffbd
000002c0: 6a47 b53c cc26 6c3d 3c12 ee3d 8c89 84bd
000002d0: 78ef ecbb 33d7 85bd eea2 8f3d 66ae f9bc
000002e0: 3007 733c d1d5 4a3d 5032 aabd 281a fbbd
000002f0: 9ff4 9dbd ef0e 20be e1da 15be 6db0 dfbd
00000300: 35f7 e3bf c770 7e3e 4378 c0be ccfc 823e
00000310: 7456 4c3d 8c2c 90bd 124d 66be 6823 bd3c
00000320: 8c27 c13e 5dc0 333f e386 00c0 09cb 20bf
00000330: 96e8 2fbc 66e4 ffbd 6ab7 853d dc64 f3be
00000340: 590d a6be f4aa 5fbe c568 993f 3e7a 583f
00000350: fc9a 06be 90c1 e63e 6364 bfbf 4896 963e
00000360: 6689 833e 1489 533e 218b 623e 6cdc 72bf
00000370: 2b69 16bd 3e10 c73d 3427 333f 9c28 47bf
00000380: 480b eb3e 4851 6bbc 0dab a43e 904d d03d
00000390: eff9 5fbd 6af9 963d 05b1 60c0 f07f e63c
000003a0: a101 083f c9e9 323f d0a9 9e3d 8e26 bb3d
000003b0: 9b84 013f c96e 2fbf 6edc 8abc 36fd 063e
000003c0: 8cfb fd3b b71e 7fbe c4b3 523d 48db 80bf
000003d0: 11ad 233f facf c5bc 8042 03bb b137 b1bf
000003e0: 9a74 26bf fafb 043f 3055 db3e 00ec 983d
000003f0: 9a28 a13e 6cee c53e e1f7 84be a872 9bbf

actor.2.bias f4 [64]
-0.1555533 -0.1711833 -0.019912655 -0.1272249 -0.16455227 0.0046546822 -0.031129211 -0.016811047
-0.11185569 -0.09013959 -0.051456407 0.18540718 0.14384532 -0.08718523 -0.091450624 -0.6059238
-0.105782665 0.118174694 0.06356561 0.013557397 0.067248695 -0.034089323 -0.120412566 0.12313817
0.008454737 -0.08719488 0.1678996 -0.034516174 0.0069304192 0.05095853 -0.028405456 -0.03343823
-0.14376333 0.026113397 -0.08428845 -0.059521355 0.06663112 -0.0985935 -0.02508745 -0.12460509
-0.046093818 -0.051848892 0.069939665 -0.220394 -0.118517034 -0.044924162 -0.22616531 -0.009001929
-0.014456683 -0.10476284 -0.44269815 -0.09712964 0.0012196918 -0.1385439 -0.10646775 0.3025008
-0.068892285 0.26826558 0.00060794136 0.009567135 -0.06146139 -0.12467963 -0.36426663 -0.02880947
00000000: 5d49 1fbe ad4a 2fbe dd1f a3bc 3f47 02be
00000010: 6480 28be 4e86 983b b002 ffbc 52b7 89bc
00000020: 9914 e5bd 1b9b b8bd f4c3 52bd 61db 3d3e
00000030: 304c 133e 2b8e b2bd 774a bbbd d21d 1bbf
00000040: 95a4 d8bd 9305 f23d b02e 823d d81f 5e3c
00000050: afb9 893d 3fa1 0bbd dd9a f6bd dd2f fc3d
00000060: bd85 0a3c 3b93 b2bd dfed 2b3e d560 0dbd
00000070: 9218 e33b e4b9 503d 8fb2 e8bc 87f6 08bd
00000080: b236 13be c3eb d53c 6c9f acbd aacc 73bd
00000090: e675 883d 64eb c9bd 3284 cdbc f430 ffbd
000000a0: dfcc 3cbd 815f 54bd 873c 8f3d f7ae 61be
000000b0: 0fb9 f2bd 6602 38bd e197 67be d47c 13bc
000000c0: b9db 6cbc e68d d6bd 55a9 e2be e8eb c6bd
000000d0: 11de 9f3a 74de 0dbe c40b dabd 63e1 9a3e
000000e0: 6617 8dbd 1b5a 893e 415e 1f3a 79bf 1c3c
000000f0: f0be 7bbd 0958 ffbd 2881 babe d601 ecbc

actor.4.weight f4 [2, 64]
0.07892854 -0.001736661 -0.04658469 1.2953863 -1.709456 0.011713116 0.24042682 0.036735456
0.029718706 0.1253875 -0.028430205 -0.68037254 0.1949778 -0.059069715 -0.052695252 -0.36974052
-0.07771204 0.35720304 0.10505879 -0.06083697 -0.07709173 0.04506488 0.10187848 0.15495767
0.016166795 0.09552031 1.4545422 0.020338431 -0.054066096 0.18535686 0.47859564 0.07231284
-0.2599929 -0.27291614 -0.06321624 0.0136550525 0.1259225 -0.06378783 -0.061695777 0.0072761914
0.0051679728 0.0069627604 0.07330462 -0.16356744 -0.10030172 -0.064124234 -0.07130831 -0.01492163
-0.03396427 -0.028801678 -0.34927619 0.014740632 0.02449213 0.03023117 -5.477862 -0.2545185
-0.013716862 -0.2567202 -0.0056463582 -0.04626545 -0.08251378 0.006854254 0.108735755 -0.08458462
-0.011840241 0.1481836 -0.041966468 0.7142065 -1.8007358 0.007875672 0.019566296 -0.13522615
-0.046881255 -0.016568227 -0.23464304 -0.7335875 -0.10551012 -0.043071516 -0.08604753 0.72173023
-0.1751658 0.20855556 0.006645232 -0.039983794 0.0978624 -0.11493093 -0.09618684 0.11807649
0.08684524 0.0020220515 1.2723384 -0.09533543 -0.074107155 -0.32328185 1.4384048 0.026326364
-0.043357853 0.2781456 -0.12783204 -0.08719721 -0.35980025 0.05530137 -0.1884357 0.062676944
0.384244 -0.019293172 0.070270166 0.22448985 -0.0010540457 -0.1746807 1.2439789 -0.0817209
-0.16819946 0.36308303 1.7470534 -0.025713848 -0.114621565 -0.076135725 0.13427407 0.0719446
0.08335039 0.09201796 0.05034819 0.07808649 0.03562169 -0.003009224 1.0176003 -0.060665168
00000000: 49a5 a13d aca0 e3ba 97cf 3ebd 38cf a53f
00000010: 74cf dabf 5fe8 3f3c 7332 763e eb77 163d
00000020: a574 f33c 9565 003e 76e6 e8bc e52c 2ebf
00000030: 43a8 473e 16f3 71bd fad6 57bd a14e bdbe
00000040: 7d27 9fbd 51e3 b63e 1029 d73d 3030 79bd
00000050: 45e2 9dbd f495 383d aaa5 d03d 39ad 1e3e
00000060: 3a70 843c 27a0 c33d 702e ba3f c89c a63c
00000070: 6974 5dbd 30ce 3d3e 7d0a f53e c118 943d
00000080: ca1d 85be aabb 8bbe 8477 81bd 71b9 5f3c
00000090: d4f1 003e 32a3 82bd b6b4 7cbd 1e6d ee3b
000000a0: 1958 a93b de27 e43b bc20 963d 397e 27be
000000b0: fd6a cdbd 9153 83bd 170a 92bd da79 74bc
000000c0: 1e1e 0bbd 7ff1 ebbc 54d4 b2be b182 713c
000000d0: b8a3 c83c 5ca7 f73c a54a afc0 4050 82be
000000e0: b0bc 60bc d470 83be 1605 b9bb d780 3dbd
000000f0: fcfc a8bd a699 e03b dab0 de3d b43a adbd
00000100: 92fd 41bc 71bd 173e 08e5 2bbd 3dd6 363f
00000110: 837e e6bf f608 013c 7f49 a03c b978 0abe
00000120: 8f06 40bd 17ba 87bc 4446 70be 64cc 3bbf
00000130: b115 d8bd c26b 30bd b039 b0bd 50c3 383f
00000140: aa5e 33be 978f 553e 3fc0 d93b 0cc6 23bd
00000150: 156c c83d e860 ebbd 9bfd c4bd 16d2 f13d
00000160: ebdb b13d 6584 043b fcdb a23f 393f c3bd
00000170: 7ec5 97bd 3385 a5be a61d b83f 63aa d73c
00000180: 0198 31bd 1a69 8e3e 67e6 02be 7394 b2bd
00000190: bd37 b8be b083 623d 4af5 40be c55c 803d
000001a0: a1bb c43e b70c 9ebc cee9 8f3d abe0 653e
000001b0: e827 8aba 7fdf 32be b33a 9f3f 4a5d a7bd
000001c0: 7b3c 2cbe 05e6 b93e 729f df3f d9a5 d2bc
000001d0: b6be eabd 0ced 9bbd 247f 093e b157 933d
000001e0: 9cb3 aa3d ea73 bc3d e739 4e3d cfeb 9f3d
000001f0: 0de8 113d 6736 45bb ba40 823f 0a7c 78bd

actor.4.bias f4 [2]
-0.12697628 0.1615986
00000000: 1206 02be 1a7a 253e
