HAC-Baseline/preTrained/MountainCarContinuous-h-v1/2level/HAC_MountainCarContinuous-h-v1_normal_async_solved_level_1_actor.pth (torch, 20439 bytes, 6 tensors)

actor.0.weight f4 [64, 4]
00000000: 580c 393e cc4c a13e 4ece ff3e 7ece 853e
00000010: bf19 0ebf 8376 34bf 9d8c e5be 7826 88be
00000020: 20ac c23e 3ff9 2d40 a26e 74be f391 c43d
00000030: 581d 21bf 1bad 3abf 3238 14bf 9939 743f
00000040: a68d 5ebe 3051 16be 9589 533e f830 ce3e
00000050: 00f3 14bd b047 563e 0239 ea3e d00a d0be
00000060: e925 743f b6de 81c0 aa47 59be 4aee 8f3e
00000070: d174 903e b81a 183e 316a adbe 3127 893e
00000080: 7255 d73e 88b1 423e 786d 8cbd 94fc c43e
00000090: 21da 61bd 8eb8 bebf 5206 a33e 8c18 d43c
000000a0: e0c2 4ebd aa6d eb3e 74ce 863e ec6e 7a3e
000000b0: ba7a f23e c54e 1a40 0017 453f e203 c43e
000000c0: f008 413d fea2 c83e ae91 893e 60ca 7bbe
000000d0: e42f ba3e 19e0 1740 bbb7 fdbc 191f e53c
000000e0: 8c7e 273e d579 1fc0 fff5 d13e 0bdb 8f3d
000000f0: c0fb a63e 7c69 15c0 cbb1 fa3e ea14 17bf
00000100: 5f9d fc3d 28c7 0ac0 a3b2 fa3d 1a21 2b3e
00000110: f880 eb3e c99f 88be 4a92 46bc 211f 43bd
00000120: 5209 823f f5c9 80c0 a0c5 143f 0bc3 cabe
00000130: 9e97 26bd 0fc3 333a 86ba 16bf 6231 66be
00000140: 78b8 17bf 6528 9ebf 1b0a b9be b188 92bc
00000150: 9847 a73e f4f7 e2be 6036 48bd 127c f63e
00000160: fd8f 8c3d 5f27 bd3f 00d3 563e edc9 06be
00000170: 2162 5d3e 98a7 dcbf 4114 f03e 4bfa ffbe
00000180: d7b0 eb3e 351d 1fc0 780d ee3e 72eb 3bbe
00000190: b4f3 97be 6944 a0c0 ddca e0bd 0422 793e
000001a0: 5c98 d23d 1952 15c0 4d7b f63e bba1 8bbe
000001b0: c549 143f b398 7540 0736 e3be d852 18bd
000001c0: 2681 033e fc26 a0c0 31eb 18bf 3fa8 f33e
000001d0: a4e2 9b3e bfaf 9040 8530 d2be 148e 3a3c
000001e0: 704b 563d 68e2 38be 3032 06bd a033 613d
000001f0: ef4e 073f a2a7 45bf 7c2c c6be 71de 83be
00000200: 15e7 a2be 0326 63be 2a27 853e 2586 f13d
00000210: 20ee 583e c066 763d 0020 1cbc c8ea e7be
00000220: c6b1 333f ad46 e73e 8126 0f3e a14a 483c
00000230: 747f 683d c07f 1240 5313 053e ecb9 ef3d
00000240: 89c0 52be e8c0 833e 5540 4d3e 58ec e6be
00000250: 8350 5f3e 2096 f3bf 657e 803c 77e5 843d
00000260: 1f14 87be c061 3dbf 4f6b 46bf 319a 53bf
00000270: be94 7ebe 31a7 78c0 33e3 06bf ee3f 01be
00000280: 80ee aa3c 40ff a73e 78ea 86bd 7cd4 b73e
00000290: 3505 4b3e 62cd 03c0 db23 043f cd8a 3f3b
000002a0: f6cc 6d3e d33a ddbe 12fe d53e 8d03 0dbf
000002b0: 1bc1 37be 24d1 90c0 f48a 17be 09ea 023f
000002c0: 980b d43d a452 dcbe 7a2b f73e c444 f03e
000002d0: cc81 7c3e e6c5 fabe 7c03 8f3e bc15 123e
000002e0: 4030 7dbd 8875 d6be 3ce3 d83e 880e 19be
000002f0: db6b a1be 183b fa3f 5b61 4c3e 1b4e 113d
00000300: 81a9 6c3e 8ac6 d23f 109a 30be a27f 51be
00000310: 074b 013f 303a f73f f7c9 0cbf d477 8fbe
00000320: 95b6 7abe ff1d 943f 55ff f53d 7505 793e
00000330: 93c6 9f3e 8172 c23f a2f5 bebe 127b 173f
00000340: f750 283e 0606 20be 608b f8be c570 61be
00000350: 60aa 11be c23e bb3e e07a f03c 64a8 72be
00000360: 7c85 0e3e 88b2 b1be 7c9e 183e fec9 ae3e
00000370: 74f3 783e 34e2 1bbe 4034 2ebe 306c 553e
00000380: 7134 873e aaf3 dc3f facf f23d f854 1f3e
00000390: 477a 093f fdf3 5140 162e a6bf 9726 213f
000003a0: be44 bebe 9d3b f4bf 5f5c 8a3e 8062 1abe
000003b0: bf2f 5dbd fd60 9b3f 00d1 e7bd 9b4e 8abe
000003c0: 8fc8 d73d 9cc2 983f 47c9 46be 4f6d a0be
000003d0: 73e6 863e 21a3 1bc0 571f 213f 8f02 b4be
000003e0: a0f9 8f3e 80ac c63c 9ae7 873e 0096 0f3c
000003f0: c42d b03c 0273 ec3f 3253 04bf 831a 743e
0.18071115 0.31503904 0.49962085 0.26134104 -0.55508035 -0.70493335 -0.44833842 -0.2659185
0.38021946 2.7183378 -0.23870328 0.0959815 -0.629354 -0.7292039 -0.5789825 0.9540039
-0.21733722 -0.14679408 0.20657952 0.40271735 -0.036364555 0.20925784 0.45746619 -0.4063325
0.95370346 -4.0584364 -0.21218744 0.28111488 0.28214124 0.14853942 -0.3387008 0.26787713
0.42057377 0.19013035 -0.06856817 0.38473952 -0.055139665 -1.4900072 0.3184076 0.025890611
-0.050478816 0.45982105 0.26329386 0.24456376 0.47359258 2.4110577 0.7698822 0.38284212
0.047127664 0.39186853 0.26868957 -0.24588919 0.36364663 2.3730528 -0.030971399 0.02796893
0.16356868 -2.491811 0.41007993 0.07024201 0.32613945 -2.3345633 0.4896377 -0.5901629
0.12334704 -2.1684055 0.122411035 0.16711846 0.45996833 -0.26684406 -0.012119839 -0.04763711
1.0159094 -4.024653 0.5811405 -0.3960193 -0.040671937 0.0006857374 -0.5887836 -0.22479776
-0.5926585 -1.2356077 -0.36140522 -0.017887445 0.3267181 -0.44329798 -0.04887998 0.48141533
0.06863401 1.477764 0.20978928 -0.13162966 0.21619464 -1.7238646 0.46890453 -0.49995646
0.46033356 -2.4861577 0.4649465 -0.18351534 -0.29678118 -5.008351 -0.10976193 0.24329382
0.102829665 -2.3331358 0.48140946 -0.27271828 0.57925063 3.837445 -0.44377157 -0.03718838
0.12842235 -5.004759 -0.59733874 0.475893 0.3044635 4.5214534 -0.41052642 0.011386413
0.052318037 -0.18055117 -0.032762706 0.054980874 0.5285482 -0.7720891 -0.38705814 -0.25755647
-0.31816927 -0.22182469 0.26006442 0.11793164 0.21184587 0.060156584 -0.009529114 -0.4529631
0.70193136 0.4517111 0.13979532 0.012224824 0.056762174 2.2890472 0.12995653 0.11705384
-0.20581259 0.25733113 0.20044072 -0.4510219 0.21808057 -1.903019 0.01568527 0.064890794
-0.2638254 -0.7397728 -0.7750749 -0.8265715 -0.24861428 -3.8852046 -0.5269043 -0.12622043
0.020865679 0.32811928 -0.0658769 0.359043 0.19826205 -2.0594106 0.5161721 0.0029227019
0.23222718 -0.43208942 0.41795403 -0.55083543 -0.17944758 -4.52553 -0.147991 0.5113836
0.10353774 -0.430318 0.48275357 0.46927464 0.24658889 -0.4897911 0.27932346 0.14266104
-0.061813593 -0.41886544 0.42360866 -0.1494695 -0.315276 1.9549284 0.19959013 0.035474878
0.23111536 1.6466839 -0.1724627 -0.20458844 0.5050511 1.9314632 -0.54995674 -0.2802111
-0.24483712 1.1571654 0.12011591 0.24318488 0.31206188 1.5191194 -0.37296778 0.59172165
0.16437136 -0.15627298 -0.48543835 -0.22015674 -0.14225149 0.36571318 0.029355466 -0.23697048
0.13918108 -0.3470652 0.14904207 0.34138483 0.2431162 -0.15223008 -0.1701212 0.20842052
0.26407197 1.726186 0.11856075 0.15559757 0.53702205 3.2805169 -1.2982814 0.6294951
-0.3716182 -1.9080693 0.270236 -0.15076637 -0.054000612 1.2138973 -0.113191605 -0.27013096
0.105363004 1.193439 -0.19412719 -0.31333396 0.26347694 -2.4318316 0.62938446 -0.35158202
0.28120136 0.024252176 0.26543885 0.00876379 0.021506198 1.8472598 -0.51689446 0.23838238

actor.0.bias f4 [64]
00000000: 586b d6be 57a5 37be 8dec b33e cce6 6cbd
00000010: 5122 e2be 3824 bbbe 48b2 113f f81c 05bf
00000020: 0e6b d7be 6166 7fbe 4096 79be 0d58 8ebd
00000030: c08b 7abe 33fb 783e 4da7 9cbd d291 a63d
00000040: 041d 1f3b 0d09 72be 5ea1 7a3e 4aba 40bf
00000050: dda7 b1be 46b9 dcbe 5355 10bd 1297 20bc
00000060: dcba 2c3e 5c1f d83d 9e58 4b3e 41fc 9c3e
00000070: 4322 8f3e 4045 0a3e c4e7 33be 73d9 623e
00000080: 3eb9 09bf b826 c5be 81b1 f2bd 469d 073e
00000090: 1941 b0be 3812 cc3d e551 cabe ba50 c43e
000000a0: f03d e2be 379c 6bbd d0ca a9be 2853 28bd
000000b0: 8209 efbe 5642 edbe d645 f2be d209 cebd
000000c0: e5f6 ba3e 6ad3 da3e 259f 9f3c 3145 b83e
000000d0: d953 22bf 8066 47be bc17 18be 742d efbe
000000e0: f651 653e 5a8f f0bc cbeb 24be 6ca1 213d
000000f0: 570f 743e 5379 643d faa5 a7be 3340 a53e
-0.41878772 -0.17934166 0.3514141 -0.057837293 -0.44166806 -0.3655107 0.5691266 -0.5199733
-0.42073864 -0.24941398 -0.24373722 -0.06950388 -0.24467373 0.24314575 -0.076490976 0.08133282
0.002427877 -0.23636265 0.24475619 -0.75284255 -0.34698382 -0.43110102 -0.03523762 -0.009801643
0.16868156 0.10552856 0.19858024 0.30661204 0.27955827 0.1350298 -0.1756888 0.22153263
-0.5379828 -0.38506103 -0.118502624 0.13243589 -0.34424666 0.099644125 -0.39515606 0.3834284
-0.4418788 -0.057522025 -0.33162546 -0.04109493 -0.4668694 -0.46339673 -0.47318906 -0.10060467
0.3651649 0.4273942 0.019485066 0.3599029 -0.6340919 -0.19472694 -0.14852804 -0.46714365
0.22394547 -0.02936523 -0.16105573 0.039460585 0.23833977 0.055779766 -0.32743818 0.32275543

actor.2.weight f4 [64, 64]
00000000: bcce 4bbd c2d7 b8bf 2503 833e 526d cd3f
00000010: d399 a8bd c0ae f7bd f898 7cbe ec69 2cbf
00000020: 60ee 3dbd ba4a 31bf 3a1e c7bd 4abb c63e
00000030: 50e4 463c ab74 553e ad4e 77be e905 6abe
00000040: 7bde 96be 1f38 d5bd 669a 8c3e a319 39bf
00000050: 20fb 8fbf e0f4 d33d 89a9 a93e 679c 97bd
00000060: 6451 87be 3565 fcc0 0753 51bf bb62 e83f
00000070: f6dc 5a3f 077a 1dc0 4c82 e63d 6fc4 313e
00000080: 5058 bfbd 40cf 023d dc9d e73e 44c2 df3e
00000090: faa4 933d 14ca 38be 5cfd 0cbf d760 9cbf
000000a0: 0eea a3bd 0b34 f7bd fad8 f63d 2b5d 04bf
000000b0: 7cb1 b6bd 8c10 bb3d dc63 543d 01d0 ad3c
000000c0: 40b9 273e 3bfc 883e b3d7 d4bd 2b2a b13e
000000d0: 30a9 3ebf 1c48 38bd 8081 a83d 86a8 e33d
000000e0: fa15 973e 58ce 99bf d374 00c0 705b a03e
000000f0: 6c3a 813e f766 8dbe 2897 a93d f13e be3d
00000100: 308b 01bc 15ed ef3c dd7a 933e 1745 ae3e
00000110: 9439 1c3d aec5 87bd 55c4 f7be 7e76 0fbf
00000120: c8aa 053d c7af 003e 04ce 12bd f627 513e
00000130: ae2f b13d c4f4 7b3e 64ce e7be 3b66 58be
00000140: 85c7 a0be ce9a 8e3c ba1f 4abe ec19 40bf
00000150: b3c8 bbbd f82b f93c 3d59 5d3e fba4 9fbe
00000160: dd9b 01be 3315 a8be b023 5abf b95b 2640
00000170: 0fb8 0c3f 23dd 09c0 c4c4 b43d 2096 f93e
00000180: 34dc a23b 9030 53bd b597 a13e e60c bb3e
00000190: 3d77 d53d e7b1 62be fb8b 19bf 91c1 883c
000001a0: 0035 a33b 9d32 89be 4243 ccbc 87b0 07be
000001b0: c493 dbbd 3ab9 bb3d 88bc a7bc 545d 5d3e
000001c0: e021 e43d cbc4 de3e 5241 c23d cc2a 013f
000001d0: 2920 67bf 609d 463c 5098 e2bd 64f6 b5bd
000001e0: ad7d 343e 76b2 94be de15 07be 62f5 6d3e
000001f0: a251 e43d 33c4 3abe 487e 513d b224 843e
00000200: aac0 e2bd 7c68 3ebd 65f1 f53c f1ab b23c
00000210: f01d 313d 00f7 e13d b908 e8bd b092 18bd
00000220: 2091 98bc 5f69 4ebd 48cf dc3d 80cd ffbd
00000230: 9005 c23c 4889 983d 2b69 d8bd ffe1 9e3d
00000240: 8255 02be 7830 ad3c 2abc 91bd 029d 05bb
00000250: e001 e03c a821 e13c c84a e8bc 516c 6cbd
00000260: 46de 18be 9416 f0bc 8060 f43d 3aa3 c0bd
00000270: 4b39 c6bd fc5a 063d 54f1 823d 40f4 393d
00000280: f0de a53d d075 813c 50ef fbbc ed49 c9bd
00000290: aae0 ffbd 252f eabd 8c9a 803d fb86 853d
000002a0: 9cae f33d 935f 803d a065 d33b b00e 373d
000002b0: 0ca7 423d 6656 adbd 982d c0bc 4845 19be
000002c0: 67cf 7f3d 12c9 bdbc 232e a53d fca5 86bd
000002d0: 1248 cb3d c4a6 6f3d 40f8 79bc 0076 87bb
000002e0: 372c 3c3d 1fba 80bd 8a0e c73d 6d59 97bc
000002f0: 8493 48bd 5115 a0bd b40a 79bd 87cb 0b3d
00000300: 6a83 c13d e6e1 72be 7ef7 2dbe df32 34bc
00000310: cac7 873b 5c0e ebbd 122e b9ba 16b8 35be
00000320: 5870 b83d 7159 303d d4d5 9dbd 502f b9bc
00000330: ced4 b7bd bdd6 8a3a d7a4 223d 74e6 b73d
00000340: bc9f 93bd cc7f 8ebd cec9 9bbd bdca 29be
00000350: c76b a5be ba7b cebd 0c44 ab3d b7d7 8ebc
00000360: 8d50 57bc fec3 55bc 1131 abbe 91c2 d4bc
00000370: 0b1a 42be 8b0f 133d a09c 23bc ee3d c7bd
00000380: 6d57 da3d 62d9 d4bd 549b 98bd 3f54 18be
00000390: 3bb9 a43d 0814 7fbd 97ba 39be 1cc2 9ebd
000003a0: 6432 503d 6809 0d3d b91c a7bb fb30 a5bc
000003b0: 5411 b0bd c8ec c4bd f8ee f2bc a3fc b4bd
000003c0: fd4e 17be fa69 843d 26e4 923d d7da 00bc
000003d0: 543c 7dbe 702c 72bc c22f c7bd 889b 38bd
000003e0: 5641 793d b5b7 e5bc b848 5d3d beb8 3dbe
000003f0: 08cd 24be 7736 cc3d cc9b 44bd aca6 393d
-0.049757704 -1.4440844 0.25588337 1.6048987 -0.08232465 -0.12093878 -0.24667728 -0.67349124
-0.04636991 -0.6925465 -0.09722562 0.38814765 0.012139395 0.20845287 -0.24151106 -0.22853817
-0.29466614 -0.10411095 0.27461547 -0.72304744 -1.1248512 0.103494406 0.33137158 -0.07402878
-0.26429284 -7.8873544 -0.81767315 1.815513 0.8549341 -2.460573 0.11255321 0.1736009
-0.09343016 0.03193593 0.45237625 0.437029 0.07209201 -0.18045837 -0.55074096 -1.2217053
-0.08003627 -0.12070473 0.12053104 -0.51704663 -0.08920571 0.091340154 0.051853046 0.021217348
0.16379261 0.26754937 -0.10392704 0.34602484 -0.7447691 -0.044990644 0.08227825 0.11116128
0.29508954 -1.2016096 -2.0071304 0.3131976 0.25239885 -0.27617618 0.08280784 0.09289349
-0.00790672 0.029287854 0.28804675 0.34037086 0.03814085 -0.06629501 -0.48391977 -0.5604018
0.032633573 0.12567054 -0.035841003 0.204254 0.08651672 0.2460509 -0.4527465 -0.21132748
-0.3140222 0.017407801 -0.19738665 -0.75039554 -0.0916914 0.030416474 0.21616073 -0.31180558
-0.12657113 -0.32828674 -0.85210705 2.5993483 0.5496835 -2.154122 0.088265926 0.4874735
0.004970098 -0.051559985 0.31561056 0.36533278 0.104231335 -0.22138177 -0.5997922 0.016693862
0.0049806833 -0.26796427 -0.024934415 -0.13250934 -0.107215434 0.091661885 -0.02047564 0.21617633
0.11139274 0.43509516 0.09485115 0.5045593 -0.9028345 0.012122482 -0.110642076 -0.08884886
0.17626067 -0.29042405 -0.13191935 0.23238137 0.11148383 -0.18238907 0.05114582 0.25809246
-0.11071904 -0.046486363 0.030022332 0.021810504 0.04324144 0.1103344 -0.11329789 -0.037249267
-0.018623888 -0.05039346 0.10781723 -0.12490368 0.023684293 0.07448059 -0.10566934 0.07757949
-0.12727931 0.021141276 -0.071159676 -0.0020387773 0.027344644 0.027481869 -0.028355971 -0.057720486
-0.1492854 -0.029307641 0.119324684 -0.09406133 -0.096788965 0.032801613 0.06393686 0.04539895
0.080991626 0.015803248 -0.030753762 -0.09828553 -0.12494023 -0.11434773 0.062794775 0.06519886
0.118985385 0.06268229 0.0064513236 0.04469174 0.04752259 -0.08463745 -0.02345924 -0.14967835
0.062453654 -0.023167167 0.080654405 -0.06574628 0.09925856 0.05850865 -0.015256941 -0.0041339397
0.045940604 -0.062855 0.0971957 -0.018475259 -0.048968807 -0.07816566 -0.060801223 0.034129646
0.09448893 -0.23718986 -0.16988942 -0.010998457 0.0041436898 -0.11477348 -0.001412811 -0.17746004
0.09005803 0.043054048 -0.077068 -0.022605568 -0.08976136 0.0010592561 0.039707985 0.08979502
-0.07208201 -0.06957969 -0.076068506 -0.16581245 -0.3230879 -0.10082193 0.08362588 -0.017436845
-0.013141763 -0.013047216 -0.33435872 -0.025971683 -0.18955247 0.035903495 -0.009986073 -0.09728609
0.106612064 -0.10393025 -0.074515015 -0.14875887 0.080431424 -0.062274963 -0.18137585 -0.07751867
0.050829306 0.0344328 -0.0050998596 -0.020164957 -0.08597055 -0.09615475 -0.029654965 -0.08837249
-0.14776225 0.06465526 0.07172422 -0.0078646755 -0.24730045 -0.014781103 -0.09725906 -0.0450702
0.060853325 -0.0280417 0.054024428 -0.18527505 -0.16093838 0.09971326 -0.048000142 0.045324966

actor.2.bias f4 [64]
00000000: b96f 303d ebb0 6a3d 9604 b6bd ac74 923d
00000010: 5a18 07be 56e8 0bbd 962f 133b ad4a 2ebd
00000020: 0393 423d 68c5 fbbd 54ee 78bd eeb5 86bd
00000030: 0c91 aa3c 0bfc 183d 8097 fabd 7831 afbd
00000040: a170 05be 0492 bebd e084 943d abb6 1cbc
00000050: 351a e23c e890 cabd eaf2 e83d 870b 6cbd
00000060: d07d 21be 282b c8bd c480 eabd 47d2 d73d
00000070: 140f be3d b4b8 bfbd ed6f 4c3c dac6 66be
00000080: 8e51 7a3c 4e12 bd3d 76fd 41bd 73ac 4e3e
00000090: 2df6 953d 069d 84bd b2e7 d73d 8fff 5e3c
000000a0: 75d7 063c b338 9b3e a360 2e3d a764 a0bd
000000b0: ee9b b9bd 00d0 2b3e d444 403e e4f0 0f3b
000000c0: b8ff 07be c641 483e c6c9 02be fa17 e9be
000000d0: 2358 57bd 1b52 013f a0d4 7fbd 9104 d3bc
000000e0: 7949 2e3e d21e c13c 09d0 eebd fa36 ff3e
000000f0: fcdc 093c 0081 fcbd 5e82 77bd 5f9d 05be
0.043075297 0.05729763 -0.088875934 0.0715116 -0.13192883 -0.03415712 0.0022458783 -0.042551685
0.047503483 -0.12293512 -0.060774162 -0.06577669 0.020821117 0.037349742 -0.122359276 -0.08554357
-0.13031246 -0.09305194 0.072519064 -0.009565036 0.027600387 -0.0989092 0.11374457 -0.05762818
-0.1577065 -0.097738564 -0.11450341 0.10538154 0.0928022 -0.09361401 0.012477857 -0.22536793
0.015278233 0.09232007 -0.04736086 0.20182972 0.07322345 -0.06475262 0.10542239 0.013610735
0.00823008 0.30316696 0.04257263 -0.07831698 -0.09062944 0.16778564 0.18776256 0.002196365
-0.13281143 0.1955634 -0.12772283 -0.45526105 -0.052574288 0.5051591 -0.062458634 -0.025759013
0.17020215 0.023574267 -0.11660773 0.4984663 0.008414503 -0.12329292 -0.060427062 -0.13048314

actor.4.weight f4 [2, 64]
00000000: 114f 833f 6575 bf3e 2b83 a9bd 993d da3d
00000010: 8445 b93d c99c 7abd 270d be3f 5b76 8e3d
00000020: ac63 b3bd 3f12 613d ca9e f83c 6e93 a4bd
00000030: 8370 1bbd bb62 08bd 7641 c8bd 8ca3 b73d
00000040: 4bac 36bc ddc5 3abc 96ec 0abf 120a f7bb
00000050: ec0f dc3e a027 7a3d 641f e6be 558c 0fbd
00000060: 5cb0 0abb 72fb 8ebd e3b9 a8bc 6b14 8d3d
00000070: bc88 783e 5295 1abd 1ee8 e43d 41d9 ad3f
00000080: 4f31 90be 38a1 0cbd cd57 4a3e 0db0 ecbe
00000090: 10ec b7bd 4f21 283f 3198 a03d 8158 d2bc
000000a0: defb acbd 12b5 823e acfd 963e 3434 8d3f
000000b0: 269a a03d be9a 87be 1f0c d8be 98a3 2cbd
000000c0: cb5c 453d a7a2 a7be f84f e1bd 8472 35bf
000000d0: 6e4a c03d ffa6 5e3f 4741 a93d 3021 183f
000000e0: b95e 2dbf fe0f 2dbc 582a c53b 99ab 573e
000000f0: 4292 b93d 783b d83d 59f4 b13e f2c9 403d
00000100: 9b5c 813f ae2b dd3e 7743 d6bd 5c6a e23d
00000110: ba5a 51bd a475 903d 2c84 0d3f 37f9 c33c
00000120: e3ac 90bd 35f6 cbbe aa01 c63d b08b 37bc
00000130: 30eb 413d 5a5a 90bc 94ce 833d 0a73 5ebd
00000140: c2bb ca39 cb68 f83d 4375 8c3e 23ea d6bd
00000150: 1c5b b9be d5e8 4d3e 7d19 653d 188f a43d
00000160: 6d1f 333e 802a 63bc bd63 82bd e13d 18be
00000170: d88c 3f3f 0f8f e83d 0b98 5cbd cafa a140
00000180: d1a8 c0bd 8225 69bf 49ac 85be ac31 963d
00000190: f146 163e 8fe5 c73d 543a 6a3e 74aa 3f3d
000001a0: 28ef c6be e713 723f 0f75 a0bf b842 d5bd
000001b0: 6838 8cbd 4408 093f b03e a13d 6b7c b4bd
000001c0: bba0 babd 4896 62be 67fc bfbd e8d0 acbe
000001d0: 596f 35bd cfff 0a3f feb1 563d b258 4640
000001e0: af80 6c3e 50bd bfbc 5375 9b3d 5dcf f9be
000001f0: 5148 613e 9066 013d fcaa 593f e7cb f03c
1.0258504 0.37394252 -0.082769714 0.1065628 0.09046462 -0.06118468 1.4847764 0.06956168
-0.08759245 0.05494904 0.030349154 -0.080359325 -0.037949096 -0.03329728 -0.09778111 0.08966741
-0.011149476 -0.011399713 -0.5426725 -0.0075390423 0.42980897 0.061072946 -0.44945824 -0.03504594
-0.0021162247 -0.06981553 -0.02059645 0.0688866 0.2427091 -0.03774006 0.11177085 1.3581926
-0.2816262 -0.034333438 0.19760056 -0.46228066 -0.08980572 0.65675825 0.07841528 -0.025676968
-0.08446477 0.2552877 0.2949041 1.1031556 0.078419015 -0.26485246 -0.42196748 -0.042148203
0.048184197 -0.3274128 -0.11001581 -0.7087786 0.09389196 0.86973566 0.08264404 0.5942564
-0.6772266 -0.010562895 0.0060170107 0.21061553 0.090610996 0.10558218 0.34756735 0.04706759
1.0106386 0.43197387 -0.10462087 0.11055443 -0.051111914 0.07053688 0.55279803 0.023922546
-0.070642255 -0.3983628 0.09668286 -0.011202738 0.047343433 -0.017621208 0.06435886 -0.05430893
0.00038668333 0.12129363 0.27433214 -0.10493877 -0.36202323 0.2010835 0.05593251 0.080351055
0.17492457 -0.013865113 -0.0636668 -0.14867355 0.74824286 0.11355411 -0.053855937 5.061864
-0.09407199 -0.9107286 -0.26108006 0.07333693 0.146755 0.09760582 0.22873813 0.046793416
-0.38854337 0.9456162 -1.2535723 -0.10413116 -0.06846696 0.5352824 0.07873285 -0.08812793
-0.09112688 -0.2212764 -0.09374314 -0.33753133 -0.044295643 0.5429658 0.05241584 3.0991635
0.23095964 -0.0234057 0.07590737 -0.48791018 0.22000243 0.03159195 0.85026526 0.029394103

actor.4.bias f4 [2]
00000000: 3548 9c3d 62ca e2bc
0.0763096 -0.027684394
