HAC-Baseline/preTrained/MountainCarContinuous-h-v1/2level/HAC_MountainCarContinuous-h-v1_surprise_sync_solved_level_0_actor.pth (torch, 20183 bytes, 5 tensors)

actor.0.weight f4 [64, 4]
1.0083611 2.9583108 0.083226375 0.92474437 -0.06440268 0.10304379 -0.19494124 0.2788566
0.60555285 0.62362146 0.21267173 0.7361901 0.7563239 2.171995 0.26432464 0.48483023
0.8465051 -1.4407276 -0.14968644 -2.4907167 -0.18583073 -0.051266614 -0.15505682 0.26827458
0.71456933 1.3113858 -0.07885249 -0.21264638 -0.85415816 0.43387935 1.2305408 -0.79581743
0.83670133 -1.6991887 -0.17939861 -2.3646598 0.33440733 1.4556743 0.25082448 -0.24072061
0.9340437 2.2247574 0.04103497 2.7559254 0.8925909 1.7605789 0.2680062 0.35754713
0.7615819 4.104792 -0.74201 0.11523344 -0.32885474 0.42778382 0.07390687 0.22181989
-0.3527884 1.1328782 0.9627908 -1.3716251 0.031481862 -0.3412701 0.154176 -0.17219114
-0.25224426 1.0790529 0.95958984 -0.0103032 -0.6918635 0.4287989 1.0781425 -1.9843167
1.1013665 -1.9724065 -0.31271154 -3.296961 -0.8986038 1.4184983 0.51088744 2.1320634
-1.1148597 -0.7574872 1.0551043 0.68087906 0.7617837 -1.9505115 -0.05071758 -2.434038
-0.065950565 1.0341166 0.7775499 -0.9802164 0.286029 0.31371266 -0.34647253 -0.3101626
1.034337 -1.8982469 -0.47821438 -2.2946644 -0.23843874 0.14549144 -0.017680416 -0.3825875
0.44680384 4.0447373 -0.48209476 -0.85818344 -1.0667405 0.3197249 0.9858086 2.3313472
0.43789357 -1.4266558 -0.70404017 -0.30297923 0.29105058 -2.4091961 -0.577042 -0.23118925
0.0013856292 -0.1860516 -0.034647882 -0.33881485 0.4703753 -3.8773518 -0.1261781 -1.2204723
-0.16209108 0.33933076 0.9773906 -1.0857955 0.07412735 -3.5332625 -0.3605257 -0.4901899
-0.85853624 0.8816741 0.42395264 1.6216228 0.15013318 0.2521267 0.6065215 -1.5359656
-0.08633667 0.10443485 0.2581259 0.40365517 0.45547962 -0.39646107 0.12583363 -0.21506298
-0.9411234 0.42925876 0.8797343 -1.6992362 0.26722562 0.1757198 0.16247797 -0.2703231
0.45447576 0.1098752 0.06432003 -0.4406274 0.7170814 -1.8359729 -0.26097915 -2.0512416
0.36756927 4.3658714 -0.361402 -0.51226866 0.68831223 4.764793 -0.7096814 0.007848125
-0.9539044 0.40782374 0.89421827 1.0221828 0.10255672 0.23526557 0.07757753 -0.15744139
0.23136038 0.2406462 0.15691368 -0.11002349 -0.10790003 0.05982334 -0.052527837 -0.14811042
0.31960344 0.42969978 -0.049498677 -0.11194843 0.19565429 0.62323844 1.0436305 0.1940892
-1.0533624 0.41608608 0.77100736 1.8941176 0.49971423 4.0580435 -0.52414304 -2.0631418
-0.86895907 0.29764616 0.8142779 3.0029254 0.15320472 -5.2711496 -0.28703743 0.13882057
-0.19596805 0.76252544 0.8379884 -1.8798528 -0.39372745 3.6150987 0.05056695 -0.253802
-1.1869323 1.1737549 1.0776981 2.0306811 0.26029179 -4.4257703 -0.46135572 -0.26848486
0.6388237 1.3163215 0.16297656 0.06752004 0.49456492 3.965695 -0.5403895 -2.2913735
0.26919273 3.5991168 -0.27424517 -2.168849 0.5511207 -1.0959306 0.1003263 -2.2024589
0.27923337 -3.3282917 -0.49758583 -0.8003619 0.15763459 3.7955487 -0.17000014 -3.5539284
00000000: fa11 813f f754 3d40 9772 aa3d 0cbc 6c3f
00000010: 8de5 83bd 9f08 d33d ad9e 47be 4bc6 8e3e
00000020: 8305 1b3f a8a5 1f3f 9ec6 593e f476 3c3f
00000030: 719e 413f f701 0b40 8f55 873e ab3b f83e
00000040: 8fb4 583f c369 b8bf 6747 19be e767 1fc0
00000050: 694a 3ebe f1fc 51bd 37c7 1ebe 495b 893e
00000060: 04ee 363f 7ddb a73f 6a7d a1bd f9bf 59be
00000070: 1caa 5abf 6f25 de3e 5c82 9d3f b1ba 4bbf
00000080: 0f32 563f 047f d9bf 45b4 37be 9656 17c0
00000090: 7037 ab3e 8953 ba3f 116c 803e 777f 76be
000000a0: 7d1d 6f3f 6d62 0e40 4914 283d 1561 3040
000000b0: d680 643f a65a e13f 1c38 893e 6b10 b73e
000000c0: 08f7 423f 755a 8340 5ef4 3dbf 83ff eb3d
000000d0: a65f a8be 7b06 db3e 7c5c 973d c124 633e
000000e0: aea0 b4be 2702 913f 7579 763f 6991 afbf
000000f0: 20f3 003d f4ba aebe 50e0 1d3e e052 30be
00000100: 2926 81be 681e 8a3f aea7 753f c1ce 28bc
00000110: f71d 31bf 888b db3e 9300 8a3f 17fe fdbf
00000120: 94f9 8c3f d177 fcbf ba1b a0be 6901 53c0
00000130: e60a 66bf 5a91 b53f 85c9 023f ba73 0840
00000140: b9b3 8ebf aeea 41bf a80d 873f 174e 2e3f
00000150: 4204 433f 5caa f9bf 3dbd 4fbd 47c7 1bc0
00000160: 1711 87bd ef5d 843f 830d 473f 76ef 7abf
00000170: 6572 923e f29e a03e d964 b1be a2cd 9ebe
00000180: 2865 843f c1f9 f2bf 84d8 f4be c8db 12c0
00000190: 4929 74be b5fb 143e 85d6 90bc 82e2 c3be
000001a0: 79c3 e43e 7d6e 8140 20d5 f6be e9b1 5bbf
000001b0: f48a 88bf fbb2 a33e f45d 7c3f cb34 1540
000001c0: 9633 e03e a89c b6bf fa3b 34bf 1820 9bbe
000001d0: 9504 953e 4530 1ac0 06b9 13bf e0bc 6cbe
000001e0: 009e b53a 5084 3ebe f0ea 0dbd 2479 adbe
000001f0: 08d5 f03e 8826 78c0 d534 01be 7038 9cbf
00000200: 34fb 25be c3bc ad3e 4536 7a3f 59fb 8abf
00000210: 14d0 973d f920 62c0 d396 b8be 2cfa fabe
00000220: 08c9 5bbf 65b5 613f 5210 d93e 5691 cf3f
00000230: 83bc 193e c016 813e fe44 1b3f 859a c4bf
00000240: 48d1 b0bd f0e1 d53d 1429 843e e4ab ce3e
00000250: a034 e93e f2fc cabe 88da 003e 7839 5cbe
00000260: 77ed 70bf cec7 db3e 4436 613f 9280 d9bf
00000270: ccd1 883e e4ef 333e a060 263e ca67 8abe
00000280: 0cb1 e83e 4006 e13d 38ba 833d ea99 e1be
00000290: a692 373f 2901 ebbf 0f9f 85be 8b47 03c0
000002a0: 0a32 bc3e 38b5 8b40 af09 b9be 0a24 03bf
000002b0: 3b35 303f 2f79 9840 aead 35bf 6c95 003c
000002c0: 1433 74bf 46ce d03e 7deb 643f e3d6 823f
000002d0: 4209 d23d 75e9 703e f8e0 9e3d 5138 21be
000002e0: bce9 6c3e f56b 763e fbad 203e ff53 e1bd
000002f0: b1fa dcbd 5209 753d 6e27 57bd 42aa 17be
00000300: 10a3 a33e 9c01 dc3e 20bf 4abd 3845 e5bd
00000310: 9959 483e 8e8c 1f3f af95 853f 52bf 463e
00000320: 94d4 86bf 3c09 d53e bd60 453f 7272 f23f
00000330: 8bda ff3e 7edb 8140 3d2e 06bf 840a 04c0
00000340: 1a74 5ebf 1465 983e 8474 503f ee2f 4040
00000350: b3e1 1c3e 42ad a8c0 92f6 92be fb26 0e3e
00000360: d9ab 48be de34 433f 6886 563f 049f f0bf
00000370: a596 c9be c75d 6740 4a1f 4f3d 56f2 81be
00000380: 66ed 97bf 9a3d 963f 03f2 893f aef6 0140
00000390: f744 853e e99f 8dc0 d136 ecbe d976 89be
000003a0: f389 233f 397d a83f 54e3 263e f247 8a3d
000003b0: 9d37 fd3e f2cd 7d40 f756 0abf dda5 12c0
000003c0: a1d3 893e ee57 6640 dd69 8cbe 6cce 0ac0
000003d0: 3f16 0d3f 7447 8cbf e077 cd3d 16f5 0cc0
000003e0: adf7 8e3e bb02 55c0 92c3 febe 84e4 4cbf
000003f0: f66a 213e 45ea 7240 8414 2ebe 9073 63c0

actor.0.bias f4 [64]
0.21049196 -0.39620963 0.33101636 0.34082258 0.38283694 -0.43023154 -0.12430035 0.11437265
0.35807917 -0.15399279 0.24417426 0.3257548 -0.037118148 -0.47189903 0.23032762 -0.49635893
0.2763407 0.12474015 0.46727458 -0.1026492 0.019381983 0.392801 -0.16040128 -0.5129298
0.31356773 -0.34676388 -0.10264333 0.012921166 -0.1581483 -0.16340603 -0.47515202 0.07083337
0.305789 -0.18214837 -0.21632446 -0.15419139 -0.4515314 -0.4865722 0.07943661 -0.27452308
-0.3214385 0.22884205 -0.051148396 -0.061944064 0.010767928 -0.117218085 -0.20610191 -0.27453452
-0.4069137 -0.05462631 -0.122176245 -0.07146534 0.025851173 -0.16421393 0.17695546 -0.09679648
0.0019975537 -0.15340656 0.19262852 -0.099055454 -0.05801053 0.1484802 -0.119181395 -0.086128145
00000000: 348b 573e fddb cabe fa7a a93e 4c80 ae3e
00000010: 3403 c43e 4f47 dcbe 2f91 febd 353c ea3d
00000020: 2756 b73e 49b0 1dbe d108 7a3e 55c9 a63e
00000030: 3309 18bd c09c f1be 01db 6b3e c222 febe
00000040: 877c 8d3e c477 ff3d 9d3e ef3e be39 d2bd
00000050: f7c6 9e3c 361d c93e 3c40 24be 5e4f 03bf
00000060: f38b a03e 098b b1be ab36 d2bd 4cb3 533c
00000070: a1f1 21be e953 27be 2047 f3be 1611 913d
00000080: 6090 9c3e 1a85 3abe 2984 5dbe 59e4 1dbe
00000090: 202f e7be fe1f f9be a9af a23d 4a8e 8cbe
000000a0: 9693 a4be 9255 6a3e fb80 51bd 0fb9 7dbd
000000b0: f76b 303c 0910 f0bd 610c 53be ca8f 8cbe
000000c0: fe56 d0be d6bf 5fbd 8a37 fabd 6c5c 92bd
000000d0: d7c5 d33c b227 28be d033 353e 3c3d c6bd
000000e0: 64e9 023b 9c16 1dbe 6940 453e 96dd cabd
000000f0: 739c 6dbd 320b 183e 6015 f4bd f463 b0bd

actor.2.weight f4 [64, 64]
-0.71108735 -0.039410103 -0.16768987 -0.61048675 0.2957617 -0.0906662 -0.6895983 -0.7647347
0.42630473 -0.09406711 -0.8262459 -0.8112543 -0.5806919 -0.07556629 0.1046477 -0.09298016
-0.14743191 -0.08732849 0.5821024 -0.6890812 -1.7588896 0.5205605 -0.5396866 -0.115829885
0.7863152 -0.037547562 -0.31569147 -1.9369911 0.08307261 0.21695323 0.03445129 0.18297505
0.13387407 0.23037048 -0.5875204 -0.4950794 0.07571913 -0.011553183 -0.14887178 0.11916748
-0.04675348 0.29067707 -0.7513924 -1.110521 -1.3256338 0.001179684 0.024718717 -0.078916326
-0.116735905 0.24242102 -1.0897242 -0.9109797 -1.8248813 0.56372803 -0.091660276 -0.3005742
-1.5683066 0.340191 -0.03581116 -1.1460048 -0.5470213 -0.011692552 0.24433804 -1.5040642
-0.7686999 0.10112378 -0.8910223 -0.6820742 0.27180117 -0.030613393 -0.585496 -0.7168369
0.37602058 -0.44562912 -1.1985376 -1.0191692 0.594733 0.038807735 -0.09400047 -0.057713985
0.08786366 -0.51180995 0.40921128 0.37255296 -1.0065842 0.123273455 -0.20903061 -0.059751883
0.06570126 0.049998842 0.2329873 -0.24143277 0.8564312 0.6629858 0.08911279 0.38699356
-0.20654987 0.25052452 0.36656347 -0.22686957 -0.006037459 -0.045720086 -0.4799846 0.07414487
0.10052036 0.25976098 0.10493292 0.17519294 -0.36685225 0.031823203 0.058941364 -0.014880918
-0.049419105 -0.14681722 0.16482295 0.13167977 -0.41977084 0.79768944 -0.35482243 -0.13866222
-1.2881258 0.50550103 -0.6016575 0.09566738 0.019863209 -0.17395356 0.11243288 -0.55696505
-0.27334163 -0.09544341 0.49282977 0.45456463 -0.80099636 0.024142817 0.22305307 1.5839115
-0.83518606 0.023240618 -0.013038931 0.1475696 -1.1216747 0.03001815 1.0869294 -0.088385105
1.310718 1.08811 -1.1224295 1.120465 2.0393555 -0.51103413 1.1142515 0.0733764
-0.96676004 -0.016731218 -0.56121045 2.3322666 -0.73270184 -0.60464644 -0.039916754 0.2087362
0.71140975 0.041988507 0.81708986 0.8248175 -0.07367915 -0.08138268 1.4796274 -0.020998076
0.11422312 -0.63060373 -0.41508853 -0.55844754 2.018243 -0.0030506498 -0.009091556 0.0017180145
0.046678096 0.27169305 1.6562418 0.4515504 1.5618044 -0.29157868 0.63487995 -0.019550482
2.6539767 -0.030579988 0.14310263 0.60026145 0.22802608 -0.3118636 -0.29081777 1.6005092
0.38778508 -0.09535901 0.14066909 0.20518704 0.40947777 -0.11836748 0.5565807 0.09000604
0.27856845 0.10741626 0.4526071 0.34644923 0.28385442 -0.10852626 0.053330556 0.023597375
-0.014326828 0.15611476 0.27023494 -0.47625992 1.078613 0.436261 0.5092647 -0.0046960562
0.09592063 0.0054784715 -0.11187423 0.94554126 -0.6941587 -0.67825955 -0.027742833 0.18982342
0.15875682 -0.7056215 -0.014500567 0.5977774 0.1009139 -0.043168932 0.23638795 0.06024222
-0.03410846 0.3594445 -0.06525992 0.08090426 0.99024695 0.019164756 0.055731043 0.124185756
0.08534162 -0.22691073 -0.1390972 0.042797215 0.9040377 -0.652975 -0.073580086 -0.43027374
0.58381563 -0.6941323 0.074105166 0.06760928 0.17681259 0.451086 -0.3055258 0.61499184
00000000: d209 36bf 7d6c 21bd e5b6 2bbe dc48 1cbf
00000010: 146e 973e 33af b9bd 8489 30bf a7c5 43bf
00000020: 9d44 da3e 42a6 c0bd da84 53bf 5dae 4fbf
00000030: 39a8 14bf 80c2 9abd 8951 d63d 626c bebd
00000040: 64f8 16be 48d9 b2bd aa04 153f a067 30bf
00000050: 4b23 e1bf 7443 053f e728 0abf 3838 edbd
00000060: f44b 493f 79cb 19bd 50a2 a1be 53ef f7bf
00000070: f921 aa3d fd28 5e3e cc1c 0d3d d05d 3b3e
00000080: 4916 093e 3de6 6b3e bd67 16bf 0c7b fdbe
00000090: a212 9b3d 9049 3dbc d871 18be 140e f43d
000000a0: 9480 3fbd a0d3 943e 415b 40bf 8d25 8ebf
000000b0: 5eae a9bf a09f 9a3a e87e ca3c e29e a1bd
000000c0: 3c13 efbd 373d 783e 157c 8bbf f735 69bf
000000d0: b695 e9bf 7b50 103f 62b8 bbbd dde4 99be
000000e0: 45be c8bf 842d ae3e b9ae 12bd 49b0 92bf
000000f0: 9709 0cbf 1e92 3fbc c033 7a3e 2d85 c0bf
00000100: 84c9 44bf fc19 cf3d 0a1a 64bf 6a9c 2ebf
00000110: 8629 8b3e f0c8 fabc 11e3 15bf a082 37bf
00000120: c585 c03e 8029 e4be ae69 99bf 2374 82bf
00000130: 6c40 183f dcf4 1e3d 5283 c0bd 8065 6cbd
00000140: ddf1 b33d fa05 03bf 2484 d13e 43bf be3e
00000150: c0d7 80bf cb76 fc3d 1f0c 56be 64be 74bd
00000160: 628e 863d 96cb 4c3d 3994 6e3e 273a 77be
00000170: 133f 5b3f 70b9 293f c480 b63d 0524 c63e
00000180: cf81 53be c044 803e 35ae bb3e 7f50 68be
00000190: e0d5 c5bb fc44 3bbd 8bc0 f5be 44d9 973d
000001a0: 9edd cd3d 64ff 843e 12e7 d63d c765 333e
000001b0: 0fd4 bbbe 0c59 023d 806c 713d 18cf 73bc
000001c0: b06b 4abd 4157 16be 59c7 283e 10d7 063e
000001d0: 34ec d6be 6035 4c3f 49ab b5be 78fd 0dbe
000001e0: 4ee1 a4bf 8468 013f 3a06 1abf 42ed c33d
000001f0: 2bb8 a23c e220 32be 3643 e63d 4395 0ebf
00000200: 6ff3 8bbe d677 c3bd 2f54 fc3e b2bc e83e
00000210: 190e 4dbf 28c7 c53c 0668 643e 9dbd ca3f
00000220: c1ce 55bf 1c63 be3c 3ea1 55bc 7c1c 173e
00000230: 0993 8fbf a0e8 f53c 8120 8b3f 4003 b5bd
00000240: 9cc5 a73f 3047 8b3f c5ab 8fbf 666b 8f3f
00000250: cd84 0240 22d3 02bf cb9f 8e3f 5e46 963d
00000260: 967d 77bf e80f 89bc 7dab 0fbf db43 1540
00000270: 5992 3bbf 1cca 1abf c07f 23bd f1be 553e
00000280: f31e 363f 24fc 2b3d cd2c 513f 3d27 533f
00000290: 18e5 96bd f6ab a6bd 6e64 bd3f 2804 acbc
000002a0: d0ed e93d 3f6f 21bf 7c86 d4be 6bf6 0ebf
000002b0: e52a 0140 69ed 47bb c0f4 14bc 002f e13a
000002c0: 8831 3f3d 5a1b 8b3e bbff d33f 9d31 e73e
000002d0: 35e9 c73f cd49 95be 7e87 223f 5528 a0bc
000002e0: c1da 2940 e282 fabc 7f89 123e bcaa 193f
000002f0: ab7f 693e 96ac 9fbe 11e6 94be 7cdd cc3f
00000300: c48b c63e 964b c3bd 8f0b 103e 8d1c 523e
00000310: 12a7 d13e a66a f2bd 137c 0e3f 1655 b83d
00000320: 86a0 8e3e 0efd db3d 1ebc e73e cb61 b13e
00000330: 5e55 913e 0443 debd 2471 5a3d 484f c13c
00000340: 12bb 6abc 8cdc 1f3e 3c5c 8a3e 57d8 f3be
00000350: fe0f 8a3f 9a5d df3e 2c5f 023f 60e1 99bb
00000360: 0972 c43d c084 b33b 511e e5bd fe0e 723f
00000370: 62b4 31bf 6ba2 2dbf f044 e3bc 1261 423e
00000380: 2691 223e 9ca3 34bf c993 6dbc f107 193f
00000390: f2ab ce3d e8d1 30bd af0f 723e 8cc0 763d
000003a0: 50b5 0bbd 1c09 b83e fea6 85bd 22b1 a53d
000003b0: d380 7d3f 68ff 9c3c 3c46 643d 1a55 fe3d
000003c0: 96c7 ae3d 495b 68be 7f6f 0ebe 224c 2f3d
000003d0: 046f 673f 5f29 27bf 28b1 96bd d74c dcbe
000003e0: f174 153f a8b2 31bf 73c4 973d bc76 8a3d
000003f0: 5c0e 353e bff4 e63e e16d 9cbe 1b70 1d3f

actor.2.bias f4 [64]
0.3632788 -0.13565193 -0.16758211 -0.050935227 0.31151646 -0.20028645 -0.12736212 0.28055942
0.20532185 -0.12926495 -0.28799346 -0.1730869 -0.1346488 -0.15168476 -0.11946666 0.29829592
-0.06251817 -0.058475774 -0.29936785 -0.055717554 -0.06491861 -0.182163 -0.11758722 0.31523123
-0.26713872 0.22335304 -0.060322266 0.50271004 0.1984604 -0.09598223 0.36661372 0.21838224
-0.08497182 -0.17348829 -0.17441277 -0.05286088 -0.11044031 -0.26941216 -0.11651114 -0.26642394
-0.113773935 0.27809247 0.22533657 0.29477206 -0.16556731 -0.10299965 -0.0994954 -0.13371335
-0.08972068 -0.19598345 -0.14805119 -0.018340573 -0.050187647 -0.0811809 -0.08192359 -0.08902614
-0.20140152 -0.12969281 -0.052875362 -0.06218321 -0.088796005 -0.140651 -0.085399084 0.31825665
00000000: aeff b93e 57e8 0abe a59a 2bbe 75a1 50bd
00000010: 167f 9f3e e417 4dbe 376b 02be 7ca5 8f3e
00000020: e43f 523e 085e 04be e173 93be b13d 31be
00000030: 60e1 09be 4053 1bbe f0aa f4bd 3eba 983e
00000040: 8709 80bd 4b84 6fbd be46 99be 1738 64bd
00000050: 0cf4 84bd f088 3abe 92d1 f0bd fd65 a13e
00000060: 68c6 88be a9b6 643e 7b14 77bd 9bb1 003f
00000070: 3439 4b3e 5592 c4bd cbb4 bb3e 989f 5f3e
00000080: b505 aebd eaa6 31be 4399 32be a684 58bd
00000090: 872e e2bd 64f0 89be 649d eebd b868 88be
000000a0: 4f02 e9bd 2362 8e3e a1be 663e 5dec 963e
000000b0: 7a8a 29be 7bf1 d2bd 3fc4 cbbd 27ec 08be
000000c0: 7abf b7bd e3af 48be bb9a 17be f83e 96bc
000000d0: 9091 4dbd 2c42 a6bd 8ec7 a7bd 5653 b6bd
000000e0: 333c 4ebe 31ce 04be d693 58bd d2b3 7ebd
000000f0: aeda b5bd d106 10be b7e5 aebd 89f2 a23e

actor.4.weight f4 [1, 64]
-1.3780715 -0.6434861 2.1506364 0.41054478 -1.4921069 0.9314935 0.06665191 -1.5359188
-1.4965796 1.0601727 -0.29676545 -0.037234247 -0.03816939 0.9928744 0.46062788 -1.061995
-0.020554224 -0.7195493 -0.17119761 -0.025417825 -0.08398938 -0.0045259725 1.034455 -0.89755756
-0.90507245 -0.67669165 -0.031241225 -1.4012874 -1.4356036 0.66821307 -1.2853769 0.89154786
-0.007685024 1.895147 -0.035670023 -0.088230334 -0.074096516 -0.45026872 -0.033227213 1.6698244
-0.08502776 -1.3759202 -0.9959585 -1.487589 -0.9791494 -0.053968392 0.0063697295 1.920561
-0.02126731 0.8592028 0.716215 0.09154748 0.8780558 0.67107594 2.4151053 0.05975607
1.6333436 -0.03269068 -0.04849072 0.052649427 0.03020575 0.09424691 -0.6456356 -1.3369745
00000000: a664 b0bf 81bb 24bf 07a4 0940 ed32 d23e
00000010: 5cfd bebf 5c76 6e3f cc80 883d fd98 c4bf
00000020: ec8f bfbf bdb3 873f a4f1 97be f082 18bd
00000030: 8257 1cbd 042d 7e3f 6bd7 eb3e 74ef 87bf
00000040: 5561 a8bc 6234 38bf 6d4e 2fbe 0b39 d0bc
00000050: a002 acbd 9c4e 94bb 0569 843f 55c6 65bf
00000060: d4b2 67bf aa3b 2dbf 99ed ffbc 635d b3bf
00000070: dcc1 b7bf 0310 2b3f 3b87 a4bf 7b3c 643f
00000080: a7d2 fbbb 2d94 f23f bb1a 12bd 1bb2 b4bd
00000090: eabf 97bd 9f89 e6be 4219 08bd cebc d53f
000000a0: 0923 aebd 271e b0bf 23f7 7ebf 5169 bebf
000000b0: 89a9 7abf f60d 5dbd 2ab9 d03b f1d4 f53f
000000c0: c838 aebc b7f4 5b3f de59 373f 3f7d bb3d
000000d0: 44c8 603f a2cb 2b3f 1691 1a40 c8c2 743d
000000e0: 6711 d13f aae6 05bd 359e 46bd eda6 573d
000000f0: 0d72 f73c 8604 c13d 6048 25bf fb21 abbf
