HAC-Baseline/preTrained/BipedalWalkerHardcore-v3/3level/HAC_BipedalWalkerHardcore-v3_surprise_sync_level_2_crtic.pth (torch, 37527 bytes, 5 tensors)

critic.0.weight f4 [64, 72]
0	0x3ea90450	0.33011103
1	0xbf342319	-0.70366055
2	0x3d99de72	0.07513131
3	0xbdacf79b	-0.084456645
4	0xbe268658	-0.16262186
5	0xbea621a5	-0.32447544
6	0xbce333dc	-0.02773469
7	0x3d984822	0.07435633
8	0xbcb79636	-0.022410493
9	0x3d8e2b37	0.06941836
10	0xbea12caa	-0.31479388
11	0xbd973a45	-0.07384161
12	0x3d511486	0.051044963
13	0x3db7002f	0.08935582
14	0x3e406bef	0.18791173
15	0x3d0dbd6c	0.034604475
16	0x3e589f32	0.21154478
17	0x3e009c75	0.12559684
18	0x3e06b80a	0.13156143
19	0x3d7d6ba5	0.061870236
20	0x3e2bd5ee	0.16780826
21	0x3dc1712a	0.094454125
22	0x3b80c7d9	0.0039300737
23	0x3da6d360	0.08145785
24	0xbac112d0	-0.0014730338
25	0xbe0ec964	-0.13944012
26	0xbd898987	-0.067156844
27	0x3e0f39f5	0.13986953
28	0xbaa4db29	-0.0012577522
29	0xbc036886	-0.008020526
30	0x3bb1a3a1	0.0054211174
31	0xbd2eb109	-0.042649303
32	0xbdfefc33	-0.12450447
33	0xbe2c287a	-0.16812316
34	0xbcb584f9	-0.022158133
35	0x3a40832f	0.00073437666
36	0x3d0bbb1c	0.03411399
37	0xbdac1e44	-0.0840421
38	0x3c09d037	0.008411459
39	0xbdce6411	-0.1007768
40	0xbdef63b8	-0.11688942
41	0x3d8c56de	0.06852506
42	0xbd2dc9b5	-0.04242869
43	0x3d09ecb2	0.033672996
44	0xbde18abe	-0.11012791
45	0xbb3cc331	-0.0028802867
46	0xbe257dff	-0.16161345
47	0xbe12a3b1	-0.14320256
48	0xbe590b06	-0.21195611
49	0x3dd22547	0.10261016
50	0x3d183dfa	0.03716848
51	0xbe035748	-0.12826264
52	0xbe09ed97	-0.1346954
53	0xbb460505	-0.0030215394
54	0xbb766f44	-0.003760294
55	0xbe80d6f9	-0.2516401
56	0xbdb13465	-0.086525716
57	0xbd961c02	-0.07329561
58	0xbe6a9210	-0.22907281
59	0xbaef4ced	-0.0018257179
60	0x3e2f7fc0	0.17138577
61	0x3d81a06d	0.06329427
62	0x3de7f873	0.11326685
63	0x3e2135d6	0.15743193
64	0x3df97845	0.12181143
65	0xbd09a7c3	-0.033607256
66	0xbd2f5629	-0.042806778
67	0xbc32104e	-0.010868145
68	0x3d012b5f	0.031535503
69	0x3e56a80a	0.2096254
70	0x3e2a31bc	0.16620535
71	0x3e37d716	0.17953143
72	0x3e9bf024	0.3045665
73	0xbfaf3114	-1.3686852
74	0x3e14fd34	0.14549714
75	0x3d91040a	0.070808485
76	0x3e2bda45	0.16782482
77	0x3f5b330a	0.85624754
78	0xbdcc47c2	-0.09974624
79	0xbc88e1e3	-0.016709274
80	0x3d4de074	0.050262883
81	0xbe8db629	-0.2767804
82	0xbe8c2e43	-0.27379045
83	0x3d814d3b	0.06313559
84	0xbe07474e	-0.13210794
85	0xbd291b0e	-0.041285567
86	0x3dd27cb5	0.10277692
87	0x3e080e81	0.13286783
88	0x3de0cd18	0.109766185
89	0xbc7d01ac	-0.015442293
90	0xbdc52b73	-0.09627428
91	0xbbd5a694	-0.006520102
92	0x3d48bea1	0.049009923
93	0x3c8886bb	0.016665807
94	0xbd8131c7	-0.063083224
95	0x3d3c0c0c	0.045909926
96	0xbdc1e4e3	-0.09467485
97	0x3d39d7d2	0.045371838
98	0x3cceeb76	0.02525876
99	0xbd4a031a	-0.049319364
100	0x3cba0f2e	0.022712316
101	0xb9cb1751	-0.0003873655
102	0xbda96472	-0.082711115
103	0xbca343de	-0.019929823
104	0xbd4c737b	-0.04991482
105	0xbc5f1c3c	-0.013617571
106	0xbc9a47d0	-0.018833071
107	0x3d765567	0.06014004
108	0x3d708f51	0.058730427
109	0xbb02f417	-0.0019981915
110	0xbda31a3e	-0.0796399
111	0xbdb1b463	-0.08676984
112	0x3d1ec7cf	0.03876477
113	0xbd8f2f4b	-0.06991442
114	0x3db79496	0.089638874
115	0x3cdbebcb	0.026845833
116	0x3d1c954e	0.038228326
117	0x3e039315	0.12849076
118	0x3d2da925	0.042397637
119	0xbdd25b4d	-0.102713205
120	0xbe24cde9	-0.16094173
121	0xbe02587d	-0.12729068
122	0xbcf98692	-0.030459676
123	0xbe529946	-0.20566282
124	0xbe95ae58	-0.29234576
125	0xbe183163	-0.1486259
126	0xbf06de05	-0.52682525
127	0x3beb55c6	0.007181856
128	0xbe8b7e43	-0.27244768
129	0xbe223f75	-0.1584452
130	0xbddf1888	-0.10893351
131	0xbe4f52ff	-0.20246504
132	0x3e442b5c	0.19157165
133	0xbd026d35	-0.03184243
134	0xbe403ad5	-0.18772443
135	0xbe0c2a49	-0.13688006
136	0xbd177dc7	-0.036985185
137	0xbe132229	-0.143685
138	0xbac3a086	-0.0014925159
139	0xbd310194	-0.043214396
140	0xbdb9af66	-0.09066658
141	0x3d629bca	0.055324353
142	0xbdd10019	-0.10205097
143	0xbdd12a3b	-0.10213133
144	0x3bc5a862	0.0060320357
145	0xbe117f35	-0.14208682
146	0x3d8dbdc2	0.06920959
147	0x3bd5e037	0.0065269726
148	0x3d130fa4	0.035903588
149	0x3def68c7	0.116899066
150	0x3c350060	0.011047453
151	0x3c99bb0d	0.01876595
152	0x3d60f21c	0.054918393
153	0xbe182880	-0.148592
154	0xbe66daf8	-0.22544467
155	0xbd9078c5	-0.07054285
156	0x3cc9361f	0.02456194
157	0xbcb80952	-0.022465382
158	0x3c1c3170	0.009533271
159	0xbc51fd6e	-0.01281677
160	0xbdaed3b9	-0.08536477
161	0x3dcd71b7	0.10031455
162	0xbd4478b8	-0.04796669
163	0x3db4d7d8	0.088302314
164	0x3da2403d	0.07922409
165	0xbde53e92	-0.11193575
166	0xbd8e9b18	-0.069631755
167	0xbd5bc693	-0.053656172
168	0x3aa6e56a	0.0012733166
169	0xbceb060e	-0.02868941
170	0xbe2e7f8e	-0.17040846
171	0x3cd40bb2	0.025884483
172	0xbcb4332e	-0.02199706
173	0xbda422cd	-0.0801445
174	0xbe12344e	-0.14277765
175	0xbd99ece9	-0.0751589
176	0xbda43f2b	-0.08019861
177	0x3e031dcf	0.1280434
178	0x3d4a6275	0.049410302
179	0x3e0b044f	0.13575862
180	0xbd8210a0	-0.06350827
181	0x3ce3d525	0.027811596
182	0xbe1e08ef	-0.15433095
183	0x3d9f404e	0.07775937
184	0x3cd63885	0.026149997
185	0xbe123214	-0.14276916
186	0x3c8813e4	0.016611047
187	0xbd101cc5	-0.035183687
188	0xbe40dc0c	-0.18833941
189	0xbd1ce6c0	-0.038305998
190	0xbdf7e8d8	-0.12104958
191	0xbc89c66c	-0.016818248
192	0xbd5aac3b	-0.053386908
193	0x3d365be2	0.04452122
194	0xbc033b2e	-0.008009715
195	0xbcecc058	-0.02890031
196	0xbddd08cf	-0.10792696
197	0x3b8e7139	0.0043469933
198	0xbb3aad1e	-0.0028484534
199	0x3c9a9031	0.018867584
200	0x3db16f00	0.0866375
201	0x3dcb0246	0.09912543
202	0x3c33dfb5	0.010978629
203	0xb999b169	-0.00029314615
204	0x3d6914e9	0.056904707
205	0x3d02ddd6	0.03194984
206	0x3a2765a8	0.00063856924
207	0x3c388afe	0.011263607
208	0x3bf7c405	0.007561209
209	0x3d0f80a0	0.035034776
210	0x3d8816eb	0.06644996
211	0xbd24d271	-0.040239755
212	0xbd8f5487	-0.06998544
213	0xbcf7d006	-0.03025056
214	0xbdb620cd	-0.08892975
215	0xbdd4ec26	-0.10396604
216	0x3cc4dddf	0.024031578
217	0xbc8ac0a4	-0.016937561
218	0xbe37e417	-0.17958103
219	0xb9a231c4	-0.00030936126
220	0xbbe1c8ee	-0.0068904078
221	0x3eab2c7f	0.33432385
222	0x3e1f3a34	0.15549546
223	0xbe42cdbd	-0.19023795
224	0x3de188d9	0.1101243
225	0x3c16f13a	0.009212786
226	0x3e1a0130	0.15039515
227	0xbe2c4c09	-0.1682588
228	0xbea762cf	-0.32692572
229	0x3dd0783f	0.10179185
230	0xbc3d862c	-0.011567634
231	0x3dba7d94	0.091059834
232	0xbdb08522	-0.08619143
233	0xbd35c360	-0.044375777
234	0xbde4df0e	-0.11175357
235	0x3dd2b871	0.10289086
236	0xbdcdfbcf	-0.10057794
237	0x3da98f1c	0.08279249
238	0xbdc2e765	-0.09516791
239	0xbd4c6421	-0.049900178
240	0x3b1f75cb	0.0024331685
241	0x3cd57dee	0.026061025
242	0x3e6dc25e	0.23218676
243	0x3dfa5366	0.12222938
244	0x3df60501	0.12012673
245	0x3e059ddc	0.130485
246	0xbdcf9daa	-0.10137494
247	0x3c0d919b	0.008640672
248	0xbdf8f008	-0.12155157
249	0xbdb6c66a	-0.08924563
250	0x3d407d4e	0.0469945
251	0x3d01dc15	0.031704027
252	0xbe21f189	-0.15814795
253	0xbdb20ed7	-0.08694237
254	0x3d800736	0.062513754
255	0xbe3833c4	-0.17988497

critic.0.bias f4 [64]
0	0x3e1d0c30	0.1533668
1	0xbc0b340a	-0.008496294
2	0xbdbaed52	-0.091272965
3	0x3bc0e296	0.005886386
4	0x3c887123	0.01665551
5	0x3df740c3	0.12072899
6	0xbd14277d	-0.03617047
7	0xbd962da1	-0.07332922
8	0x3e6540b3	0.22387962
9	0xbcdee569	-0.027209
10	0x3de42052	0.11138977
11	0xbd54a2c5	-0.05191304
12	0xbde3f1b9	-0.11130089
13	0xbdf62dfc	-0.120204896
14	0xbe056df9	-0.13030232
15	0xbd0d6739	-0.03452227
16	0x3d09f833	0.033683967
17	0x3e26a012	0.16272
18	0x3e3aa28d	0.1822607
19	0xbcc34072	-0.02383444
20	0xbdf7f1af	-0.12106644
21	0x3d33cb76	0.043895207
22	0x3ce1e383	0.027574306
23	0xbcb32397	-0.021867556
24	0xbd84a0d8	-0.06475991
25	0x3bfadbf2	0.007655614
26	0xbb1833a9	-0.0023224151
27	0xbd2b5f43	-0.041838896
28	0x3df45071	0.119294055
29	0x3e4e1940	0.2012682
30	0x3d8ccba8	0.06874782
31	0x3d3c60f9	0.045990918
32	0x3d387f24	0.045043126
33	0xbd3a0f5d	-0.045424808
34	0xbe2d18cf	-0.16903995
35	0x3e63c3f3	0.22242717
36	0x3dc1f746	0.09470992
37	0x3da85a78	0.082203805
38	0x3e0a1876	0.13485894
39	0x3d502200	0.050813675
40	0x3d03e9cd	0.03220539
41	0x3d49af33	0.04923935
42	0x3d82b3ee	0.06381975
43	0xbd621ba0	-0.055202127
44	0x3e1660cd	0.14685364
45	0x3ccce2ce	0.025010493
46	0xbdaa26ab	-0.083081566
47	0x3d839f39	0.06426854
48	0xbd74acc4	-0.059735075
49	0xbd57fac3	-0.05272938
50	0x3d572827	0.052528527
51	0xbcc4e123	-0.024033135
52	0xbdb820a6	-0.08990602
53	0xbe13a04f	-0.14416622
54	0xbdcfef45	-0.10153059
55	0x3dbd226f	0.09235083
56	0xbd572d30	-0.05253333
57	0xbe03274e	-0.12807962
58	0x3cc795cf	0.024363426
59	0x3d1d4165	0.038392443
60	0xbd318721	-0.04334176
61	0x3cb4c080	0.022064447
62	0x3b164251	0.0022927711
63	0xbc6f798f	-0.014616384

critic.2.weight f4 [64, 64]
0	0x3c4fef15	0.012691279
1	0xbc7d1498	-0.015446804
2	0x3d2dc20d	0.04242139
3	0x3e35c569	0.17751087
4	0xbcb66b34	-0.022267915
5	0x3da890af	0.08230721
6	0x3e175e02	0.14781955
7	0x3d949f71	0.072569735
8	0xbd2e5337	-0.04255983
9	0xbdadf85f	-0.08494639
10	0xbcec50ba	-0.028847087
11	0x3cea3ca0	0.028593361
12	0x3ddea42e	0.108711585
13	0xbdece4b2	-0.11567058
14	0x3d811d39	0.06304402
15	0x3dc3a12b	0.09552225
16	0xbe417353	-0.18891649
17	0xbded4bca	-0.11586721
18	0xbcd91e43	-0.026503688
19	0xbcce1e33	-0.025160884
20	0x3dcad7e5	0.0990446
21	0xbcf05d51	-0.029341372
22	0x3e406916	0.18790087
23	0x3d9b799c	0.075915545
24	0xbddfa732	-0.10920562
25	0x3e087ab8	0.13328063
26	0xbc88f926	-0.016720366
27	0x3d489319	0.04896841
28	0xbdb61630	-0.08890951
29	0x3c57035a	0.013123358
30	0xbdb5085c	-0.08839485
31	0x3de0787a	0.10960479
32	0x3d0351e4	0.03206052
33	0x3c16bae6	0.0091998335
34	0x3bc151d8	0.005899649
35	0xbd0693a7	-0.032855656
36	0x3d9eab77	0.07747548
37	0x3d746e4a	0.059675492
38	0x3dd369a7	0.10322886
39	0xbdcca7e8	-0.09992963
40	0x3dc6998f	0.09697258
41	0xbc331b9f	-0.010931878
42	0x3da876ad	0.082257606
43	0x3e14cbdc	0.14530891
44	0x3c6a469c	0.014299061
45	0x3ca1c10b	0.01974537
46	0x3dda9a5c	0.10673973
47	0xbce5a371	-0.028032036
48	0x3e251f8e	0.16125318
49	0xbd0a38aa	-0.033745445
50	0xbe31ddcb	-0.17369764
51	0x3e2d8eda	0.16949025
52	0x3e28727c	0.16449922
53	0x3cd6a258	0.026200458
54	0x3e377dce	0.17919084
55	0xbd8cde78	-0.0687837
56	0xbb9bc721	-0.0047539626
57	0xbd70fef0	-0.058836877
58	0xbda2a02f	-0.07940709
59	0x3ddcf862	0.10789563
60	0x3daeaf06	0.08529477
61	0x3d5f8ad4	0.054575756
62	0x3db08054	0.08618227
63	0x3e224ada	0.15848866
64	0x3d0e1824	0.03469099
65	0xbdda99df	-0.1067388
66	0xbd8ba0e0	-0.06817794
67	0xbdf96bb0	-0.12178743
68	0xbc6d13e4	-0.014470074
69	0xbe10d367	-0.14143144
70	0xbd771714	-0.060324743
71	0xbda659ae	-0.08122574
72	0xbdb3fe7a	-0.08788772
73	0xbd7ac138	-0.061219424
74	0x3d09f00f	0.033676203
75	0xbd2bcfd8	-0.041946262
76	0xbd8dc8bc	-0.06923053
77	0x3d70ea0d	0.05881696
78	0xbccdd948	-0.025128022
79	0xbc895ced	-0.016767943
80	0xbda10878	-0.078629434
81	0xbd84712f	-0.064669006
82	0xbd1909b4	-0.03736277
83	0x3c5df2e0	0.013546675
84	0x3c0fe0d0	0.008781627
85	0xbdb4da95	-0.08830754
86	0x3dad9d66	0.08477287
87	0xbda24928	-0.0792411
88	0x3dd215e2	0.1025808
89	0x3dc0e13e	0.094179615
90	0xbd8b7c62	-0.068108335
91	0x3d700f94	0.058608606
92	0xbdda908f	-0.106721036
93	0xbc2bc302	-0.010483505
94	0x3d730f23	0.059340607
95	0xbdd3ce20	-0.103420496
96	0x3ce99d38	0.02851735
97	0xbd96ef01	-0.07369805
98	0xbdd7a884	-0.10530189
99	0xbd76c736	-0.060248576
100	0x3dce972d	0.10087428
101	0xbe001321	-0.12507297
102	0xbcfebd61	-0.031096162
103	0xbad68093	-0.0016365222
104	0xbd4e92a2	-0.05043281
105	0xbd707280	-0.058702946
106	0x3dbbd420	0.09171319
107	0x3cfd7a58	0.030942127
108	0xbe0ab9d6	-0.13547453
109	0x3db9ae7b	0.09066483
110	0xbd6f0a24	-0.05835928
111	0xbd4721c4	-0.048616186
112	0x3cccebb0	0.025014728
113	0xbdacdd66	-0.08440666
114	0x3d68128d	0.056658316
115	0x3d7f73c8	0.062366277
116	0x3cedb358	0.029016182
117	0xbc3926e1	-0.011300773
118	0x3c82db88	0.015973821
119	0xbdc250c2	-0.094880596
120	0x3c196081	0.009361387
121	0x3c138730	0.009004399
122	0x3d6f9e21	0.058500413
123	0x3da4b2d0	0.08041918
124	0xbdb1c53c	-0.086801976
125	0x3db0ad32	0.086267844
126	0xbe114598	-0.14186704
127	0x3b708a96	0.0036703697
128	0x390128d4	0.00012317608
129	0xbcf4da8c	-0.029889368
130	0xbd9defa6	-0.07711725
131	0xbeac1d4a	-0.33616096
132	0xbe6bf2e4	-0.23041874
133	0xbd886f20	-0.066618204
134	0x3d33c41a	0.04388819
135	0xbe812912	-0.25226647
136	0xbd09c37b	-0.03363369
137	0xbd252a79	-0.04032371
138	0x3e11f44a	0.14253345
139	0x3d98f482	0.07468511
140	0x3d8111a9	0.063021965
141	0x3db6f341	0.08933116
142	0x3dc64d06	0.0968266
143	0x3dc35a29	0.09538681
144	0xbd77b2b6	-0.060473166
145	0x3de7142a	0.11283143
146	0x3dbed913	0.09318747
147	0x3d36db4e	0.04464274
148	0xbc03665c	-0.00802001
149	0x3d6412f7	0.05568215
150	0xbbbcd9e2	-0.0057632783
151	0xbe2b8ec4	-0.1675368
152	0xbdfde5fc	-0.12397382
153	0xbd54c778	-0.05194804
154	0xbdaa6a8b	-0.08321103
155	0xbe9c34f6	-0.30509156
156	0xbe0df393	-0.13862447
157	0xbdb31fc8	-0.08746296
158	0x3e9d9834	0.30780184
159	0x3deb9d95	0.11504666
160	0xbd5db1a2	-0.054124482
161	0x3d4f513d	0.050614584
162	0x3e204b96	0.15653834
163	0xbc813f44	-0.015777238
164	0x3dd1eab2	0.10249843
165	0x3e2a3b01	0.1662407
166	0xbcde715a	-0.02715366
167	0xbdd5ab44	-0.10433057
168	0x3d9ed64c	0.07755718
169	0xbcd68d27	-0.026190354
170	0x3e19094e	0.14944956
171	0x3dbccf01	0.0921917
172	0x3e111e83	0.14171796
173	0xbd97d35c	-0.074133605
174	0x3a946d97	0.0011324164
175	0xbd7055a5	-0.058675427
176	0x3ce14b83	0.027501827
177	0x3c096643	0.0083861975
178	0x3da09a29	0.07841904
179	0x3d05c057	0.032654133
180	0x3d3d2aeb	0.046183508
181	0xbe019299	-0.12653579
182	0x3d8531e3	0.06503656
183	0x3ce0e935	0.027454952
184	0x3defb1b6	0.117038175
185	0x3d6b6cbb	0.05747674
186	0x3e6a4fa3	0.22881941
187	0xbcbf916a	-0.023384769
188	0x3e1911e8	0.14948237
189	0xbe6d15d7	-0.23152862
190	0xbe129da5	-0.14317949
191	0x3c9d16d2	0.01917592
192	0x3bb66c9d	0.005567147
193	0x3e2ccae2	0.16874269
194	0xbd0d585c	-0.034508094
195	0xbe7cd257	-0.24689613
196	0x3d84b3c3	0.06479599
197	0x3def7085	0.11691383
198	0xbdb2d992	-0.087329045
199	0xbe0ed048	-0.1394664
200	0x3e75d261	0.24006034
201	0xbe107603	-0.14107518
202	0x3dff8107	0.12475782
203	0xbccf6be4	-0.025320001
204	0xbdf110b9	-0.11770768
205	0x3be94499	0.007118773
206	0x3bdd21bd	0.0067484067
207	0xbcbe6bd3	-0.023244774
208	0x3df87d28	0.12133247
209	0x3e5e223f	0.21692751
210	0x3cd7e019	0.026351975
211	0xbd4eeb11	-0.050517146
212	0xbd024737	-0.031806197
213	0xbdf611f9	-0.12015147
214	0xbe091b3b	-0.13389294
215	0x3d996558	0.07490033
216	0x3d22e7a8	0.039771706
217	0x3d410fff	0.047134396
218	0xbcbffe5a	-0.023436714
219	0xbe1b3f04	-0.15160757
220	0xbddd5fbc	-0.108092755
221	0xbd905d89	-0.070490904
222	0x3dc59de0	0.09649253
223	0xbdcf21f8	-0.10113901
224	0xbd2d4ffb	-0.042312603
225	0x3c94f22f	0.018181888
226	0xbd8f603a	-0.07000776
227	0x3dbc5c2e	0.091972694
228	0x3e094a05	0.13407142
229	0x3eaa894f	0.33307883
230	0x3d1d3e99	0.038389776
231	0xbdc4498b	-0.0958434
232	0x3db12e8c	0.08651456
233	0x3ea0440f	0.31301925
234	0xbeed2ff8	-0.4632566
235	0xbe054436	-0.13014302
236	0x3e56f368	0.2099129
237	0x3e1c73e0	0.15278578
238	0x3ea98550	0.33109522
239	0x3d62d10e	0.05537515
240	0xbd062212	-0.032747336
241	0xbdbb9040	-0.09158373
242	0x3dfd5b79	0.12370963
243	0x3d52c56b	0.051457804
244	0xbdaef72b	-0.08543237
245	0xbcb6ac3b	-0.022298923
246	0xbdf56cd1	-0.11983646
247	0xbd45d5eb	-0.04829971
248	0xbb1f87ee	-0.0024342495
249	0x3c845862	0.016155425
250	0x3d6205fd	0.055181492
251	0x3d9a5c3d	0.07537124
252	0xbd4c84e8	-0.049931437
253	0x3d540bd6	0.0517691
254	0x3e997210	0.29969835
255	0x3e2567fa	0.16152945

critic.2.bias f4 [64]
0	0x3d65d775	0.05611368
1	0xbe165fd9	-0.14685
2	0x3d4ca20e	0.049959235
3	0x3e11b3d6	0.14228758
4	0xbc85c024	-0.016326971
5	0xbe337718	-0.175259
6	0x3e6d2ac4	0.23160845
7	0xbe12087e	-0.14261052
8	0xbe0a8bb3	-0.13529854
9	0x3cf2dca1	0.02964622
10	0xbcdb9cf5	-0.026808241
11	0xbca799af	-0.020459024
12	0xbda4a500	-0.08039284
13	0xbbe54c68	-0.0069976337
14	0xbc5830fb	-0.013195272
15	0x3cfd90f7	0.030952914
16	0xbc8feaba	-0.017567981
17	0x3da10bcb	0.078635775
18	0xbc5451ec	-0.012958985
19	0xbdadcac3	-0.08485939
20	0xbd297f25	-0.04138102
21	0x3da2ce59	0.07949514
22	0xbd931158	-0.071810424
23	0x3e2d6a4c	0.1693508
24	0xbd304254	-0.043032005
25	0x3e71d438	0.23616111
26	0x3d030c82	0.03199435
27	0x3ddda301	0.10822106
28	0x3d193e03	0.037412655
29	0xbd690050	-0.056885064
30	0xbd4e5bb1	-0.050380412
31	0x3e0468dc	0.12930626
32	0x3e118235	0.14209826
33	0x3b190a14	0.0023351954
34	0xbda30489	-0.079598494
35	0x3e881507	0.26578543
36	0xbde8d700	-0.11369133
37	0x3db2a75c	0.087233275
38	0x3e39c684	0.18142134
39	0x3e50912e	0.20367882
40	0x3daf14b8	0.08548874
41	0xbd59bb4c	-0.053157136
42	0xbdd6d69d	-0.10490153
43	0x3e301434	0.17195207
44	0x3d6fc6da	0.05853925
45	0xbe3507d1	-0.17678763
46	0x3cce66d7	0.025195522
47	0x3c033975	0.008009304
48	0xbe09f84b	-0.13473623
49	0x3d965c25	0.07341794
50	0x3e2fb6ac	0.17159528
51	0x3d58f8b0	0.052971542
52	0x3e8b0342	0.27150923
53	0xbc725360	-0.014790386
54	0xbd92d0b6	-0.07168715
55	0xbe367d22	-0.17821172
56	0x3dc5e73e	0.096632466
57	0x3d1f22fd	0.038851727
58	0x3d845df9	0.06463236
59	0x3e5def56	0.2167333
60	0xbd855a4a	-0.06511362
61	0x3a0ea23d	0.00054410455
62	0xbbd37dab	-0.00645419
63	0x3e6f55f8	0.23372638

critic.4.weight f4 [1, 64]
0	0x3e17d39d	0.14826818
1	0x3d6fc1a3	0.058534276
2	0xbd176a95	-0.03696688
3	0xbdf09b41	-0.11748362
4	0x3c04bcb0	0.008101627
5	0xc000574b	-2.005328
6	0xbdfce16f	-0.123476855
7	0x3e22b52d	0.15889426
8	0x3daf4e5e	0.08559869
9	0x3e243f9f	0.16039895
10	0x3d72c62b	0.05927102
11	0x3dfb628f	0.12274658
12	0x3c58fde2	0.013244124
13	0x3d757898	0.05992946
14	0x3d6a64e6	0.05722513
15	0x3da966f5	0.082715906
16	0x3ca8a47a	0.020586241
17	0xba3012a8	-0.0006716647
18	0x3d03f8c9	0.032219682
19	0xbd36211e	-0.044465177
20	0x3d7bd2a1	0.06148017
21	0x3dc0ee27	0.09420424
22	0x3d4d7bb6	0.050166808
23	0xbd9b08e0	-0.07570052
24	0x3a8cf12c	0.0010753027
25	0xbde9078f	-0.11378395
26	0x3e1cf942	0.1532946
27	0x3e28afce	0.16473314
28	0xbbabef90	-0.005247064
29	0x3ddcd5d9	0.10782976
30	0x3d61c562	0.05511988
31	0xbe36d186	-0.17853364
32	0xbd46acf7	-0.048504796
33	0x3da12cab	0.07869848
34	0x3d903cae	0.07042824
35	0xbde4a8c2	-0.111650005
36	0x3c903d45	0.01760734
37	0x3d5915d6	0.05299934
38	0xbe2af87f	-0.16696356
39	0xbf0e7e58	-0.55661535
40	0x3d4f1693	0.050558638
41	0x3dbc120d	0.091831304
42	0x3d9f4423	0.07776668
43	0xbe0f3cfb	-0.13988106
44	0xbc51bafc	-0.012800928
45	0x3d9262df	0.071477644
46	0x3dcad7cc	0.09904441
47	0xbaca888f	-0.0015452075
48	0x3dc4d9ac	0.0961183
49	0x3d86c14e	0.06579839
50	0xbd3d0c99	-0.046154592
51	0x3c91ff53	0.017821943
52	0xbd7d1833	-0.061790656
53	0x3b8b998c	0.0042602476
54	0x3d69f1f9	0.05711553
55	0x3cf511af	0.029915659
56	0xbdee1161	-0.116244085
57	0x3dfe6c05	0.12422947
58	0x3e0d1631	0.13777997
59	0xbde7e3b4	-0.11322728
60	0x3dcbf297	0.0995838
61	0x3db4318b	0.08798512
62	0x3d54e968	0.051980406
63	0xbd7603c5	-0.06006219
