HAC-Baseline/preTrained/BipedalWalkerHardcore-v3/3level/HAC_BipedalWalkerHardcore-v3_surprise_sync_level_0_actor.pth (torch, 32151 bytes, 6 tensors)

actor.0.weight f4 [64, 48]
-0.2232921 -0.3734886 0.84618294 0.44275802 0.22645205 0.0033500222 -0.7600224 0.3509424
0.093003586 -0.38521746 -0.30153888 -0.2594216 0.1409174 -0.45515004 -0.031280555 -0.112813205
0.016947366 -0.08328025 -0.17354126 -0.064238586 -0.17499743 -0.089270525 -0.09737204 0.15377994
-0.4645152 -0.9753528 1.0229384 -0.07633263 -0.0875303 -0.34346566 0.51275414 -0.024763457
-0.0017434623 -0.40980196 0.93944716 0.4693811 0.9185424 0.364367 -0.0071078385 -0.09163713
-0.025214275 -0.101626046 0.0020832052 0.07007725 0.03898404 -0.12121291 0.025929075 0.059769806
0.1936999 -0.1485629 -0.20222946 0.6483161 -0.027887974 0.22280149 -0.46847528 0.008077285
-0.2599025 0.16813964 0.33401975 -0.45594335 -0.11151885 0.113002196 -0.046365082 -0.14057839
-0.046675716 -0.121003546 0.028566442 -0.17636012 -0.1707724 -0.16097769 0.039448705 -0.024100332
0.43990085 0.120972134 -0.6387763 0.94732815 -0.20702682 -0.20199656 0.35946065 0.6413922
0.15808338 -0.2388194 1.7580763 0.06728808 -0.17965592 -0.86361635 0.14148976 -0.057208996
-0.018403258 0.09857382 0.0852701 0.021172997 0.14332089 0.17866422 -0.14067887 -0.104234144
0.46547213 0.07284461 -0.22894421 -0.29855245 0.039579354 -0.012563057 0.4325361 -0.7312568
-0.12690595 -0.5651656 0.53605187 0.2283701 0.5513295 0.30907214 0.21856041 0.10163458
0.11895103 -0.060777195 -0.020776978 0.02065654 0.08766685 -0.06737602 0.06357745 -0.054820504
0.30677748 0.27604288 -0.050652437 0.988292 0.307903 -0.22909988 -0.1528485 0.2811118
0.61953294 -0.12833084 -0.92633057 -0.2805317 -0.067328356 0.6506992 -0.01863952 -0.0021848204
-0.066587135 -0.09131545 0.09321098 0.014384734 0.096652046 -0.07457272 0.19090532 -0.081888415
0.7841252 -0.3696744 -0.21380606 -0.28029898 -0.16076161 -0.45754313 0.43600646 -0.29708216
-0.20584577 -0.19247806 0.6018494 -0.54075146 0.6815837 0.07189541 0.2043245 0.07887683
0.2884532 0.1907544 0.17742915 0.034603626 0.22754695 0.12662326 0.13974789 0.12759633
0.12373861 0.49021167 -0.23848556 -0.31153688 0.339024 -0.06314354 0.08056255 -0.27325565
0.1798817 0.38889605 -1.1886984 -0.38746032 -1.0209719 0.24228297 0.12819469 0.05698892
0.18793105 0.18673165 0.16338496 0.084963545 0.06951551 0.12566587 0.14485767 -0.037849486
-0.22934791 0.5138081 -0.86570436 -0.51337314 -0.0871604 0.10754851 0.36932853 0.33244643
-0.093341015 0.17447563 0.04740893 0.43281898 -0.51552004 -0.017955052 -0.37019792 -0.41118506
-0.32893908 -0.23314878 -0.18983419 -0.2136239 -0.4054641 -0.366912 -0.18766895 0.04650303
0.08220217 0.37379438 -0.68656665 0.45089507 -0.23191006 -0.22943541 0.47549033 0.34561712
-0.3758124 0.26003549 0.40512142 0.26218677 -0.32120624 -0.26137114 -0.30273888 -0.07964882
-0.11798287 -0.06581901 -0.11166401 -0.14926977 -0.18562275 -0.2992097 -0.20722988 -0.21543255
0.007756583 0.40718007 -0.72356814 -0.42216477 -0.40310887 -0.06830022 0.20712548 -0.42721957
-0.48740464 0.17250635 -0.610005 -0.398746 0.4212606 -0.34673095 0.042341195 -0.057250075
00000000: afa6 64be e639 bfbe 729f 583f 2eb1 e23e
00000010: 0ce3 673e 0c8c 5b3b d490 42bf b9ae b33e
00000020: aa78 be3d 393b c5be 4e63 9abe e8d2 84be
00000030: a74c 103e 6d09 e9be 0a20 00bd 9c0a e7bd
00000040: 34d5 8a3c d68e aabd cdb4 31be 858f 83bd
00000050: 8732 33be 77d3 b6bd fe6a c7bd 7d78 1d3e
00000060: f0d4 edbe b9b0 79bf a5ef 823f 4854 9cbd
00000070: 1643 b3bd bbda afbe db43 033f bcdc cabc
00000080: e384 e4ba 90d1 d1be 9c7f 703f b852 f03e
00000090: 9825 6b3f 508e ba3e dfe8 e8bb 3fac bbbd
000000a0: 2b8e cebc 5121 d0bd 6286 083b a984 8f3d
000000b0: bbad 1f3d 793e f8bd 3669 d43c 2fd1 743d
000000c0: 4459 463e df20 18be 3d15 4fbe 0bf8 253f
000000d0: 5275 e4bc 1326 643e fedb efbe 9756 043c
000000e0: f111 85be cc2c 2c3e a304 ab3e 6871 e9be
000000f0: ff63 e4bd b26d e73d 50e9 3dbd c8f3 0fbe
00000100: 092f 3fbd b5d0 f7bd 2c04 ea3c bf97 34be
00000110: f6de 2ebe 56d7 24be f794 213d 0f6e c5bc
00000120: af3a e13e 3dc0 f73d d886 23bf 1984 723f
00000130: d7fe 53be 30d8 4ebe 3a0b b83e 4732 243f
00000140: 9ce0 213e 138d 74be a508 e13f 55ce 893d
00000150: b9f7 37be f615 5dbf b1e2 103e fb53 6abd
00000160: 6ec2 96bc 12e1 c93d 17a2 ae3d fe72 ad3c
00000170: b6c2 123e c1f3 363e 1f0e 10be b678 d5bd
00000180: 5d52 ee3e 8e2f 953d 5a70 6abe dedb 98be
00000190: f61d 223d 48d5 4dbc 5f75 dd3e a533 3bbf
000001a0: a2f3 01be b1ae 10bf b23a 093f dad9 693e
000001b0: ee23 0d3f b43e 9e3e 4dce 5f3e ca25 d03d
000001c0: 999c f33d 82f1 78bd 7b34 aabc e737 a93c
000001d0: ad8a b33d 70fc 89bd e534 823d 778b 60bd
000001e0: f011 9d3e 7e55 8d3e ee78 4fbd b400 7d3f
000001f0: 76a5 9d3e 2999 6abe 5184 1cbe e3ed 8f3e
00000200: b699 1e3f 2969 03be 0024 6dbf daa1 8fbe
00000210: 73e3 89bd 3994 263f e8b1 98bc 342f 0fbb
00000220: d65e 88bd 9803 bbbd 66e5 be3d f3ad 6b3c
00000230: 82f1 c53d 95b9 98bd af7c 433e 1db5 a7bd
00000240: 6ebc 483f f745 bdbe faef 5abe 5983 8fbe
00000250: b19e 24be 1843 eabe 3d3c df3e 271b 98be
00000260: 3cc9 52be f818 45be cd12 1a3f b06e 0abf
00000270: 457c 2e3f e73d 933d 713a 513e 2d8a a13d
00000280: 23b0 933e 1f55 433e fdaf 353e 88bc 0d3d
00000290: 1102 693e 87a9 013e 121a 0f3e 9da8 023e
000002a0: ab6a fd3d 06fd fa3e 8f35 74be c381 9fbe
000002b0: 8e94 ad3e 6651 81bd fafd a43d 2ae8 8bbe
000002c0: e932 383e 621d c73e 4527 98bf 3361 c6be
000002d0: 35af 82bf 0719 783e 7845 033e 376d 693d
000002e0: ff70 403e 9536 3f3e 634e 273e 5e01 ae3d
000002f0: 265e 8e3d 8eae 003e 9255 143e 1008 1bbd
00000300: 2eda 6abe ed88 033f cd9e 5dbf 6c6c 03bf
00000310: 2781 b2bd 6542 dc3d a118 bd3e 6b36 aa3e
00000320: 9329 bfbd bda9 323e de2f 423d 739a dd3e
00000330: 1ff9 03bf 7916 93bc 958a bdbe d986 d2be
00000340: b46a a8be 8ebe 6ebe e563 42be 39c0 5abe
00000350: fe98 cfbe e4db bbbe 4a2c 40be f679 3e3d
00000360: 9c59 a83d fa61 bf3e d5c2 2fbf b8db e63e
00000370: d579 6dbe 1ef1 6abe 7873 f33e baf4 b03e
00000380: 7c6a c0be 5f23 853e 136c cf3e 583d 863e
00000390: 2575 a4be 70d2 85be 9700 9bbe ec1e a3bd
000003a0: 01a1 f1bd 1ecc 86bd 1ab0 e4bd 2dda 18be
000003b0: e413 3ebe 0432 99be 1234 54be 5a9a 5cbe
000003c0: ef2a fe3b e879 d03e c33b 39bf fb25 d8be
000003d0: 4964 cebe fce0 8bbd b418 543e 86bc dabe
000003e0: 1a8d f9be 81a5 303e 4a29 1cbf 7028 ccbe
000003f0: 78af d73e b886 b1be f66d 2d3d 0e7f 6abd

actor.0.bias f4 [64]
0.0213998 -0.08259586 0.013576924 -0.16755302 -0.080883645 0.045172773 -0.044233967 -0.19858181
-0.06178524 -0.18506706 -0.056706395 -0.21931067 -0.28698134 -0.1392872 -0.05280483 0.00056617724
-0.046731696 0.0004311966 0.001849153 -0.12539919 -0.14006671 0.1393451 0.11416264 -0.090504594
-0.23326512 0.0037050636 -0.18137386 0.1673091 0.020940265 0.24776268 -0.060084466 -0.1106313
0.09782059 0.13297686 -0.19837943 0.09562271 -0.19083384 -0.23457894 -0.21153378 -0.0031505225
-0.21664366 0.01065248 -0.11127149 -0.05015884 -0.059513267 -0.012000571 0.15418236 -0.0053235656
0.010318983 0.07958265 0.06355776 0.042393345 0.06627342 -0.1412028 -0.1767292 0.06863836
0.057779748 0.13881372 0.055564832 0.04192099 -0.03121183 -0.058555793 -0.0026770597 0.051430356
00000000: a24e af3c 0528 a9bd bf71 5e3c 0593 2bbe
00000010: 53a6 a5bd 1607 393d ad2e 35bd 0859 4bbe
00000020: 8512 7dbd 3882 3dbe f744 68bd fa92 60be
00000030: 38ef 92be 4ea1 0ebe e149 58bd 836b 143a
00000040: bc69 3fbd 3a12 e239 475f f23a a568 00be
00000050: a66d 0fbe 7bb0 0e3e 1ace e93d 795a b9bd
00000060: 0ddd 6ebe a7d0 723b 12ba 39be 1453 2b3e
00000070: eb8a ab3c 80b5 7d3e 211b 76bd aa92 e2bd
00000080: 2956 c83d 162b 083e fa23 4bbe d7d5 c33d
00000090: f269 43be 7635 70be 509c 58be ff78 4ebb
000000a0: d6d7 5dbe bd87 2e3c 4fe2 e3bd 5b73 4dbd
000000b0: 2fc4 73bd 0b9e 44bc fbe1 1d3e 4e71 aebb
000000c0: f410 293c 3afc a23d 922a 823d a5a4 2d3d
000000d0: 5cba 873d 7897 10be 80f8 34be 4592 8c3d
000000e0: 75aa 6c3d 2f25 0e3e f397 633d 58b5 2b3d
000000f0: f4af ffbc 33d8 6fbd 9c71 2fbb a3a8 523d

actor.2.weight f4 [64, 64]
0.05647372 -0.09311787 -0.26383618 -0.14506675 0.15603058 -0.065934196 -0.49525425 -0.33555323
0.30209503 0.90586257 0.25007486 -0.48893836 -0.4698741 -0.6548771 0.17263049 0.28403684
-0.37182376 -0.44464064 -0.15599787 0.12322621 -0.09267163 0.6028053 -0.24682373 0.28564698
0.06634837 0.14050317 0.32294187 0.27953148 -0.39778423 0.11123562 -0.6008843 -0.040538415
0.62738544 -0.33414304 0.2982861 0.21891317 -0.39784837 -0.2304674 -0.14579424 -0.22676593
-0.13625614 0.26098934 -0.03340587 -0.31077763 -0.20901504 0.33503795 0.25371033 -0.34676957
0.39915022 0.23113616 -0.26094508 0.04153002 -0.57075703 0.6016237 0.35662237 0.12595789
-0.20938802 -0.29778048 0.079924345 0.47672042 -0.043399625 -0.010489677 -0.044435948 -0.6696023
-0.06692437 0.51319534 -0.120778255 0.026525015 -0.23266332 -0.15439466 0.29518592 -0.17044447
-0.2846389 -0.24261549 -0.051218823 -0.14800467 -0.02694702 0.32506844 -0.13083643 -0.17369325
0.006354455 0.34240973 -0.11602561 -0.0014242014 -0.16535883 0.2085754 -0.28401726 -0.20983066
-0.2024331 -0.2272654 -0.034311257 -0.025185976 -0.1452408 -0.5028624 -0.16639698 0.28700098
-0.10745691 0.33809626 0.35615245 -0.015966518 0.58216244 -0.44011524 -0.6398493 -0.4612457
-0.2128122 -0.40940607 -0.025691774 -0.17529586 -0.45953587 -0.040676862 -0.07543177 0.46213242
0.054122984 -0.008259776 0.15371616 -0.61918575 -0.15474951 0.22861128 -0.50077534 0.25525057
0.18075164 0.15231593 0.022545688 -0.23792262 -0.26780865 -0.02436204 0.69975984 0.055521645
-0.08838558 -0.10896786 -0.016020019 -0.06268013 -0.035619512 0.07404065 -0.11328065 0.044056267
-0.11639869 -0.028463572 -0.14168759 -0.09331338 -0.106056154 -0.0050968435 -0.09881901 0.026281977
-0.067743614 -0.052472133 -0.018438738 0.104740575 -0.04340881 0.042432252 0.00796655 0.07602532
0.025086915 0.019112026 -0.0766804 -0.07093776 -0.0077503263 0.030893631 -0.015255961 0.008256732
-0.1063402 -0.034732733 -0.02908665 -0.10595981 -0.09139484 -0.12763907 0.0075775133 -0.0971439
-0.05406109 -0.036820453 -0.07627009 -0.057392403 -0.015864074 0.0032930635 0.025121776 -0.090122126
0.031866897 -0.04732982 -0.077200815 -0.07477071 0.0009894038 0.0061556883 -0.013448082 -0.09304139
0.05349845 -0.018825341 -0.20077163 -0.028447783 -0.0646776 -0.082795754 -0.13609838 -0.13889953
-0.025967158 -0.26957804 0.40770486 -0.63420475 -0.2381239 0.16763046 -0.40706873 0.0616671
0.19089659 -0.12678677 0.17719887 0.052175116 -0.67113554 0.16659184 0.53063333 -0.10464423
-0.29107413 0.07164296 -0.13311365 -0.040494148 -0.018369673 0.06928151 0.09951951 -0.061905082
0.0047696773 -0.15167381 -0.37229794 -0.48404264 0.047486205 -0.5253595 0.029014606 -0.23983543
0.36898422 -0.67347115 -0.02579718 0.222736 -0.61628157 0.20584817 -0.33511108 -0.46319625
-0.18372653 -0.21788096 0.15449399 -0.07803166 -0.045801807 -0.18338814 -0.47336227 -0.1475372
-0.39096397 0.030802239 -0.4007928 -0.043336287 -0.011950779 0.58904713 -0.23211385 -0.013481868
-0.33742583 0.45528993 -0.15706457 0.37184885 0.31730053 -0.26653856 -0.6029427 0.049237188
00000000: fd50 673d 95b4 bebd 8915 87be 618c 14be
00000010: 7bc6 1f3e 8208 87bd f791 fdbe a2cd abbe
00000020: 33ac 9a3e 9ce6 673f d009 803e 2156 fabe
00000030: 5793 f0be 07a6 27bf 0cc6 303e 476d 913e
00000040: af5f bebe f0a7 e3be e8bd 1fbe 065e fc3d
00000050: a0ca bdbd 7351 1a3f 5cbf 7cbe 5240 923e
00000060: a7e1 873d 10e0 0f3e a358 a53e c01e 8f3e
00000070: 60aa cbbe 80cf e33d 8ed3 19bf 9c0b 26bd
00000080: 559c 203f cc14 abbe f5b8 983e c62a 603e
00000090: c8b2 cbbe a5ff 6bbe 164b 15be 5435 68be
000000a0: bb86 0bbe 65a0 853e 98d4 08bd 3f1e 9fbe
000000b0: 0a08 56be 188a ab3e 52e6 813e c88b b1be
000000c0: 6b5d cc3e f5ae 6c3e 989a 85be 621b 2a3d
000000d0: 221d 12bf 0304 1a3f 3597 b63e 1bfb 003e
000000e0: d069 56be af76 98be 60af a33d b314 f43e
000000f0: cec3 31bd e5dc 2bbc 7802 36bd 0e6b 2bbf
00000100: a50f 89bd c560 033f 975a f7bd fd4a d93c
00000110: 4b3f 6ebe a219 1ebe 9c22 973e ff88 2ebe
00000120: 31bc 91be 3270 78be d4ca 51bd 898e 17be
00000130: ffbf dcbc 5f6f a63e fcf9 05be a5dc 31be
00000140: 0839 d03b 5450 af3e d69e edbd 45ac baba
00000150: d353 29be ca94 553e b66a 91be d9dd 56be
00000160: 9f4a 4fbe 43b8 68be f689 0cbd d252 cebc
00000170: 01ba 14be 97bb 00bf f863 2abe cbf1 923e
00000180: 5e12 dcbd f41a ad3e 9d59 b63e 37cc 82bc
00000190: 9908 153f c956 e1be 2acd 23bf 6528 ecbe
000001a0: 71eb 59be ac9d d1be 8e77 d2bc c280 33be
000001b0: 4948 ebbe c89c 26bd f97b 9abd 9f9c ec3e
000001c0: 10b0 5d3d 0354 07bc c567 1d3e f582 1ebf
000001d0: a876 1ebe 1319 6a3e d032 00bf 34b0 823e
000001e0: f516 393e b5f8 1b3e bcb1 b83c fda1 73be
000001f0: 371e 89be e792 c7bc 7623 333f aa6a 633d
00000200: 8003 b5bd 8b2a dfbd 6a3c 83bc 715e 80bd
00000210: c4e5 11bd a0a2 973d afff e7bd 5874 343d
00000220: 7062 eebd 702c e9bc 8d16 11be 161b bfbd
00000230: f833 d9bd 6c03 a7bb 9f61 cabd 4d4d d73c
00000240: 2abd 8abd 05ed 56bd d60c 97bc 3a82 d63d
00000250: 70cd 31bd 71cd 2d3d 2286 023c 2ab3 9b3d
00000260: 1383 cd3c d390 9c3c 9d0a 9dbd d147 91bd
00000270: 73f6 fdbb a414 fd3c 23f4 79bc 3e47 073c
00000280: e4c8 d9bd e943 0ebd 2047 eebc 7501 d9bd
00000290: 382d bbbd d1b3 02be ca4c f83b 62f3 c6bd
000002a0: 296f 5dbd 0bd1 16bd 7e33 9cbd 4c14 6bbd
000002b0: 60f5 81bc 70d0 573b 2fcc cd3c f391 b8bd
000002c0: dd86 023d eadc 41bd 761b 9ebd 6321 99bd
000002d0: e2ae 813a a8b5 c93b 5855 5cbc 7c8c bebd
000002e0: 3121 5b3d 9a37 9abc 1497 4dbe 530b e9bc
000002f0: b175 84bd d290 a9bd 605d 0bbe ae3b 0ebe
00000300: 14b9 d4bc 2206 8abe b1be d03e 3e5b 22bf
00000310: c0d6 73be 52a7 2b3e 506b d0be a496 7c3d
00000320: 657a 433e 64d4 01be 9f73 353e 93b5 553d
00000330: 8acf 2bbf 0d97 2a3e 96d7 073f b74f d6bd
00000340: ab07 95be 8bb9 923d f24e 08be 31dd 25bd
00000350: ff7b 96bc 77e3 8d3d e3d0 cb3d 2f90 7dbd
00000360: f44a 9c3b 6150 1bbe d69d bebe 70d4 f7be
00000370: e580 423d f67d 06bf 0ab0 ed3c 6b97 75be
00000380: 80eb bc3e 9b68 2cbf 9c54 d3bc e814 643e
00000390: a1c4 1dbf ddc9 523e ae93 abbe 0f28 edbe
000003a0: cf22 3cbe 301c 5fbe ac33 1e3e 10cf 9fbd
000003b0: ad9a 3bbd 1aca 3bbe 8a5c f2be fe13 17be
000003c0: 6e2c c8be fa54 fc3c b734 cdbe 6481 31bd
000003d0: 33cd 43bc cbcb 163f 41af 6dbe 0ee3 5cbc
000003e0: 14c3 acbe c31b e93e 89d5 20be f962 be3e
000003f0: 3775 a23e be77 88be 745a 1abf efac 493d

actor.2.bias f4 [64]
-0.19879436 -0.08931228 -0.113656506 0.023835106 -0.18180491 0.2495476 -0.03581986 -0.14903979
-0.25638494 0.06745089 -0.11350775 -0.10646926 -0.09351978 0.04214173 -0.08953977 0.027398717
0.048875265 0.17348707 -0.013003164 -0.09001311 -0.2854328 -0.2046633 -0.07070483 -0.108276315
-0.1503027 0.0013165313 0.044055697 -0.18676393 -0.3177273 0.0961171 0.04871317 0.13634843
-0.038412247 -0.10383873 -0.16763076 -0.17653686 -0.0011281401 -0.31174716 -0.06611854 -0.0041034445
-0.121509194 -0.17970973 -0.2814249 0.03250863 -0.122101605 0.047794476 -0.081189215 -0.018438563
0.10063395 0.19375354 -0.020220121 -0.2183127 -0.28681165 -0.15119228 -0.24228828 -0.13140008
-0.27465045 0.15644754 -0.077649154 -0.32331106 0.13406977 -0.16476583 -0.24056502 -0.21304645
00000000: c090 4bbe 5be9 b6bd bec4 e8bd d741 c33c
00000010: 112b 3abe 6889 7f3e d8b7 12bd e39d 18be
00000020: e344 83be b123 8a3d c076 e8bd 8e0c dabd
00000030: 4c87 bfbd cf9c 2c3d a060 b7bd 4673 e03c
00000040: 6e31 483d 98a6 313e 390b 55bc cb58 b8bd
00000050: 3f24 92be 4293 51be b2cd 90bd f9bf ddbd
00000060: f3e8 19be 768f ac3a bf73 343d 0b3f 3fbe
00000070: 27ad a2be 0bd9 c43d 7687 473d ec9e 0b3e
00000080: 2956 1dbd 66a9 d4bd 66a7 2bbe 14c6 34be
00000090: 1ade 93ba 539d 9fbe 2869 87bd 3076 86bb
000000a0: d0d9 f8bd d405 38be ed16 90be c527 053d
000000b0: 6810 fabd 24c4 433d 8846 a6bd 780c 97bc
000000c0: 2c19 ce3d 5467 463e aba4 a5bc 5d8d 5fbe
000000d0: fad8 92be 26d2 1abe 6b1a 78be be8d 06be
000000e0: fc9e 8cbe c933 203e 8506 9fbd 0789 a5be
000000f0: 9649 093e 60b8 28be ad56 76be d928 5abe

actor.4.weight f4 [4, 64]
0.7988021 -0.19394808 0.05730324 0.61572576 0.21163185 0.24985224 0.21465564 -0.43840733
0.35052824 0.2285935 -0.15558152 -0.011120725 -0.16142333 0.14622876 0.10304555 0.86910194
0.22856447 -0.066607185 0.1276527 0.044525936 0.07396325 0.25221813 -0.18276556 0.24113263
0.14427741 0.057732403 -0.21977389 -0.27508613 -0.049540784 0.09868185 0.04169863 -0.16723543
-0.41883802 0.084919035 -0.096952625 0.16464041 0.26923743 0.23749967 -0.23767956 -0.054922823
-0.2962615 0.094066024 -0.46912467 0.03391326 -0.1892481 0.68619573 0.07454144 -0.075462334
-0.019484218 0.8760625 0.61362374 -0.14948519 -0.074313276 0.23612909 -0.0648782 0.028380172
0.029976228 -0.10944458 -0.08074877 -0.26682532 -0.3977622 -0.4971895 0.17073122 -0.23750761
-0.11536874 0.31771275 -0.0737332 -0.06781821 0.40427855 0.31867844 0.35811493 -0.0047441297
0.20302995 -0.085022226 0.32628468 -0.19801976 0.34015194 -0.16796501 -0.047317468 -0.0818251
0.27908236 -0.16960081 0.66233677 0.1357029 0.029417986 -0.22092038 -0.76578003 -0.13069598
0.17538753 -0.12858623 -0.094079666 -0.5852811 0.20508446 0.13556193 0.7479969 -0.033745885
-0.16406938 -0.07859748 0.5613639 -0.07260207 0.2192375 -0.25590235 0.302823 -0.19781898
0.13173859 -0.38555214 0.03639327 -0.05197705 0.02597645 0.22736144 0.5727931 -0.053472646
-0.37655342 -0.036238674 0.002214348 0.095165536 -0.36812496 0.15455607 -0.10316579 0.06767984
-0.07601071 -0.18063079 0.010890687 0.43164554 0.26388073 -0.13754414 -0.12930669 -0.324141
0.12597235 0.7190288 0.025846584 -0.059989993 -0.10360188 -0.5775102 0.38276538 -0.49837515
-0.5317915 -0.57899284 -0.032324526 -0.2612995 -0.4636634 1.0646821 0.33493096 0.40046096
0.6609661 0.3370524 -0.07082263 -1.0081222 0.2635132 -0.5943344 0.10948188 -0.0659052
0.37242097 0.9225702 0.6506113 0.218434 0.8559811 -0.49647832 -0.17327808 -0.034424555
-0.49782178 0.04686354 0.25044793 1.0766491 0.03747646 0.190353 0.36150745 0.66800237
-0.11244102 0.24340683 -0.02267432 -0.8456154 -1.0995564 -0.3021664 0.1395449 0.22092451
-0.45656112 0.0504389 0.6260761 0.25385785 0.13343886 0.24245025 -0.43898466 -0.051940534
-0.29244274 -0.53636366 -0.03242882 -0.1285033 0.7027228 -0.47383204 0.9072263 0.5686644
-0.0071855155 -0.4840262 -0.005699014 0.05410564 0.3334481 -0.022561902 -0.29907474 0.07363522
-0.13888925 0.04804384 0.052877765 -0.058218252 -0.42772362 -0.034536786 0.30965483 -0.1148126
-0.25986108 0.32505807 0.2824297 -0.020552816 -0.35422677 -0.005712578 0.18823476 0.16741581
-0.4843816 0.24013846 -0.17059128 0.09758981 0.14956789 0.087142274 -0.16051021 0.36815608
0.08624055 -0.6344152 -0.08885957 -0.14037454 -0.29497483 0.44833988 0.2932741 0.13530672
-0.81078565 -0.58728963 0.23826769 -0.07625386 0.21055129 -0.014623383 -0.09319264 0.2615962
0.26807806 -0.21154746 -0.43464097 -0.12490795 -0.076373 0.48190573 -0.5145445 0.075190134
-0.59939235 0.5670108 0.14040788 -0.012349833 0.15991002 0.09543747 0.33760926 -0.4650697
00000000: 4b7e 4c3f 539a 46be cdb6 6a3d 34a0 1d3f
00000010: 05b6 583e 44d9 7f3e b0ce 5b3e ed76 e0be
00000020: 7078 b33e 6a14 6a3e c350 1fbe b433 36bc
00000030: 284c 25be febc 153e 8c09 d33d 777d 5e3f
00000040: ce0c 6a3e 5969 88bd 64b7 023e d460 363d
00000050: 0b7a 973d bc22 813e e526 3bbe 79eb 763e
00000060: 75bd 133e d078 6c3d 680c 61be 17d8 8cbe
00000070: 47eb 4abd b619 ca3d 2fcc 2a3d c43f 2bbe
00000080: f071 d6be 08ea ad3d 198f c6bd 7f97 283e
00000090: 7dd9 893e 1d33 733e 4562 73be c1f6 60bd
000000a0: 96af 97be b0a5 c03d 1c31 f0be a1e8 0a3d
000000b0: 41ca 41be 86aa 2f3f 2fa9 983d ff8b 9abd
000000c0: 5e9d 9fbc a245 603f 7216 1d3f a512 19be
000000d0: 8f31 98bd d3cb 713e ddde 84bd 897d e83c
000000e0: b590 f53c 7b24 e0bd 9c5f a5bd 549d 88be
000000f0: 7da7 cbbe 9f8f febe 2ad4 2e3e 3235 73be
00000100: 7246 ecbd 3fab a23e 6f01 97bd 46e4 8abd
00000110: 99fd ce3e d229 a33e d75a b73e a574 9bbb
00000120: 15e7 4f3e 2220 aebd c90e a73e b1c5 4abe
00000130: 6528 ae3e 05ff 2bbe f6cf 41bd eb93 a7bd
00000140: e2e3 8e3e d6ab 2dbe e78e 293f b3f5 0a3e
00000150: fdfd f03c f438 62be 290a 44bf 2bd5 05be
00000160: ca98 333e 1cac 03be d7ac c0bd fbd4 15bf
00000170: a901 523e bfd0 0a3e ba7c 3f3f 2039 0abd
00000180: ce01 28be b7f7 a0bd 8bb5 0f3f 65b0 94bd
00000190: cc7f 603e a205 83be 9e0b 9b3e 0f91 4abe
000001a0: 7be6 063e 1767 c5be 1c11 153d e3e5 54bd
000001b0: 90cc d43c 70d1 683e 92a2 123f 2206 5bbd
000001c0: 9ccb c0be 016f 14bd 981e 113b 26e6 c23d
000001d0: e07a bcbe f243 1e3e 9648 d3bd ba9b 8a3d
000001e0: 81ab 9bbd 47f7 38be da6e 323c a500 dd3e
000001f0: 601b 873e 5fd8 0cbe f968 04be cff5 a5be
00000200: e5fe 003e 4512 383f 37bc d33c 11b8 75bd
00000210: 392d d4bd b5d7 13bf d3f9 c33e 072b ffbe
00000220: 7d23 08bf e038 14bf b966 04bd 0cc9 85be
00000230: 4a65 edbe 8147 883f 127c ab3e 3809 cd3e
00000240: 1335 293f 2292 ac3e 740b 91bd 260a 81bf
00000250: 34eb 863e 4d26 18bf 0938 e03d 4ef9 86bd
00000260: f6ad be3e 902d 6c3f 768e 263f 2aad 5f3e
00000270: 9421 5b3f 6832 febe cf6f 31be c300 0dbd
00000280: 7fe2 febe fcf3 3f3d b63a 803e a3cf 893f
00000290: eb80 193d e6eb 423e 8117 b93e 3402 2b3f
000002a0: 7a47 e6bd a43f 793e 7fbf b9bc 407a 58bf
000002b0: 44be 8cbf 8eb5 9abe dce4 0e3e 093a 623e
000002c0: 61c2 e9be 0599 4e3d 8646 203f a8f9 813e
000002d0: 32a4 083e e144 783e 99c2 e0be 99bf 54bd
000002e0: 0ebb 95be 214f 09bf 15d4 04bd 5e96 03be
000002f0: a4e5 333f 1d9a f2be fc3f 683f fd93 113f
00000300: 7974 ebbb 48d2 f7be cbbe babb e09d 5d3d
00000310: b6b9 aa3e bdd3 b8bc 5320 99be 10ce 963d
00000320: fc38 0ebe 9ec9 443d 5b96 583d 4376 6ebd
00000330: 97fe dabe 7276 0dbd 148b 9e3e de22 ebbd
00000340: 830c 85be 036e a63e a09a 903e 615e a8bc
00000350: 365d b5be 9430 bbbb 9dc0 403e 0d6f 2b3e
00000360: dd00 f8be dbe6 753e 7baf 2ebe 2bdd c73d
00000370: 5328 193e a677 b23d ca5c 24be f47e bc3e
00000380: e39e b03d 0969 22bf 02fc b5bd 58be 0fbe
00000390: f106 97be ce8c e53e 0628 963e d88d 0a3e
000003a0: a68f 4fbf 9d58 16bf 72fc 733e fc2a 9cbd
000003b0: c29a 573e ea96 6fbc c8db bebd f0ef 853e
000003c0: 8741 893e e69f 58be 4389 debe bdcf ffbd
000003d0: 7369 9cbd 59bc f63e 30b9 03bf 49fd 993d
000003e0: c771 19bf 9f27 113f 15c7 0f3e f456 4abc
000003f0: 74bf 233e b874 c33d 1fdb ac3e 9e1d eebe

actor.4.bias f4 [4]
0.47366983 0.0318547 -0.32466105 0.16112213
00000000: da84 f23e 137a 023d f939 a6be 33fd 243e
