HAC-Baseline/preTrained/Ant-v3/2level/HAC_MountainCarContinuous-v0_surprise_sync_solved_level_1_actor.pth (torch, 20375 bytes, 6 tensors)

actor.0.weight f4 [64, 4]
0.18071115 0.31503904 0.49962085 0.26134104 -0.2465379 -0.8302037 -0.22574598 0.30005977
0.14985971 1.7425314 -0.2760606 0.4248305 -0.3484288 -2.504938 -0.41629493 0.46980625
-0.23601335 -0.3391018 0.18658753 0.3813629 -0.036364555 0.20925784 0.45746619 -0.4063325
0.25076675 2.0736582 -0.21957849 0.30218533 0.18026447 -0.41555133 -0.71949506 -0.003150496
0.42057377 0.19013035 -0.06856817 0.38473952 -0.36651844 0.25731304 0.4599832 0.29182446
-0.050478816 0.45982105 0.26329386 0.24456376 0.40536225 0.49224073 0.34969223 0.40742856
0.047127664 0.39186853 0.26868957 -0.24588919 0.26757896 1.4504696 -0.10627822 0.43699148
0.046282914 1.7998989 0.1577609 0.2863298 0.30209994 0.65125895 0.5650699 -0.2870045
-0.113934055 0.91089624 0.56382984 0.1814725 0.4824195 -0.26848513 -0.039544225 -0.041687667
0.40748447 0.472026 0.12619442 -0.4040708 -0.3706968 -1.0804858 -0.4423507 -0.07863865
-0.25146425 0.1521982 -0.20151119 -0.66925716 0.3267181 -0.44329798 -0.04887998 0.48141533
0.18503554 0.62185293 0.3224363 0.01020807 0.20476137 1.326852 0.653182 -0.11009474
0.22964913 -1.3882462 0.6151968 0.47756666 -0.540676 0.7672269 -0.29906482 -0.3522886
0.14719114 -0.12379703 0.15938504 -0.19374077 0.31316882 0.96758443 -0.32171264 -0.3249362
-0.09023944 0.4865932 -0.23004042 -0.40869886 0.12334557 -0.6856231 -0.5887608 -0.27622536
0.052318037 -0.18055117 -0.032762706 0.054980874 0.12159355 -1.0322429 -0.7127858 -0.8229494
-0.7242312 -1.2574081 0.7623932 0.7499812 0.21184587 0.060156584 -0.009529114 -0.4529631
0.4463004 0.4832272 -0.0028501153 0.090331376 0.042301636 1.3539791 0.23668922 0.09816031
-0.20771167 0.18166858 0.16302778 -0.48837334 0.18548538 1.0778846 0.42856258 0.1817375
-0.1662179 -1.2450074 -0.39908972 0.14465514 -0.4867257 0.5838647 -0.3098569 -0.26297587
0.020865679 0.32811928 -0.0658769 0.359043 -0.21570957 1.6423278 0.37419957 0.43671396
0.19168282 -0.33891726 0.47579905 -0.48149002 -0.22271048 -3.4492433 -0.061891813 0.27593365
0.10353774 -0.430318 0.48275357 0.46927464 0.24658889 -0.4897911 0.27932346 0.14266104
-0.061813593 -0.41886544 0.42360866 -0.1494695 -0.5506972 1.5389156 0.23537162 0.21917257
0.3529729 1.7586573 -0.04914361 -0.014034215 0.59758174 1.8145285 -0.7292269 -0.255596
-0.4735146 1.2498701 0.3833696 0.34796682 0.017660562 1.4369118 -0.30122972 0.5150689
0.08225447 -0.9003507 -0.6279894 -0.88092244 -0.14225149 0.36571318 0.029355466 -0.23697048
0.13918108 -0.3470652 0.14904207 0.34138483 0.2431162 -0.15223008 -0.1701212 0.20842052
0.3427446 1.1824145 0.021766458 0.1266984 -0.04230327 -1.3898448 -0.34390527 0.62925273
-0.48496342 1.2612237 0.611951 0.0147047285 -0.22916365 1.4014367 -0.034803364 -0.21220684
0.38897797 0.84135556 -0.6072642 -0.34939528 0.06350432 0.070741266 0.7428341 -0.16323063
0.28120136 0.024252176 0.26543885 0.00876379 -0.16723776 1.5119733 -0.15499322 0.39666814
00000000: 580c 393e cc4c a13e 4ece ff3e 7ece 853e
00000010: 6e74 7cbe 3b88 54bf f429 67be 6fa1 993e
00000020: d374 193e 450b df3f d157 8dbe 6283 d93e
00000030: 4265 b2be e750 20c0 9c24 d5be 728a f03e
00000040: 7cad 71be c09e adbe cd10 3f3e ff41 c33e
00000050: 00f3 14bd b047 563e 0239 ea3e d00a d0be
00000060: 8064 803e d1b6 0440 2fd9 60be 09b8 9a3e
00000070: 4097 383e 25c3 d4be d430 38bf 8d78 4ebb
00000080: 7255 d73e 88b1 423e 786d 8cbd 94fc c43e
00000090: 4ea8 bbbe 89be 833e eb82 eb3e 046a 953e
000000a0: e0c2 4ebd aa6d eb3e 74ce 863e ec6e 7a3e
000000b0: a48b cf3e fa06 fc3e dc0a b33e 7a9a d03e
000000c0: f008 413d fea2 c83e ae91 893e 60ca 7bbe
000000d0: 1c00 893e fda8 b93f 65a8 d9bd 59bd df3e
000000e0: 2793 3d3d 1663 e63f 138c 213e d299 923e
000000f0: d8ac 9a3e e8b8 263f 6ca8 103f 41f2 92be
00000100: 4256 e9bd 7f30 693f 2757 103f edd3 393e
00000110: b0ff f63e e276 89be 20f9 21bd b0c0 2abd
00000120: cea1 d03e 64ad f13e 1c39 013e 5ee2 cebe
00000130: f9cb bdbe 5c4d 8abf ca7b e2be 4d0d a1bd
00000140: ecbf 80be d8d9 1b3e f358 4ebe 7054 2bbf
00000150: 9847 a73e f4f7 e2be 6036 48bd 127c f63e
00000160: f579 3d3e c131 1f3f 5f16 a53e c03f 273c
00000170: f7ac 513e 49d6 a93f f036 273f 5a79 e1bd
00000180: 2429 6b3e 0db2 b1bf 8a7d 1d3f 9e83 f43e
00000190: be69 0abf fb68 443f 061f 99be 2c5f b4be
000001a0: 46b9 163e 4c89 fdbd d535 233e fb63 46be
000001b0: aa57 a03e 9db3 773f 85b7 a4be 0a5e a6be
000001c0: 75cf b8bd be22 f93e b78f 6bbe fa40 d1be
000001d0: 9a9c fc3d ff84 2fbf 07b9 16bf 696d 8dbe
000001e0: 704b 563d 68e2 38be 3032 06bd a033 613d
000001f0: 0a06 f93d 8920 84bf 2179 36bf d0ac 52bf
00000200: 3767 39bf c0f2 a0bf 332c 433f c5fe 3f3f
00000210: 20ee 583e c066 763d 0020 1cbc c8ea e7be
00000220: 7c81 e43e 8e69 f73e 00c9 3abb a8ff b83d
00000230: 7b44 2d3d 304f ad3f a95e 723e 4608 c93d
00000240: 5eb2 54be 5407 3a3e c1f0 263e 120c fabe
00000250: e1ef 3d3e 1ff8 893f 8e6c db3e 6519 3a3e
00000260: 0635 2abe 675c 9fbf 7d55 ccbe 7a20 143e
00000270: 1c34 f9be 2878 153f 90a5 9ebe c6a4 86be
00000280: 80ee aa3c 40ff a73e 78ea 86bd 7cd4 b73e
00000290: f8e2 5cbe cc37 d23f 1697 bf3e f998 df3e
000002a0: 8048 443e 9086 adbe ef9b f33e dc85 f6be
000002b0: 370e 64be 67c0 5cc0 4582 7dbd 2d47 8d3e
000002c0: 980b d43d a452 dcbe 7a2b f73e c444 f03e
000002d0: cc81 7c3e e6c5 fabe 7c03 8f3e bc15 123e
000002e0: 4030 7dbd 8875 d6be 3ce3 d83e 880e 19be
000002f0: 7efa 0cbf 30fb c43f 4205 713e c66e 603e
00000300: ddb8 b43e af1b e13f cf4a 49bd c4ef 65bc
00000310: 1efb 183f 7842 e83f 9dae 3abf 7bdd 82be
00000320: 8170 f2be befb 9f3f 0549 c43e b528 b23e
00000330: e2ac 903c baec b73f c83a 9abe 8edb 033f
00000340: 0875 a83d 627d 66bf eac3 20bf 2284 61bf
00000350: 60aa 11be c23e bb3e e07a f03c 64a8 72be
00000360: 7c85 0e3e 88b2 b1be 7c9e 183e fec9 ae3e
00000370: 74f3 783e 34e2 1bbe 4034 2ebe 306c 553e
00000380: 387c af3e 5c59 973f 924f b23c 3abd 013e
00000390: 3246 2dbd 6fe6 b1bf 5a14 b0be b516 213f
000003a0: 204d f8be c76f a13f d2a8 1c3f 1aec 703c
000003b0: e0a9 6abe 4762 b33f f98d 0ebd c04c 59be
000003c0: 1f28 c73e 1463 573f ab75 1bbf f0e3 b2be
000003d0: 8e0e 823d cce0 903d 602a 3e3f ee25 27be
000003e0: a0f9 8f3e 80ac c63c 9ae7 873e 0096 0f3c
000003f0: 6040 2bbe 5788 c13f 8bb6 1ebe 1618 cb3e

actor.0.bias f4 [64]
-0.41878772 -0.43461463 0.45122874 -0.1665691 -0.4612021 -0.3655107 0.42887634 -0.34950444
-0.42073864 -0.14562869 -0.24373722 -0.3353933 -0.24467373 0.366338 0.280507 0.2378757
0.007523682 -0.2090376 -0.20406604 -0.29145768 -0.41640392 -0.43110102 0.0822293 0.19876319
0.4551956 0.083025806 -0.12179976 0.021054734 0.2925613 -0.3298029 -0.1756888 -0.37125954
-0.07632355 -0.38506103 -0.21402127 0.0056276703 -0.38157308 0.11421585 -0.24579228 0.4911644
-0.4418788 0.37697697 -0.2748789 0.00880897 -0.4668694 -0.46339673 -0.47318906 0.056194115
0.44366845 0.104553804 0.37346447 0.19157214 -0.36779037 -0.19472694 -0.14852804 -0.46714365
0.42363894 -0.19057016 -0.15445183 0.11412217 -0.05304987 0.21447736 -0.32743818 0.53699434
00000000: 586b d6be cf85 debe 7407 e73e 1791 2abe
00000010: af22 ecbe 3824 bbbe ae95 db3e 3ff2 b2be
00000020: 0e6b d7be b01f 15be 4096 79be acb8 abbe
00000030: c08b 7abe a890 bb3e 9d9e 8f3e b095 733e
00000040: 3889 f63b f40d 56be b0f6 50be f139 95be
00000050: e532 d5be 46b9 dcbe d667 a83d 9488 4b3e
00000060: 660f e93e 6f09 aa3d 2772 f9bd fa7a ac3c
00000070: 98ca 953e eddb a8be c4e7 33be bb15 bebe
00000080: 854f 9cbd b826 c5be 6428 5bbe 5268 b83b
00000090: 8c5d c3be 00ea e93d f9b0 7bbe e679 fb3e
000000a0: f03d e2be 2003 c13e edbc 8cbe 8053 103c
000000b0: 8209 efbe 5642 edbe d645 f2be cd2b 663d
000000c0: 8328 e33e 4e20 d63d bc36 bf3e 7d2b 443e
000000d0: 054f bcbe 8066 47be bc17 18be 742d efbe
000000e0: 34e7 d83e d324 43be 9f28 1ebe e2b8 e93d
000000f0: d24a 59bd f49f 5b3e faa5 a7be 7678 093f

actor.2.weight f4 [64, 64]
-0.049757704 0.045424074 0.17170133 0.051585034 -0.15090363 -0.12093878 0.17707497 -0.6163718
-0.04636991 0.10332413 -0.09722562 0.116816446 0.012139395 0.059122514 0.06318396 -0.052968405
0.053080816 -0.108309016 0.027021065 0.10474332 0.13814901 0.103494406 -0.01273274 0.018538326
-0.081127435 0.22045039 -0.0015339052 0.16985069 0.13962424 -0.55490476 0.11255321 -0.77953035
-0.6033178 0.03193593 0.0075237453 0.18875292 0.008248919 0.05510646 -0.08675935 -0.016715087
-0.08003627 0.1671549 0.11256042 -0.62346685 -0.08920571 0.091340154 0.051853046 -0.001672079
0.06287229 0.46989655 -0.012229728 0.10825776 -0.56074756 -0.044990644 0.08227825 0.11116128
0.08993122 -0.08358384 0.15100564 0.20298107 0.5418081 -0.0868829 0.08280784 0.16038792
-0.00790672 -0.070834756 0.20142554 -0.08491871 -0.093017064 -0.06629501 0.044540424 -0.6230682
0.032633573 0.06641439 -0.035841003 -0.0103375465 0.08651672 0.12019398 0.011835511 0.06455236
0.076200016 0.014399365 0.05957389 -0.0017102683 0.1298999 0.030416474 0.040274795 -0.06383099
0.06004522 0.26035798 -0.036784153 0.28358567 0.19366851 -0.6448203 0.088265926 -0.71441567
-0.57391703 -0.051559985 -0.06708495 0.058957145 0.021275705 0.05642766 -0.18689872 0.21002826
0.0049806833 0.097364835 -0.039246645 -0.86286384 -0.107215434 0.091661885 -0.02047564 0.13496888
0.043075144 0.2567446 0.0792006 0.19177367 -0.7499491 0.012122482 -0.110642076 -0.08884886
0.03836402 0.018281441 0.09655259 0.24804425 0.3570938 -0.014024795 0.05114582 0.14159134
-0.11071904 1.2969325 -0.06040172 0.16426706 0.04324144 0.1103344 -0.24282233 0.22623953
-0.018623888 -0.11559108 0.10781723 -0.12490368 0.023684293 -0.06698364 -0.36678988 0.05067311
-0.14796025 0.021141276 -0.071159676 0.13872266 0.5141211 0.027481869 -0.04598535 -0.08640471
-0.08185367 -0.047834005 0.119324684 -0.12016668 -0.09227295 0.34199762 0.06393686 0.38056493
0.032770447 0.015803248 -0.030753762 -0.17392623 -0.12494023 -0.14320248 0.26800045 0.04118319
0.118985385 -0.062391505 0.0064513236 0.35746017 0.04752259 -0.08463745 -0.02345924 -0.25452045
-0.103765614 -0.12950882 0.00234299 -0.14697006 0.44575372 0.05850865 -0.015256941 -0.0041339397
-0.2631147 0.13600118 -0.04304525 -0.15029618 0.05289751 -0.06473626 -0.060801223 -0.027843941
0.09448893 -0.06948989 -0.039129566 0.02111541 -0.06989015 -0.11477348 0.107811175 -0.49741784
0.09005803 0.021162914 -0.077068 -0.022605568 -0.08976136 0.101471476 0.08700503 0.00790165
-0.12289034 -0.06957969 -0.076068506 0.048553366 -0.115259364 -0.10082193 0.120481275 -0.091228046
-0.089555845 0.19387038 0.06852733 0.28336748 0.018091062 -0.4733977 -0.009986073 -0.85588783
-0.49782175 -0.10393025 -0.074515015 0.14980465 0.004874514 -0.101761505 -0.114318796 0.059805322
0.050829306 0.08032252 0.046809867 -0.6683186 -0.08597055 -0.09615475 -0.029654965 0.03787162
-0.036800284 0.45090196 0.17628288 0.21840344 -0.68013304 -0.014781103 -0.09725906 -0.0450702
0.09243003 0.05079276 0.15489133 -0.015011414 0.4495231 0.019371383 -0.048000142 0.17120771
00000000: bcce 4bbd 980e 3a3d 79d2 2f3e d44a 533d
00000010: 7b86 1abe c0ae f7bd 2453 353e 8bca 1dbf
00000020: 60ee 3dbd 9a9b d33d 3a1e c7bd 763d ef3d
00000030: 50e4 463c 732a 723d 9866 813d 66f5 58bd
00000040: 456b 593d 1ed1 ddbd 485b dd3c aa83 d63d
00000050: ef76 0d3e e0f4 d33d fb9c 50bc b0dd 973c
00000060: 2426 a6bd bfbd 613e 510d c9ba 57ed 2d3e
00000070: a8f9 0e3e 3d0e 0ebf 4c82 e63d 4d8f 47bf
00000080: 0973 1abf 40cf 023d c089 f63b 7248 413e
00000090: 7926 073c 50b7 613d e3ae b1bd 14ee 88bc
000000a0: 0eea a3bd a72a 2b3e 1486 e63d 869b 1fbf
000000b0: 7cb1 b6bd 8c10 bb3d dc63 543d a929 dbba
000000c0: 30c3 803d 4896 f03e 325f 48bc 3fb6 dd3d
000000d0: 278d 0fbf 1c48 38bd 8081 a83d 86a8 e33d
000000e0: dc2d b83d 012e abbd 39a1 1a3e 45da 4f3e
000000f0: f0b3 0a3f a9ef b1bd 2897 a93d bb3c 243e
00000100: 308b 01bc d011 91bd 7f42 4e3e dce9 adbd
00000110: bb7f bebd aec5 87bd 0570 363d 6681 1fbf
00000120: c8aa 053d 4504 883d 04ce 12bd d05e 29bc
00000130: ae2f b13d 4328 f63d bbe9 413c 0734 843d
00000140: c10e 9c3d 50eb 6b3c c003 743d 152b e0ba
00000150: 7b04 053e f82b f93c 2ff7 243d d2b9 82bd
00000160: faf1 753d a44d 853e fbaa 16bd 2432 913e
00000170: 0a51 463e f112 25bf c4c4 b43d f2e3 36bf
00000180: 3aec 12bf 9030 53bd d663 89bd 0c7d 713d
00000190: 634a ae3c b120 673d 6162 3fbe a611 573e
000001a0: 0035 a33b 3767 c73d 17c1 20bd a5e4 5cbf
000001b0: c493 dbbd 3ab9 bb3d 88bc a7bc 4835 0a3e
000001c0: 906f 303d 0774 833e ed33 a23d 5160 443e
000001d0: aafc 3fbf 609d 463c 5098 e2bd 64f6 b5bd
000001e0: 9723 1d3d f6c2 953c 5dbd c53d 50ff 7d3e
000001f0: 00d5 b63e 41c8 65bc 487e 513d 52fd 103e
00000200: aac0 e2bd e201 a63f cb67 77bd a035 283e
00000210: f01d 313d 00f7 e13d 6ba6 78be 56ab 673e
00000220: 2091 98bc 04bb ecbd 48cf dc3d 80cd ffbd
00000230: 9005 c23c b82e 89bd e2cb bbbe 9b8e 4f3d
00000240: e482 17be 7830 ad3c 2abc 91bd 500d 0e3e
00000250: 719d 033f a821 e13c 225b 3cbd f4f4 b0bd
00000260: e6a2 a7bd 97ed 43bd 8060 f43d f319 f6bd
00000270: 9af9 bcbd 501a af3e 54f1 823d 68d9 c23e
00000280: 4e3a 063d d075 813c 50ef fbbc b819 32be
00000290: aae0 ffbd aca3 12be 5b37 893e b4af 283d
000002a0: 9cae f33d 3c8e 7fbd a065 d33b 0505 b73e
000002b0: 0ca7 423d 6656 adbd 982d c0bc 8150 82be
000002c0: 1183 d4bd f69d 04be d98c 193b 527f 16be
000002d0: d539 e43e c4a6 6f3d 40f8 79bc 0076 87bb
000002e0: f8b6 86be e543 0b3e 3750 30bd 3ee7 19be
000002f0: 0fab 583d 7294 84bd b40a 79bd fa18 e4bc
00000300: 6a83 c13d b750 8ebd 5346 20bd 39fa ac3c
00000310: 9122 8fbd 5c0e ebbd 1bcc dc3d 8dad febe
00000320: 5870 b83d d95d ad3c d4d5 9dbd 502f b9bc
00000330: ced4 b7bd 47d0 cf3d b12f b23d ec75 013c
00000340: eead fbbd cc7f 8ebd cec9 9bbd e5df 463d
00000350: 1a0d ecbd ba7b cebd e3be f63d c5d5 babd
00000360: 0e69 b7bd f585 463e 0f58 8c3d 8b15 913e
00000370: b533 943c 2f61 f2be a09c 23bc 771b 5bbf
00000380: 7ee2 febe 62d9 d4bd 549b 98bd 6466 193e
00000390: 63ba 9f3b 5668 d0bd f91f eabd 6df6 743d
000003a0: 6432 503d 2280 a43d b4bb 3f3d ee16 2bbf
000003b0: 5411 b0bd c8ec c4bd f8ee f2bc 461f 1b3d
000003c0: e5bb 16bd 9fdc e63e 8083 343e 27a5 5f3e
000003d0: 331d 2ebf 702c 72bc c22f c7bd 889b 38bd
000003e0: f54b bd3d 120c 503d d59b 1e3e 6ff2 75bc
000003f0: e427 e63e bcb0 9e3c cc9b 44bd 1351 2f3e

actor.2.bias f4 [64]
0.15336406 0.04799624 -0.11615191 0.16532756 -0.09902389 -0.010055181 0.02994852 -0.010856152
0.079116076 -0.06997459 0.13468118 -0.06577669 0.04925044 0.08762224 -0.122359276 -0.05572015
-0.106538616 -0.093707025 0.04885025 -0.019321572 -0.107623056 0.01758253 0.09710528 -0.025168976
0.057258777 -0.097738564 -0.11369757 0.090278864 0.17675191 -0.09306368 0.0112345265 -0.025741193
0.0042584343 0.014150448 -0.11607851 0.19565587 0.077027395 -0.05119049 0.18379843 0.039313074
0.042354826 -0.024580078 0.21214785 -0.06862724 -0.09062944 -0.060767293 0.1419718 0.0135456445
-0.13801436 0.038721327 -0.121241674 0.09140042 -0.042365596 0.15580831 -0.014916894 -0.068711005
0.16677168 0.030138075 -0.09864693 -0.069227204 0.09487496 -0.12329292 -0.16643067 -0.104883626
00000000: 780b 1d3e b597 443d 0de1 edbd a14b 293e
00000010: 0acd cabd 7cbe 24bc 9956 f53c 00de 31bc
00000020: 9c07 a23d d64e 8fbd dde9 093e eeb5 86bd
00000030: d4ba 493d 4a73 b33d 8097 fabd d03a 64bd
00000040: eb30 dabd 78e9 bfbd 3317 483d 4648 9ebc
00000050: 7a69 dcbd 3d09 903c 22df c63d 2b2f cebc
00000060: 2e88 6a3d 282b c8bd 46da e8bd 20e4 b83d
00000070: 74fe 343e 2c98 bebd 0511 383c 32df d2bc
00000080: 568a 8b3b 48d7 673c 92ba edbd 035a 483e
00000090: 8ac0 9d3d 1fad 51bd a835 3c3e bf06 213d
000000a0: 417c 2d3d 295c c9bc 493d 593e 708c 8cbd
000000b0: ee9b b9bd 20e7 78bd 0e61 113e 8dee 5d3c
000000c0: a353 0dbe 419a 1e3d 8e4d f8bd 2530 bb3d
000000d0: 8c87 2dbd 378c 1f3e fd65 74bc 5bb8 8cbd
000000e0: 32c6 2a3e 20e4 f63c 6707 cabd fec6 8dbd
000000f0: ce4d c23d 0081 fcbd cd6c 2abe 3acd d6bd

actor.4.weight f4 [2, 64]
0.11441921 0.09578792 -0.14280082 0.17066349 0.051242948 -0.028820077 0.016460428 0.08476941
-0.056701243 0.6885469 0.36528817 -0.080359325 -0.065691516 -0.011877638 -0.09778111 0.107570425
0.02393092 -0.011510853 0.03261013 -0.08706972 0.040757563 0.21005744 -0.28876463 -0.0027402525
0.2402802 -0.06981553 -0.012074633 -0.024805538 0.14670944 -0.03703578 0.09466938 0.05192882
-0.105463475 0.008020597 0.020372216 -0.3118494 -0.09033492 0.17039403 0.14607425 -0.042258907
0.0077873934 0.026926734 0.16656485 0.110722214 0.078419015 0.16019832 -0.22102877 -0.088985175
0.05546607 -0.39253426 -0.087834395 0.13729253 0.09114303 0.10730481 0.13001667 0.5440718
0.12077046 -0.011351329 -0.05772937 -0.043598324 0.18765217 0.10558218 -1.413698 0.055165365
-0.12365107 0.030124277 -0.33802214 -0.103808455 -0.009615198 0.09555244 0.03396261 0.023716241
-0.10283484 0.25930086 0.38268378 -0.011202738 0.05343339 -0.079677746 0.06435886 -0.054383054
-0.00010815717 0.120832615 0.015033157 0.0052657416 -0.050467208 -0.014725331 -0.003681047 0.111153
0.5109546 -0.013865113 -0.07393432 0.03125331 0.003541708 0.11322609 -0.052852612 -0.02693528
0.23667124 -0.09004884 0.0382831 0.050575383 0.14580393 -0.13080214 0.047529403 0.13587375
-0.0625058 0.026152859 0.41860774 -0.014516234 -0.06846696 -0.10247254 0.01887516 0.03199074
-0.08802144 -0.049895357 0.044404957 0.016997105 -0.055598617 -0.1179363 0.021026967 0.0767615
0.05306246 -0.023991764 0.1286637 -0.057764158 0.02431135 0.03159195 -0.49637827 0.0008802414
00000000: 9e54 ea3d 752c c43d 613a 12be 69c2 2e3e
00000010: 20e4 513d 1518 ecbc 05d8 863c 969b ad3d
00000020: 903f 68bd 9c44 303f 0d07 bb3e 6e93 a4bd
00000030: 4689 86bd 6d9a 42bc 7641 c8bd e24d dc3d
00000040: c70a c43c 0498 3cbc 3392 053d 9c51 b2bd
00000050: 67f1 263d 4c19 573e f5d8 93be cf95 33bb
00000060: 030c 763e 72fb 8ebd aed4 45bc fc34 cbbc
00000070: 003b 163e d4b2 17bd 05e2 c13d 50b3 543d
00000080: 3cfd d7bd d268 033c a2e3 a63c b9aa 9fbe
00000090: 8401 b9bd c67b 2e3e 7d94 153e ad17 2dbd
000000a0: 642d ff3b 7495 dc3c fa8f 2a3e 54c2 e23d
000000b0: 269a a03d 070b 243e 5e55 62be dc3d b6bd
000000c0: 6430 633d 40fa c8be 85e2 b3bd 6a96 0c3e
000000d0: 32a9 ba3d a0c2 db3d 1723 053e 4a48 0b3f
000000e0: 8156 f73d edfa 39bc a275 6cbd 2894 32bd
000000f0: e427 403e 783b d83d 0ef4 b4bf 14f5 613d
00000100: c63c fdbd 30c7 f63c 3d11 adbe 8799 d4bd
00000110: 1089 1dbc ffb0 c33d 611c 0b3d 9048 c23c
00000120: 139b d2bd 15c3 843e 21ef c33e b08b 37bc
00000130: f8dc 5a3d 162e a3bd 94ce 833d c4c0 5ebd
00000140: 70d2 e2b8 1777 f73d a14d 763c 3e8c ac3b
00000150: b4b6 4ebd 8442 71bc b83d 71bb 2fa4 e33d
00000160: eccd 023f 802a 63bc e06a 97bd 7903 003d
00000170: 001c 683b 15e3 e73d fb7b 58bd 60a7 dcbc
00000180: f259 723e 876b b8bd bdce 1c3d 2228 4f3d
00000190: a04d 153e fff0 05be 31ae 423d 7d22 0b3e
000001a0: 0a03 80bd 853e d63c c153 d63e 80d5 6dbc
000001b0: 6838 8cbd 20dd d1bd 14a0 9a3c b908 033d
000001c0: 9644 b4bd 135f 4cbd f9e1 353d 833d 8b3c
000001d0: 60bb 63bd 9688 f1bd bf40 ac3c 2235 9d3d
000001e0: 0658 593d 608a c4bc 6bc0 033e 1c9a 6cbd
000001f0: 9928 c73c 9066 013d 4b25 febe 00c0 663a

actor.4.bias f4 [2]
0.108871445 -0.045662753
00000000: fef7 de3d de08 3bbd
