HAC-Baseline/preTrained/Ant-v3/2level/HAC_MountainCarContinuous-v0_normal_sync_solved_level_0_crtic.pth (torch, 20375 bytes, 5 tensors)

critic.0.weight f4 [64, 5]
00000000: 63b7 e23d 2891 a53f 6fca 32be 91a2 1dbe
00000010: 0a3c 03bf 5188 1e3e e43a 8dbe 61c5 0abd
00000020: 4672 e73e ba3c e9bd 69f7 c23e 43f5 ca3e
00000030: 6096 fdbd 77f5 f1be 40a1 653c f945 b3be
00000040: 7f50 14bd 9dda 4c3e 8941 a2be 3f3e fe3e
00000050: 3145 743d c4d3 9a3e f053 a7bd fcdb ea3e
00000060: 5174 e3be a0d4 f83e 6233 8e3e a4d8 5c3d
00000070: 7b6e 56be ea36 da3c dd21 babe a736 35be
00000080: 6ee0 01be 2b32 0abe 8d0e eabe 3e0c 01be
00000090: d000 923d e1c0 a03e 280c bd3d f716 c83e
000000a0: 43fa 53be 314e acbe e90c 0b3d b251 943d
000000b0: 9387 863e 6ca9 cd3e 7948 2d3f 50a5 b9be
000000c0: fe00 a2be b6c3 bfbe 8ede 29bf e8f0 f4be
000000d0: f77a f73e 5252 2b3e 6a0a d13e 433a 45be
000000e0: 1a78 4bbf 8058 813c 67a9 de3e 6a21 abbe
000000f0: 6c7d 6e3d 4d2e 0a3e dc25 d8bd 32c7 183e
00000100: e635 66bf d1e6 45be 32f5 94bf 09ff 7abe
00000110: 582d bc3e 6731 543f 10b8 c5bd fa73 9fbe
00000120: d722 d2be f97f 1cbe ff02 57bf 034f d33e
00000130: 3ee3 ac3e 2879 2c3e 215b bd3e 9522 403e
00000140: 8a4a 053f ad12 1f3f ee82 523c bc66 f7be
00000150: 613e 87bd 9e89 9c3e f2b3 8b3f 1a20 3dbc
00000160: 3916 31be dc24 61bf 6648 933e 1c1b 8b3e
00000170: 361c 713e e31d fabe c7d9 9c3e 408a 68bd
00000180: 0570 193e 3fc6 403e f020 09bf 042f fa3e
00000190: 8151 c6bd 2844 5fbe 21f0 053f 5c2f d13e
000001a0: 7516 1b3f 3daf 69be 0d01 78bf 4157 75be
000001b0: 8696 293e 1232 d7be aa35 093f 6adb ab3f
000001c0: a082 8c3a 82a0 e0be b325 87be fd97 093f
000001d0: c7a3 5c3f e0ab 97bd 98c6 4dbe 0f01 10bc
000001e0: 59cb c8be c089 413f 337f 323e 95a5 8dbe
000001f0: 189f 1dbf b7e6 cebe a7f8 00bf 892e 313e
00000200: d9ba 3e3e 5c57 1a3f e54a 5b3e f3e7 bd3f
00000210: ca15 f53d 7d4b c1bd 0f2d 2cbe bc8f 60be
00000220: 7f0b 05bf 0fcd 9cbe 0acb c53c 8e68 10bf
00000230: df4f cbbd 2225 613f 1372 ae3e 0f46 abbe
00000240: 3c5e 00bf cc5d b0be e857 eebe 691b 463e
00000250: 587c 203e c95b e2bc 66d1 1ebe d539 8d3c
00000260: eb13 2dbe 87bf 183e efac 51be 74a3 763e
00000270: c9e9 5a3e 6165 293e bfca 863e 0129 893e
00000280: 9d96 de3d 53d8 b23e 9656 a83e 74c4 a3bb
00000290: 1549 28bf c2dc db3e ab5c 533f a841 a2be
000002a0: 60dd ca3e d94b 0dbe 6de0 8abe f5e6 243f
000002b0: f47e 853e 5c34 c5bd 9892 c53e d4ed dd3e
000002c0: 4745 743f 65cb c2be 6d97 c2be d09e 833e
000002d0: e43c bb3e 7743 52bd ebd9 a83d 6ed7 703e
000002e0: 30d2 92be c128 d5be b4f9 64be 15f7 613c
000002f0: ace2 f83e 971f 92be 165c 94be 906d 1abe
00000300: 162b efbc ee44 903e e62b 15bf 8afc 1f3f
00000310: f944 413f acf4 d5bc 6389 cfbe 42ba ebbe
00000320: e208 b8be a561 01bf 6a2c 72bd eefa ebbd
00000330: 75ab 6e3e d291 94bd e3c9 af3e de76 69bd
00000340: 3432 8b3e 13a6 053c 065d f1be d9f4 48bf
00000350: 3157 233e 4eb4 d2bd d6d9 89be 118c 0b3e
00000360: fc29 043f b54a 0b3d c70d 4cbd f3bb 90be
00000370: 5cbc 6ebe 68d3 3dbf 46ab 40be 7289 343e
00000380: 562f 893f 231f 07bf 1d17 75bf 548e b5be
00000390: e30d 9a3e b5b9 373d 5460 67be 377a 553f
000003a0: a5d8 fb3d 9094 7bbd c068 12bf b837 e43e
000003b0: 65b7 aa3f 903f 7d3d fe2c 8abe 05f9 25bf
000003c0: 9012 b0be 25e8 0ebf fdbb 0e3d ee9f d73e
000003d0: 3e25 92be 43bb f9be 9f54 46bf 0626 03bb
000003e0: 9d50 1f3f 1b1c 163f 5a77 a4bd 1f12 bebe
000003f0: 343e e6be a181 c1be f5d9 02bf 4597 c8be
0.110701345 1.2934923 -0.17460035 -0.15394045 -0.5126349 0.15481688 -0.27583992 -0.03387964
0.4520437 -0.11388536 0.38079384 0.39640245 -0.123821974 -0.47257587 0.014015496 -0.35014322
-0.03620958 0.2000527 -0.31690624 0.49656865 0.0596363 0.3023969 -0.08170307 0.4587096
-0.4442468 0.4859972 0.27773577 0.053917542 -0.20940582 0.026637513 -0.3635396 -0.1769663
-0.1268327 -0.134957 -0.45714226 -0.12602326 0.07129061 0.31397155 0.09230834 0.3908002
-0.20700936 -0.33653405 0.03394786 0.07242145 0.2627531 0.4016832 0.6768871 -0.36258936
-0.31641382 -0.37454003 -0.66355217 -0.47840047 0.48336002 0.16730621 0.40828258 -0.19260506
-0.79480135 0.01578927 0.4348862 -0.3342393 0.05822508 0.13494225 -0.10554096 0.14919737
-0.8992599 -0.1932633 -1.1637328 -0.2451135 0.36753345 0.8288788 -0.09654248 -0.3114317
-0.41042206 -0.15283193 -0.83988947 0.4127122 0.33767122 0.16843092 0.36983588 0.18763192
0.5206686 0.6213787 0.012848599 -0.48320568 -0.06603695 0.30573744 1.091429 -0.011543298
-0.17293634 -0.8794687 0.28766173 0.2716912 0.23545918 -0.48850927 0.306349 -0.05677247
0.14984138 0.18825625 -0.53565884 0.48863995 -0.096835144 -0.21803343 0.5231953 0.40856445
0.6058114 -0.22820754 -0.96876603 -0.23959066 0.16561326 -0.42030388 0.5359751 1.3426335
0.0010720082 -0.43872458 -0.2639595 0.5374754 0.86187404 -0.074058294 -0.20095289 -0.008789315
-0.39217642 0.75600815 0.17431335 -0.27665392 -0.6157088 -0.40410396 -0.50379413 0.17302908
0.18625964 0.6028955 0.21415289 1.483641 0.119670466 -0.09438226 -0.16814063 -0.2192983
-0.51970667 -0.30625197 0.024144668 -0.5640954 -0.099273436 0.87947285 0.34071407 -0.33451888
-0.5014379 -0.3444656 -0.46551442 0.19346394 0.15672433 -0.027631657 -0.15509567 0.01723949
-0.1690213 0.14916812 -0.20476125 0.2408579 0.21378244 0.16542579 0.26326558 0.26789096
0.10868571 0.34930667 0.3287856 -0.0049977843 -0.65736514 0.42941862 0.82563275 -0.31690717
0.3962202 -0.13798465 -0.27124348 0.6441491 0.2607342 -0.096291274 0.38588405 0.4334551
0.9541821 -0.38045803 -0.38006154 0.25707102 0.36569893 -0.05133387 0.082446896 0.2351968
-0.28675985 -0.41632655 -0.22360879 0.013791819 0.48610437 -0.28539726 -0.28976506 -0.15080857
-0.02919535 0.2817759 -0.5827011 0.6249472 0.7549587 -0.026117645 -0.40534505 -0.4604054
-0.35944277 -0.5053962 -0.059124388 -0.115224704 0.23307593 -0.072543755 0.34333715 -0.056998126
0.2718674 0.008157271 -0.47141284 -0.7849861 0.1595123 -0.10288297 -0.26924008 0.1362765
0.51626563 0.034006793 -0.049817827 -0.28268394 -0.23314041 -0.74150705 -0.18815336 0.17630556
1.0717571 -0.52781886 -0.95738393 -0.3546015 0.3008872 0.04485484 -0.2259534 0.8338961
0.12297181 -0.061420977 -0.57191086 0.4457376 1.3337218 0.061828196 -0.2698745 -0.648331
-0.34389162 -0.55822974 0.03484725 0.42114204 -0.2854404 -0.48775682 -0.7747287 -0.0020011677
0.6223238 0.58636636 -0.08030577 -0.371232 -0.44969332 -0.37794212 -0.51113826 -0.3917791

critic.0.bias f4 [64]
00000000: a87e b93d 6986 b03e 571b babc 77d5 b1be
00000010: c1d6 9b3e eec3 3c3e 3446 aa3e 0981 1a3e
00000020: 78e4 a9bc 74f4 87be 0aec 83be 20de a33d
00000030: 59d3 b93e 294c 113d f857 9dbd c6fa 953e
00000040: 07f2 4cbd 9c57 173e d052 92be 19b5 b0be
00000050: 6743 e2bd 7907 13bd f090 363e ebd2 9b3e
00000060: 7662 59be f803 30bd 2723 433e db71 fcbd
00000070: 3f83 ebbc f782 8a3e 6841 33be 9eff 8f3e
00000080: 05c4 8a3e ff21 623e 4e84 92bd 46a7 58be
00000090: 6bdd 96be 5f61 14bd 58d8 0a3e 0a71 7f3e
000000a0: f4fb 36bd 807a b73e d841 f1bd d65f 773d
000000b0: 4792 08be bf6d 193e 1d78 873e c3b6 603e
000000c0: cfd2 4bbc 7196 a93d 6a11 d4be 2dd0 20be
000000d0: dcc3 99be f8b3 9f3e 172d 2dbe bb6d 803d
000000e0: 3c2f cdbe e79b 68bd 9f84 a13e 02e2 273e
000000f0: b771 b8bc 1ea9 753e 3507 ba3e 1975 863e
0.09057361 0.34477547 -0.022718115 -0.34733173 0.30437282 0.18434116 0.33256686 0.15088286
-0.020738825 -0.2655369 -0.2576602 0.08001351 0.36294058 0.035473023 -0.07682794 0.29292887
-0.050035503 0.14779514 -0.28578806 -0.34513167 -0.11048012 -0.0358958 0.17828727 0.30434355
-0.21228966 -0.042972535 0.19056378 -0.12326404 -0.028749106 0.27053043 -0.17505419 0.28124708
0.27102676 0.22083281 -0.07154141 -0.2115756 -0.29465804 -0.036225673 0.13559091 0.24945465
-0.044673875 0.35835648 -0.11780137 0.06039413 -0.1333705 0.14983271 0.26458827 0.21944718
-0.012440397 0.082806475 -0.41419536 -0.15704413 -0.3003224 0.31191993 -0.16911732 0.062709294
-0.400751 -0.056789305 0.31546494 0.16394809 -0.022515161 0.23990294 0.36333624 0.26261213

critic.2.weight f4 [64, 64]
00000000: 3c1c d8bd c228 b1bd 5e5f f7bd 8583 13be
00000010: 6d33 143c 1a1c debd 002e acbd 952e 1c3d
00000020: b8af cf3d f3e0 12be 3b76 0dbe 0b1f adbd
00000030: d426 8e3d e67b 4d3d 781a 783d 8be7 293d
00000040: 47a7 42be 5379 a43d 7ed7 1bbe 2149 88bd
00000050: 48c7 07bd 1c00 d63c 6e57 783d 7e6e 94bc
00000060: 1e42 4f3d 6d50 79bd 9dfa a23c b0ab c23d
00000070: a198 6a3d d6ef 91bd f6d8 97bd 7250 7dbd
00000080: 8e0c bbbc ffa0 6cbc e814 873d 3d3b 7bbb
00000090: 7693 8fbd 1263 12be 4877 a93d 1481 a2bc
000000a0: 4c23 8bbd c085 f7bd 7c78 d83d 20b9 4e3d
000000b0: 6b55 d0bd 95a2 13be dd8d af3d 4535 5d3d
000000c0: e354 17be 0ec2 d4bd f061 753d f073 d4bd
000000d0: 3612 123d 4c25 15be 6e97 02be d774 2ebe
000000e0: 2c13 e83d 1ca3 e83d c2d8 03be 9ae8 ed3d
000000f0: f286 7dbd 9c54 22be 25c9 173d 9b46 2c3d
00000100: 8a6b 763d da55 9ebd e6a9 183e 6ed2 25be
00000110: 4c8e 5ebd 7f39 693c 8ee8 b5bc 97b2 4e3d
00000120: 1b08 a8bd ac31 683e 2c08 aabd 309e 643e
00000130: 1331 aabc 9d0a c13d f751 fc3c c4d0 59be
00000140: 20c2 4f3f c75b d53d 4260 303e 033a 513e
00000150: 1a8e 6fbc 8417 f4bd b964 e93d 15d0 d73d
00000160: 86b6 1fbe 81fc f9bc 7f84 413c d737 9e3c
00000170: 0274 8f3d afc5 dabd be76 113d 0e27 4bbd
00000180: 3dea 9f3d 2bab babd f121 2cbc d81a 013e
00000190: 3e29 debb 39cc d53e 7146 c03c 4908 0a3e
000001a0: f654 afbd 409d 09be 51dc 3d3c 4b5a abbd
000001b0: b707 773e b627 29be 43dd a8bd 2420 f3bb
000001c0: 1e1d 973e b59f f93e 8d50 eb3b ba35 9e3e
000001d0: e059 b63d 0d5c 553d 966e b63d 6ab3 2b3d
000001e0: 6045 17bd 7261 d83e 1af4 ac3c c7fd f23c
000001f0: 3bcf ecbd fcc4 0dbe 4030 50bd 94e5 a5bd
00000200: 4176 8abd 4f17 ef3c b361 00be 2126 b2bd
00000210: c2e7 463d ca9a 41be 59c0 aa3d 205a 66bc
00000220: ef94 fb3c 750d 203e 7ad3 233e 9c68 a83e
00000230: 0b54 1ebd 5d5b 1e3e b101 59be c9f7 26be
00000240: b8b2 f93e 0e47 debd 0b7a f2bc 07da 073e
00000250: 5262 f93d 5cc7 c33d 281a 37be 0068 01be
00000260: 8ffd 0fbe d51b 813d 5b96 98bd 96ec 40bd
00000270: 8051 d1bd 9ea2 cfbd a7d2 ad3d e0f2 0f3d
00000280: d6cc c0bd 5ccc f5bc 46bd acbd f1c6 d23d
00000290: 8542 d63d 59cd d73e 66cc 013e 4d38 56be
000002a0: 73f9 a4bd 49ae a13d 6f68 acbc 720c c7bd
000002b0: 5ed9 5f3e e2cd fabc a79d 503d 9f09 89bd
000002c0: 78de b63e 5c1b 253f 37d8 5cbd de6e 8d3e
000002d0: 6e88 2ebd 8fd8 cebc 30e2 a23b d24f 903e
000002e0: b0e9 4dbc 8575 3e3e 4cfe 0ebc 43c3 f5bd
000002f0: 2a08 55bc 9f76 ff3b 5e50 a0bd 3c29 b6bc
00000300: 6634 7bbe 2b3f 6cbe a964 3bbe a523 893d
00000310: d584 65be 29ed febd de31 b43c 1084 08be
00000320: bbf8 963d 519c 81bd a835 e53d 3e52 293e
00000330: 3aa4 52be 1b24 c13e ed59 26bd 5380 75be
00000340: 45fd 033e 7857 11be 11e2 763d 2d91 0dbd
00000350: ff8f 2fbe a465 513e 23e4 61be b916 96be
00000360: b723 05be 3b7b ab3e b359 0ebe 1bab 163d
00000370: c4fe 6cbd b4b4 c93d e400 b2bd e72b e5bd
00000380: c363 1bbd e57c 4ebe 6097 963d 7c20 3dbe
00000390: f965 27bd 0235 093f 3d58 24bd e930 80be
000003a0: 46f7 efbd d6e0 8abd 842b 59bd 1dfd f8bc
000003b0: dd94 bc3e 8ef9 c7bd aa23 02be 574d 35be
000003c0: f117 6e3e 493d 413f c600 73bc 06fe bf3e
000003d0: 7891 5abe c7bd c03c d1e7 4bbd 122e 8e3e
000003e0: 88e5 933c 7a3b e53c 8c99 36be d757 5bbe
000003f0: 0785 17be e938 fa3d 382d a0be fe71 10bd
-0.1055226 -0.08650352 -0.12078737 -0.1440564 0.009045464 -0.10845204 -0.08407211 0.03813036
0.101409376 -0.14343624 -0.13814633 -0.084531866 0.069409996 0.050166987 0.060572118 0.041480582
-0.19009124 0.08030953 -0.15218922 -0.06654573 -0.033149034 0.026123099 0.060630254 -0.018119093
0.050600164 -0.060867716 0.019894892 0.09505403 0.057274465 -0.07125823 -0.07414429 -0.061844297
-0.022833135 -0.014442681 0.065957844 -0.003833487 -0.07010548 -0.14295605 0.08274704 -0.01983694
-0.06793842 -0.12086058 0.105698556 0.050469518 -0.10172542 -0.14417489 0.0857198 0.05400588
-0.14778475 -0.103885755 0.059907854 -0.10373676 0.0356619 -0.14565009 -0.12753078 -0.17036758
0.11331782 0.11359236 -0.12875655 0.11616631 -0.061896272 -0.15852588 0.03705706 0.042059522
0.06016115 -0.07731219 0.14908561 -0.16193554 -0.054334924 0.0142349 -0.022205617 0.050463285
-0.08204671 0.22675198 -0.0830234 0.22325969 -0.020775354 0.094258524 0.030800803 -0.21271044
0.81155586 0.10417896 0.1722422 0.20432286 -0.014621282 -0.11918548 0.113961644 0.105377354
-0.15596971 -0.030515911 0.011811375 0.019313736 0.070045486 -0.106822364 0.035513632 -0.049597792
0.07808349 -0.09114679 -0.010506139 0.12607896 -0.006779819 0.41757372 0.02347109 0.13479723
-0.08561127 -0.13438892 0.011588172 -0.083668314 0.24124037 -0.16519055 -0.08245327 -0.007419603
0.29514402 0.4875466 0.0071812333 0.30900365 0.08903861 0.05208974 0.08907811 0.04191915
-0.036931396 0.42261845 0.02111249 0.029662026 -0.115629636 -0.13844675 -0.050827265 -0.08100429
-0.067608364 0.02918592 -0.1253727 -0.08698679 0.048560865 -0.18906704 0.08337469 -0.014059573
0.030710666 0.15630133 0.1599864 0.3289231 -0.03865437 0.1546454 -0.21192051 -0.1630546
0.48769164 -0.10853396 -0.02959921 0.13266765 0.12176956 0.09559509 -0.17881072 -0.12637329
-0.14061569 0.06304137 -0.07450553 -0.047100626 -0.10220623 -0.10138439 0.08487444 0.035143733
-0.09414069 -0.030004673 -0.084345385 0.10291851 0.10461906 0.42148855 0.12675628 -0.20919915
-0.08055391 0.078945704 -0.021045892 -0.09719171 0.21860263 -0.03061575 0.0509316 -0.06691288
0.35716605 0.6449487 -0.053917136 0.27623647 -0.04261058 -0.025249748 0.0049708113 0.28185898
-0.0125679225 0.18599518 -0.008727621 -0.12000134 -0.013002435 0.007796123 -0.07827829 -0.022236459
-0.24531707 -0.23070972 -0.18300118 0.06696252 -0.22413953 -0.124475785 0.021996435 -0.13331628
0.0737166 -0.06328643 0.11191875 0.16535279 -0.2057046 0.3772286 -0.040613104 -0.23974733
0.12889583 -0.14193523 0.060274187 -0.03456228 -0.17144774 0.20448929 -0.22059684 -0.2931421
-0.13001905 0.33492455 -0.13901405 0.036784273 -0.05786015 0.098489195 -0.08691576 -0.11190014
-0.037936937 -0.20164831 0.07353091 -0.18469423 -0.040868733 0.5359651 -0.040123213 -0.25037315
-0.117170855 -0.06781165 -0.053020015 -0.030394131 0.36832324 -0.09764396 -0.12708917 -0.17705284
0.2325132 0.7548414 -0.014831727 0.37498492 -0.21344554 0.023527993 -0.049781624 0.27769524
0.018053785 0.027982462 -0.17832011 -0.21420227 -0.1479684 0.12217886 -0.312845 -0.03526496

critic.2.bias f4 [64]
00000000: a9a7 9e3d 9527 e3bd 45af 743d a72f 403d
00000010: 3b12 163c 44fb 96bd 9b0e e4bd 8022 e1bb
00000020: 2fc3 0d3e b6b7 053e 4c70 2b3d 40ba adbd
00000030: 1a60 ca3d 1651 063d ae27 893c fb5d 653a
00000040: 2ce7 eabd 7dc3 733d 10de 543c edbf 903c
00000050: cff7 a83d 6c7b f93b 269f 56bc 1487 a9bc
00000060: d239 373d 2062 733d 834e b8bc 7d10 bc3d
00000070: ccac bc3c 5bf7 003d cd96 90bc 9886 063d
00000080: e2e8 433d b841 60bd 40dc b6bd b3a4 ce3d
00000090: d9b9 acbd 8fa2 393d ad0e 47bd 911e c7bd
000000a0: c624 3cba 30a9 5abd c5ad 31bc 5995 bebd
000000b0: a8bf d8bd 837e efbc e6fc c03d c66e b5bd
000000c0: 09ce 8fbb 6e92 21bc 93f9 e33c bff5 893d
000000d0: 7caa 77bd 669f 99bc 5010 08be 9c68 f73d
000000e0: 39c3 8f3d bb15 ad3b fa97 0fbe a99f 143d
000000f0: 3951 a5bd a501 f7bb cd6c 403d 61f2 9fbc
0.077468224 -0.11091534 0.059737463 0.046920445 0.00915962 -0.07372144 -0.11135598 -0.006870568
0.13843988 0.13058361 0.04185514 -0.0848279 0.09881611 0.032792173 0.016742554 0.0008749661
-0.11469874 0.059512604 0.012992397 0.017669642 0.08250391 0.00761359 -0.013099467 -0.020694293
0.044732876 0.05941975 -0.022498375 0.091828324 0.023031615 0.031485897 -0.017650032 0.032843202
0.047829516 -0.054750174 -0.08928728 0.10090008 -0.08433885 0.045321044 -0.04859798 -0.09722627
-0.00071771105 -0.053384006 -0.010844653 -0.093058296 -0.105834305 -0.02923513 0.094232365 -0.08859019
-0.004388575 -0.009861572 0.027828967 0.067363255 -0.06046532 -0.018752765 -0.13287473 0.120804995
0.07019658 0.0052821315 -0.14022818 0.036285076 -0.080721326 -0.007538038 0.04697876 -0.019524755

critic.4.weight f4 [1, 64]
00000000: 01ba 5dbd 7bc5 113e ae1e 013e 1209 1d3e
00000010: b990 8dbd 4f8d 4abd 19b6 d0bd f003 89bd
00000020: 5586 b6be 6c99 45be b180 4dbe 6fc4 283e
00000030: 4c3e 81be cfb9 33bd b831 bebd 9138 50bc
00000040: 18ad c03e f949 853e 88e8 fd3d f987 88be
00000050: 2cb0 833e 8c8e 383d 1cd3 6e3e 3b56 693e
00000060: a968 e23d 2557 ec3d 4755 2d3e fb2b e53d
00000070: 5476 273e 2b0c 41bd 221e 83bc e449 f3bd
00000080: b162 7cbc c08b ea3b 30db f0bd d6d7 c5bd
00000090: 3fbc 393f fde7 083e 2685 b13e 4a71 88bd
000000a0: 9a98 2b3e 1fe6 003f a8b2 f7bc 2025 fc3e
000000b0: ec2d 86bd 14e2 fe3d bf7e 62bd f7eb dbbc
000000c0: 16ce 35bd 36c3 b63d faf7 b13d 5416 cebd
000000d0: 4337 003e a2fc 2d3e a791 68bc 16fe 09be
000000e0: 3067 9bbd 7dfd b9bd ab2e e3bc 98c5 5b3e
000000f0: 20ed a9bd 8f55 ddbd 9d04 80bd d20e 68bd
-0.054132465 0.14235489 0.1260936 0.15335491 -0.06912369 -0.04945117 -0.10190982 -0.06690204
-0.35649362 -0.19296807 -0.20068623 0.16481183 -0.2524284 -0.043878373 -0.09286827 -0.012708799
0.3763206 0.26033 0.123978674 -0.2666624 0.25720346 0.04505782 0.2332272 0.227868
0.110551186 0.11540059 0.16927062 0.11190029 0.16353732 -0.047130745 -0.01600558 -0.11879328
-0.015404389 0.007157773 -0.11760557 -0.09660308 0.72552866 0.13369747 0.34671897 -0.06662233
0.16757432 0.50351137 -0.030236557 0.49247074 -0.06551728 0.12445465 -0.055296656 -0.026845915
-0.044385992 0.08923952 0.08689876 -0.100628525 0.1252108 0.16990903 -0.0141948825 -0.13475832
-0.07588041 -0.09081552 -0.027732214 0.21462095 -0.08297181 -0.10807335 -0.0625088 -0.05665476
