HAC-Baseline/preTrained/Ant-v3/2level/HAC_MountainCarContinuous-v0_normal_sync_level_0_crtic.pth (torch, 20375 bytes, 5 tensors)

critic.0.weight f4 [64, 5]
0.08733521 2.5866992 -0.0019293741 -0.15897614 -0.7884831 0.08194967 -0.61178344 -0.111980125
0.4699261 0.8024457 0.38801035 1.4492236 -0.0866739 -0.48985916 -0.6690647 -0.23695923
-0.9093439 0.085463844 -0.2664925 0.53109014 -0.07566009 0.62580514 -0.109106354 0.4641057
0.7609549 0.56612194 1.0468194 0.007547978 -0.27969697 -1.0683868 -0.24539372 -0.62334245
-0.15831669 0.04027787 0.15648687 -0.16895977 -0.3817462 0.12543708 0.17188208 1.2872878
-0.19978625 -0.9653855 0.053068887 0.07271751 1.0273849 0.4589324 1.5951643 -0.33577973
-0.30199572 -0.96861684 -0.63443905 -1.7089436 0.40228766 0.21496154 0.90256983 -0.15436472
-1.7444972 -0.052463528 0.5253353 -0.8287048 0.13758852 0.21641625 -0.106913276 0.25903815
-0.3418575 -0.17348899 -1.8423028 -0.22982691 0.36651197 1.082504 -0.017094146 -0.44807935
-0.27521423 -0.08037269 -0.8887913 0.37728578 0.9930326 0.030513154 0.3344928 0.08152882
0.56579727 1.4060162 0.00033682532 -0.55118793 -0.57633114 0.2927066 2.260073 0.00749367
-0.25296858 -1.640936 0.33428934 0.56437755 0.28565598 -0.5331619 -0.19077402 -0.048348375
0.7024522 0.13336422 -0.5678768 0.17598957 -0.10023621 -0.36452994 0.4459615 0.5174247
1.2881925 -0.19313453 -1.9050375 -0.18431607 0.217203 0.01681503 0.55584455 2.4654815
-0.032172382 -0.46865553 -0.9484163 0.5780392 1.8812879 -0.082124494 -0.26822624 -0.63616234
-0.45288062 1.60304 0.08884956 -0.23793434 -0.70975626 -0.39822543 -1.7790546 0.12821957
0.18333098 1.007715 0.20822039 3.0692644 0.006935235 -0.1290693 -0.5129757 -0.106435895
-1.2003524 -0.2294129 0.13135281 -0.38028267 -0.12987109 2.434259 0.20291479 -0.33612075
-1.0914836 -0.292056 -1.5604867 0.07221259 0.23746555 0.72811526 -0.11225459 -0.09684668
-0.19738007 0.21708542 -0.66728973 0.11270565 0.02373864 0.1071883 0.28602117 1.0771499
0.116705574 1.0500515 0.049666 -0.0747811 -1.5401906 0.5243775 1.2088885 -0.19798556
0.44918978 0.23189168 -0.30118653 1.3689417 0.13566972 0.02886382 0.90649277 0.47152266
1.7811414 -0.32042968 -0.38966256 -0.23961318 0.17546965 -0.8973514 0.14747071 0.6023239
-0.79826844 -0.40501738 -0.85302746 0.0045571816 0.51261544 -0.9133398 -0.36098227 -0.12574445
-0.0014591552 0.36510658 0.6940528 0.71456 1.2862693 -0.022061272 -0.49446192 -1.4644694
-0.21979532 -1.6568897 0.020117443 -0.010633033 0.31592435 -0.041607674 0.010372806 -0.08373062
0.37046808 0.90285224 -0.36950254 -2.2028055 0.10472143 -0.0259677 0.09415089 0.08247779
1.8472537 0.006010665 -0.13515224 -0.71913934 -0.17262049 -1.2143404 -0.20713842 0.20045151
1.1821227 -0.42149428 -2.2990925 -0.14602274 0.4139899 0.57832575 -0.19609718 2.0485814
0.039375603 0.0117647005 -0.6323538 0.44346052 2.5187433 -0.00031920846 -0.3414827 -1.4898651
-0.30849138 -1.4181445 -0.0023353968 0.4600767 -0.5646993 -0.48276263 -1.7144029 0.011862267
0.63997793 0.76810914 -0.017419642 -0.72285557 -0.37678152 -0.32610837 -0.42419064 -0.31523103
00000000: cddc b23d 7b8c 2540 0de3 fcba a4ca 22be
00000010: 07da 49bf 3bd5 a73d d79d 1cbf d655 e5bd
00000020: 279a f03e 156d 4d3f 4ba9 c63e 2980 b93f
00000030: 1682 b1bd d2ce fabe d347 2bbf 71a5 72be
00000040: c3ca 68bf ab07 af3d b471 88be 86f5 073f
00000050: adf3 9abd c434 203f 2773 dfbd 439f ed3e
00000060: f1cd 423f 5eed 103f 2efe 853f 0755 f73b
00000070: 7134 8fbe e6c0 88bf 7e48 7bbe 5f93 1fbf
00000080: c51d 22be 68fa 243d 183e 203e ca03 2dbe
00000090: 3d74 c3be 9472 003e db01 303e d9c5 a43f
000000a0: c494 4cbe 8123 77bf c35e 593d ebec 943d
000000b0: 5981 833f 30f9 ea3e 582e cc3f 52eb abbe
000000c0: 2f9f 9abe 46f7 77bf 996a 22bf aabe dabf
000000d0: a6f8 cd3e e11e 5c3e d10e 673f c911 1ebe
000000e0: af4b dfbf ffe3 56bd 607c 063f ff25 54bf
000000f0: 01e4 0c3e 399c 5d3e 59f5 dabd a6a0 843e
00000100: f207 afbe 19a7 31be 94d0 ebbf bf57 6bbe
00000110: 75a7 bb3e 7e8f 8a3f 0609 8cbc a86a e5be
00000120: e1e8 8cbe 709a a4bd d487 63bf 9a2b c13e
00000130: 6237 7e3f b9f6 f93c a442 ab3e 95f8 a63d
00000140: 17d8 103f 57f8 b33f ee97 b039 a71a 0dbf
00000150: 708a 13bf a4dd 953e 09a5 1040 768d f53b
00000160: 1985 81be 310a d2bf f927 ab3e 0c7b 103f
00000170: 8041 923e 4c7d 08bf 445a 43be f208 46bd
00000180: e8d3 333f a190 083e 6060 11bf 9c36 343e
00000190: a448 cdbd aba3 babe 1155 e43e f275 043f
000001a0: 7ee3 a43f 0fc5 45be 45d8 f3bf 5abd 3cbe
000001b0: 776a 5e3e acbf 893c d44b 0e3f 73ca 1d40
000001c0: 30c7 03bd 9ef3 efbe 69cb 72bf 61fa 133f
000001d0: 0bce f03f e330 a8bd f354 89be 89db 22bf
000001e0: f8df e7be 6a30 cd3f c2f6 b53d 0fa5 73be
000001f0: 96b2 35bf 34e4 cbbe 10b8 e3bf fe4b 033e
00000200: 1ebb 3b3e cefc 803f ba37 553e d46e 4440
00000210: f840 e33b be2a 04be 6052 03bf 10fb d9bd
00000220: 26a5 99bf 37eb 6abe 5a81 063e 69b4 c2be
00000230: edfc 04be e6ca 1b40 e5c8 4f3e 0518 acbe
00000240: bcb5 8bbf 5d88 95be 07be c7bf 32e4 933d
00000250: 2b2a 733e c365 3a3f bce5 e5bd 8d57 c6bd
00000260: 001e 4abe a44b 5e3e 80d3 2abf 38d2 e63d
00000270: 8977 c23c 8a85 db3d 5e71 923e 0ce0 893f
00000280: 5503 ef3d 1668 863f 936e 4b3d d526 99bd
00000290: f724 c5bf 9b3d 063f dcbc 9a3f babc 4abe
000002a0: 34fc e53e 0375 6d3e 1f35 9abe 7b39 af3f
000002b0: 01ed 0a3e d173 ec3c e90f 683f 6b6b f13e
000002c0: 71fc e33f 5c0f a4be da81 c7be 285d 75be
000002d0: 51ae 333e d2b8 65bf 9002 173e e631 1a3f
000002e0: 525b 4cbf 705e cfbe 0260 5abf 6954 953b
000002f0: c43a 033f a3d0 69bf abd2 b8be 27c3 00be
00000300: 2041 bfba 40ef ba3e 72ad 313f 67ed 363f
00000310: 79a4 a43f d7b9 b4bc 1d2a fdbe bc73 bbbf
00000320: 0612 61be f614 d4bf 56cd a43c 2c36 2ebc
00000330: d6c0 a13e cf6c 2abd b4f2 293c f67a abbd
00000340: fead bd3e 5321 673f 702f bdbe c4fa 0cc0
00000350: 3078 d63d 37ba d4bc 2fd2 c03d 1eea a83d
00000360: cf72 ec3f 1df5 c43b 5965 0abe 8419 38bf
00000370: 6dc3 30be 826f 9bbf 181c 54be 2943 4d3e
00000380: cc4f 973f 19ce d7be 5524 13c0 fc86 15be
00000390: 7cf6 d33e 280d 143f b3cd 48be f51b 0340
000003a0: 5048 213d bbc0 403c f0e1 21bf 420d e33e
000003b0: 1733 2140 6f5b a7b9 d2d6 aebe e6b3 bebf
000003c0: 95f2 9dbe c285 b5bf 750d 19bb 2c8f eb3e
000003d0: 2290 10bf aa2c f7be 8e71 dbbf f459 423c
000003e0: 98d5 233f cda2 443f a3b3 8ebc 100d 39bf
000003f0: 82e9 c0be adf7 a6be 842f d9be f665 a1be

critic.0.bias f4 [64]
0.066489585 0.2851585 -0.029453073 -0.42160422 0.24420649 0.13737255 0.07410489 0.13382553
-0.0073538623 -0.25113598 -0.28043896 0.060910787 0.18783155 0.017120447 -0.19957267 0.24694212
-0.018724639 0.13284646 -0.2608869 -0.34747097 -0.102911904 -0.070075214 0.15007932 0.22207956
-0.21493119 0.0063061235 0.12693204 -0.2131161 -0.10594246 0.15802552 -0.14836858 0.26327115
0.14931037 0.1219632 -0.11758215 -0.20966345 0.04011477 -0.013048233 0.052987427 0.15177785
-0.11308492 0.22637011 -0.15433466 0.050017543 -0.11464371 0.0879327 0.06679472 0.1852338
-0.020686623 0.10399002 -0.4770449 -0.22630209 -0.2740158 0.17280224 -0.17315014 0.10160374
-0.400751 -0.064952485 0.2197469 0.10290913 -0.0659997 0.24428841 0.28329146 0.21615024
00000000: b12b 883d 4b00 923e 9247 f1bc 82dc d7be
00000010: 4411 7a3e 64ab 0c3e 4ec4 973d 8f09 093e
00000020: abf8 f0bb e594 80be b295 8fbe 977d 793d
00000030: ea56 403e 2e40 8c3c c75c 4cbe 65de 7c3e
00000040: 6a64 99bc e708 083e f892 85be b7e7 b1be
00000050: 7ac3 d2bd 9883 8fbd 65ae 193e d368 633e
00000060: ec16 5cbe 99a3 ce3b 79fa 013e 1b3b 5abe
00000070: 5cf8 d8bd 71d1 213e efed 17be 7acb 863e
00000080: d1e4 183e d8c7 f93d e9ce f0bd 04b2 56be
00000090: 634f 243d 42c8 55bc 5809 593d a76b 1b3e
000000a0: 1199 e7bd 91cd 673e e809 1ebe 32df 4c3d
000000b0: 52ca eabd 0f16 b43d accb 883d eead 3d3e
000000c0: fe76 a9bc b8f8 d43d 3b3f f4be bcbb 67be
000000d0: cd4b 8cbe 12f3 303e 454e 31be 9f15 d03d
000000e0: 3c2f cdbe cf05 85bd 5505 613e 06c2 d23d
000000f0: da2a 87bd be26 7a3e 940b 913e 7d56 5d3e

critic.2.weight f4 [64, 64]
-0.111646205 -0.08678349 -0.13001625 -0.1440564 0.007184737 -0.11209072 -0.084812574 0.034551032
0.10085407 -0.14343624 -0.16408196 -0.084531866 0.06910604 0.050166987 0.060572118 0.033662066
-0.2546606 0.07403143 -0.19396712 -0.097107485 -0.073227756 0.026123099 0.05169393 -0.030011604
0.014730728 -0.080784425 0.014615788 0.09505403 0.05372871 -0.07271994 -0.07414429 -0.08207044
-0.0252616 -0.014442681 0.05747995 -0.0038475923 -0.07010548 -0.14295605 0.082665905 -0.025074584
-0.06793842 -0.12141518 0.104964316 0.048037253 -0.10172542 -0.14417489 0.08401106 0.024744263
-0.14778475 -0.103885755 0.059907854 -0.10373676 -0.076977335 -0.14760949 -0.12858161 -0.20495595
0.11331782 -0.033231627 -0.12950471 0.09320843 -0.08289432 -0.16141716 0.03513076 0.04101929
0.18278931 -0.11247997 0.14623949 -0.15631036 -0.04029607 -0.02559737 -0.040870152 0.04780461
-0.10310601 0.22832872 -0.12422684 0.14451468 -0.008597294 -0.14523618 -0.0045598224 -0.20826018
0.92921996 0.20670755 0.12436811 0.25221676 -0.068892516 -0.31533185 0.20463446 0.13647856
0.02748248 -0.106549926 0.18778305 -0.01865776 0.13430099 -0.14087577 -0.02813197 -0.06300193
0.08033599 -0.08251878 0.08592464 0.10056518 -0.18863562 0.32647657 -0.02092749 0.1373575
-0.114487514 -0.13138832 -0.051019624 0.035894245 0.015967794 -0.24554396 -0.029909689 0.089708544
0.22037467 0.3300267 -0.015298809 0.2513138 0.07909129 0.05823861 0.11413367 -0.023838228
-0.036931396 0.5513054 -0.01651815 0.02485816 -0.09541564 -0.21150485 -0.0033867627 -0.11491753
-0.15963109 0.09328171 -0.14990282 -0.09373378 0.06589364 -0.29335874 0.09947766 0.011311961
0.0660943 0.13134141 0.15431131 0.5709923 -0.0063976008 0.14115115 -0.19262788 -0.14660867
0.6644641 -0.21749479 0.004505158 0.115688264 0.0851927 0.13972254 -0.22948498 -0.16518955
-0.21565999 0.08573916 -0.22128637 -0.02919266 -0.14805283 -0.05439221 0.041596178 0.070533134
-0.10747048 -0.053396635 -0.17513448 0.07314136 0.2919229 0.41909093 0.11542136 -0.28262904
-0.05951053 0.086396724 0.04670123 -0.20042239 0.104387246 -0.011621892 0.016269293 -0.15768284
0.46435866 0.6504009 -0.035778854 0.11582851 -0.08051039 -0.043209568 -0.039343815 0.30797106
-0.0125679225 0.29418507 0.0064050946 -0.112055466 -0.020471886 0.05963175 -0.150269 0.009472876
-0.29101557 -0.3143509 -0.21224952 0.06852902 -0.35337391 -0.124091044 -0.013250142 -0.15888712
0.024769576 -0.058108203 0.0942072 0.081184775 -0.2313725 0.27837792 -0.057528418 -0.30345282
0.12546843 -0.1520255 0.08444113 -0.042038165 -0.27133647 0.1722471 -0.23874657 -0.30323902
-0.17593718 0.27375135 -0.18835649 0.031524267 -0.05961727 0.06645332 -0.15025407 -0.18185414
-0.052285515 -0.23521563 0.052789096 -0.21354312 0.05693297 0.31643164 -0.13128701 -0.2502022
-0.13456942 -0.12741871 -0.058895133 -0.05537413 0.24481082 -0.15096888 -0.16164961 -0.18768863
0.08938493 0.598295 -0.026168363 0.24995518 -0.19528615 -0.04222388 -0.08579016 0.2058649
0.018053785 0.010007433 -0.18414219 -0.20957933 -0.14499548 0.04349611 -0.33214444 -0.0710482
00000000: c4a6 e4bd 8bbb b1bd fb22 05be 8583 13be
00000010: f16d eb3b d28f e5bd 37b2 adbd 6285 0d3d
00000020: 948c ce3d f3e0 12be 1a05 28be 0b1f adbd
00000030: 7887 8d3d e67b 4d3d 781a 783d 3ce1 093d
00000040: e062 82be ca9d 973d 519f 46be 4ae0 c6bd
00000050: 6ff8 95bd 1c00 d63c 04bd 533d e5da f5bc
00000060: 2759 713c 4e72 a5bd 0f77 6f3c b0ab c23d
00000070: a312 5c3d 31ee 94bd f6d8 97bd 8c14 a8bd
00000080: 6af1 cebc ffa0 6cbc 1970 6b3d e327 7cbb
00000090: 7693 8fbd 1263 12be be4c a93d 3769 cdbc
000000a0: 4c23 8bbd 86a8 f8bd 88f7 d63d b6c2 443d
000000b0: 6b55 d0bd 95a2 13be fe0d ac3d 7bb4 ca3c
000000c0: e354 17be 0ec2 d4bd f061 753d f073 d4bd
000000d0: 4ba6 9dbd f126 17be e6aa 03be f9df 51be
000000e0: 2c13 e83d e31d 08bd e29c 04be 10e4 be3d
000000f0: 7fc4 a9bd 8a4a 25be 46e5 0f3d d803 283d
00000100: 1f2d 3b3e e65b e6bd cebf 153e d30f 20be
00000110: 7e0d 25bd 93b1 d1bc 7667 27bd c4ce 433d
00000120: 3e29 d3bd 01cf 693e a46a febd a8fb 133e
00000130: aadb 0cbc cbb8 14be 906a 95bb 2842 55be
00000140: 5ce1 6d3f 25ab 533e b5b4 fe3d 8e22 813e
00000150: 8517 8dbd 2d73 a1be b28b 513e 09c1 0b3e
00000160: f022 e13c d936 dabd 334a 403e 29d8 98bc
00000170: 3386 093e bd41 10be 0475 e6bc 2807 81bd
00000180: 3287 a43d 9bff a8bd 42f9 af3d 1ef5 cd3d
00000190: b229 41be f027 a73e 2170 abbc 72a7 0c3e
000001a0: 6e78 eabd a98a 06be f4f9 50bd d805 133d
000001b0: e4ce 823c e06f 7bbe 2a05 f5bc 1db9 b73d
000001c0: e6a9 613e 42f9 a83e dba7 7abc 34ac 803e
000001d0: 9dfa a13d 9c8b 6e3d eabe e93d 6348 c3bc
000001e0: 6045 17bd 5a22 0d3f 1251 87bc 57a3 cb3c
000001f0: 4669 c3bd ba94 58be 73f4 5dbb e259 ebbd
00000200: 5576 23be 7b0a bf3d 2080 19be 7ff7 bfbd
00000210: 3ff3 863d 1e33 96be f2ba cb3d ce55 393c
00000220: 735c 873d 5d7e 063e c903 1e3e 8d2c 123f
00000230: f7a2 d1bb ed89 103e 3e40 45be 9520 16be
00000240: 521a 2a3f f4b6 5ebe 01a0 933b f8ed ec3d
00000250: 8379 ae3d 6d13 0f3e 1cfe 6abe 7327 29be
00000260: f9d5 5cbe 0398 af3d e598 62be 7225 efbc
00000270: 299b 17be 5eca 5ebd c160 2a3d ad73 903d
00000280: 7c19 dcbd 6eb6 5abd 7456 33be 23cb 953d
00000290: eb76 953e 1693 d63e 0962 ec3d c1b4 90be
000002a0: 50c1 73bd c4f0 b03d ca49 3f3d 873b 4dbe
000002b0: fbc8 d53d c069 3ebc 2e47 853c 9c77 21be
000002c0: 6bc0 ed3e ac80 263f d98c 12bd 7f37 ed3d
000002d0: a2e2 a4bd 84fc 30bd fb26 21bd 62ae 9d3e
000002e0: b0e9 4dbc 6d9f 963e d4e1 d13b 567d e5bd
000002f0: a8b4 a7bc 6c40 743d 1ee0 19be 1f34 1b3c
00000300: feff 94be 9af2 a0be f057 59be f158 8c3d
00000310: 6ded b4be 7223 febd 2017 59bc 4eb3 22be
00000320: 91e9 ca3c de02 6ebd b4ef c03d 3444 a63d
00000330: eaec 6cbe 8d87 8e3e eba2 6bbd 2b5e 9bbe
00000340: cc7a 003e 93ac 1bbe 79ef ac3d 3630 2cbd
00000350: 9dec 8abe 8b61 303e fb79 74be 2542 9bbe
00000360: e028 34be 2329 8c3e 86e0 40be 971f 013d
00000370: 3d31 74bd ae18 883d 34dc 19be f937 3abe
00000380: 5629 56bd 5edc 70be 6139 583d 0cab 5abe
00000390: 8c32 693d 5403 a23e 1a70 06be 811a 80be
000003a0: 91cc 09be 0d7a 02be 063c 71bd fccf 62bd
000003b0: b0af 7a3e 9697 1abe 7a87 25be 7331 40be
000003c0: 720f b73d dc29 193f 095f d6bc 40f4 7f3e
000003d0: 18f9 47be f2f2 2cbd c0b2 afbd 40ce 523e
000003e0: 88e5 933c 37f6 233c c58f 3cbe f79b 56be
000003f0: b279 14be fa28 323d d60e aabe b881 91bd

critic.2.bias f4 [64]
0.07347274 -0.15455456 0.06698336 -0.007599524 -0.0006673428 -0.07372144 -0.1364597 -0.0664522
0.2519498 0.16716367 0.086447224 -0.1413859 0.14527825 0.055907615 0.004714676 0.014913347
-0.09225028 0.06573929 -0.009034536 0.06555762 0.0881973 -0.023811229 -0.009704396 0.012300457
0.026371932 0.012601943 -0.06477538 0.09753767 0.021075785 0.14916426 0.16287369 -0.0314398
0.08490834 -0.086093284 -0.08928728 0.12439542 -0.07106236 0.07203196 -0.07754044 -0.09766922
0.02352431 -0.07887601 0.026993275 -0.05495929 -0.105834305 -0.051555745 0.2708855 -0.08859019
-0.0220756 -0.031010624 -0.008460668 0.0542301 -0.03973356 0.0031862268 -0.13287473 0.15659435
-0.0092146555 0.0046581984 -0.14022818 0.053951032 -0.080896184 -0.008272419 0.037849374 -0.021305526
00000000: e078 963d 8d43 1ebe 922e 893d 6e05 f9bb
00000010: 9ef0 2eba 44fb 96bd 17bc 0bbe 1718 88bd
00000020: 90ff 803e f42c 2b3e 3e0b b13d 77c7 10be
00000030: d2c3 143e 62ff 643d 927d 9a3b 1c57 743c
00000040: b7ed bcbd 52a2 863d 9705 14bc 1343 863d
00000050: c9a0 b43d c40f c3bc 30ff 1ebc db87 493c
00000060: f309 d83c 6178 4e3c f4a8 84bd d4c1 c73d
00000070: 20a7 ac3c 84be 183e 5cc8 263e 05c7 00bd
00000080: 6ce4 ad3d ad51 b0bd 40dc b6bd 07c3 fe3d
00000090: 2589 91bd 7e85 933d 86cd 9ebd cd06 c8bd
000000a0: 0eb6 c03c bf89 a1bd 0021 dd3c fe1c 61bd
000000b0: a8bf d8bd 1e2c 53bd 81b1 8a3e c66e b5bd
000000c0: e4d7 b4bc fe09 febc 9d9e 0abc 6220 5e3d
000000d0: a8bf 22bd 04d0 503b 5010 08be 455a 203e
000000e0: 11f9 16bc cda3 983b fa97 0fbe c2fb 5c3d
000000f0: e6ac a5bd 0a89 07bc f207 1b3d ed88 aebc

critic.4.weight f4 [1, 64]
-0.053623397 0.2141167 0.12672502 0.0641226 -0.04426682 -0.04945117 -0.08462843 -0.0077713015
-0.26848248 -0.1746426 -0.17253329 0.1787277 -0.23851809 -0.029860215 -0.03125945 -0.03631824
0.44967124 0.31908488 0.09446631 -0.24432677 0.33402124 0.040042635 0.3241311 0.20365822
0.10220569 0.10230377 0.1703862 0.18592344 0.15055497 -0.07632865 -0.15294194 0.01712663
-0.029384788 -0.02416703 -0.11760557 -0.14030366 1.2101111 0.17687446 0.42241383 -0.066590056
0.2028697 0.9143533 -0.040827334 0.6272187 -0.06551728 0.049485337 -0.15956634 -0.026845915
0.014542112 0.06484166 0.110104285 -0.050554927 0.26943102 0.22102182 -0.0141948825 -0.17441142
-0.27822095 -0.09073945 -0.027732214 0.22164884 -0.082943864 -0.107863024 -0.05666875 -0.055968594
00000000: 35a4 5bbd 6941 5b3e 34c4 013e b652 833d
00000010: 2051 35bd 4f8d 4abd ac51 adbd 67a6 febb
00000020: 8976 89be 82d5 32be 91ac 30be 6504 373e
00000030: 163e 74be 699d f4bc e909 00bd 6fc2 14bd
00000040: 4f3b e63e 185f a33e 8e77 c13d cc30 7abe
00000050: d504 ab3e bf03 243d 83f4 a53e c88b 503e
00000060: 3851 d13d a484 d13d b879 2e3e b762 3e3e
00000070: 152b 1a3e 3252 9cbd d09c 1cbe 254d 8c3c
00000080: 5eb8 f0bc eff9 c5bc 30db f0bd c3ab 0fbe
00000090: ece4 9a3f 941e 353e a046 d83e 5e60 88bd
000000a0: 13bd 4f3e 0f13 6a3f 903a 27bd 6891 203f
000000b0: ec2d 86bd 23b1 4a3d 5c65 23be f7eb dbbc
000000c0: 0a42 6e3c b4cb 843d 5b7e e13d af12 4fbd
000000d0: ddf2 893e 8b53 623e a791 68bc e898 32be
000000e0: fa72 8ebe 9bd5 b9bd ab2e e3bc eaf7 623e
000000f0: 79de a9bd 4ae7 dcbd 7e1d 68bd 533f 65bd
